saved_models/default.pth (torch, 537148 bytes, 26 tensors)

conv1.weight f4 [32, 1, 3, 3]
000000 96 c8 30 be 69 bc a3 be cf 97 61 be 81 43 bb be
       -0.17264017 -0.31979683 -0.22030567 -0.3657494
000010 80 88 ce 3d 2c 4c f0 3c cd 8a 90 bd 62 09 d0 3d
       0.10084629 0.029333197 -0.07057724 0.1015804
000020 4a ae 8e 3e 65 b4 d6 be 26 2b 16 be a0 84 db 3d
       0.27867347 -0.41934505 -0.14664897 0.107186556
000030 2e 19 d6 bd ac f1 80 be c9 a5 68 bd 4e 4b a9 bd
       -0.104540214 -0.2518438 -0.05679873 -0.08266316
000040 d2 53 7b be 57 94 1f be a1 e6 1c 3e c9 02 a3 be
       -0.24543694 -0.15583931 0.15322353 -0.31838062
000050 1b c2 56 be 71 f7 13 3e f9 fe c0 3e 46 d1 3c 3e
       -0.20972483 0.1444986 0.3769453 0.18439206
000060 50 1a c2 3d b1 9f 93 3d 91 3c a4 3c 1d 79 85 be
       0.09477675 0.07208193 0.020048412 -0.26068965
000070 02 f8 5a 3e 26 48 16 3e a6 f2 cf be 30 a9 b8 3d
       0.2138367 0.1467596 -0.40614814 0.09016645
000080 e2 60 8d 3e 3f ed 9e be 12 1e 70 be af ec 52 3d
       0.27612978 -0.3104038 -0.23448971 0.05149525
000090 b3 cd ae 3e 48 48 00 3e f8 5b 24 3e a7 24 b7 be
       0.3414131 0.12527573 0.16050708 -0.3577015
0000a0 7a 06 90 bd a8 eb 9e be 59 ba 1c bd 56 df bb bd
       -0.07032485 -0.31039166 -0.038263652 -0.09173457
0000b0 8a 21 b5 bd 3a eb bf 3e a6 a4 1a be ff 0f bb 3e
       -0.08844288 0.3748415 -0.15101871 0.36535642
0000c0 ef 25 18 3e 4f 15 43 3e b4 7f 56 be d4 c6 97 3e
       0.1485822 0.19051097 -0.20947152 0.2964388
0000d0 12 81 2d 3e 76 62 87 be 32 cd 80 3d 6c 51 ab be
       0.16943768 -0.26442307 0.06289138 -0.33460557
0000e0 a5 d9 44 3d 2a d5 96 be b7 29 40 be 24 6b 85 3e
       0.048059124 -0.29459506 -0.18765913 0.26058304
0000f0 1c 2f de be ff 42 67 3e 9c d1 08 3d 59 23 5d 3e
       -0.43395317 0.2258415 0.033403024 0.21595515
000100 4e 09 5c 3c a3 0f 4f be 52 ab 94 3e 3d be c6 bd
       0.013429953 -0.20220809 0.29036957 -0.09704254
000110 8a d5 73 be 18 f1 9e bc f8 cb 05 3e 36 c8 9e be
       -0.23811927 -0.019402072 0.13066089 -0.31012124
000120 c6 eb b3 3d 50 7b 45 be bc 3a 94 bd d8 a1 8b be
       0.087852046 -0.19285321 -0.07237765 -0.27271914
000130 29 47 05 3b 6f a7 e3 3d 87 13 d8 bd dd 50 1e 3e
       0.0020336604 0.1111592 -0.105505995 0.15460534
000140 8b e1 c0 bc e1 56 ea 3d c8 4a b6 3e f0 70 07 be
       -0.023545047 0.11442352 0.3560393 -0.13226676
000150 41 28 88 be 23 8c 3f 3e d9 32 39 3c 7a 48 bc 3e
       -0.2659321 0.18705802 0.011303627 0.36774045
000160 88 5c 70 bd e4 fe 93 3e 18 10 c6 be 46 c9 1f be
       -0.058681995 0.28905404 -0.38684154 -0.15604123
000170 d6 23 da 3c b8 a4 2b 3c 3b 62 84 be c5 d2 de 3d
       0.026628416 0.010476284 -0.25856194 0.10880045
000180 24 16 c1 bd 18 ed 3e be 48 91 49 3e 34 6f 29 be
       -0.09428051 -0.18645132 0.19684327 -0.16546327
000190 7b b8 8f be 45 91 c1 be cf c1 d4 3e b5 0b 07 3b
       -0.28070435 -0.37806144 0.41554114 0.0020606343
0001a0 a3 ad 63 3c 11 b3 13 3e c5 e4 ca bd 5b ec 70 3e
       0.013896379 0.14423777 -0.099069156 0.23527662
0001b0 64 e2 8e be 6a ea 6c be 64 49 ad bd 9c 81 41 3e
       -0.27907097 -0.23136297 -0.08461264 0.18897098
0001c0 e4 1e d3 bd bf 5b fb bd 54 bf 19 3e fe 28 53 3e
       -0.10308626 -0.122733586 0.15014392 0.20621106
0001d0 89 75 77 be 45 a3 88 be f0 4d 97 be 26 a4 9b 3e
       -0.2416593 -0.26687065 -0.2955165 0.30398673
0001e0 f9 a9 a6 3e 85 bb 12 be 86 b5 44 3e 3e c5 45 3e
       0.32551554 -0.14329346 0.1920987 0.19313523
0001f0 a7 76 a6 be 73 87 53 3e e9 81 e4 be ba 1c 96 3d
       -0.325124 0.20657139 -0.44630364 0.07329698
000200 83 30 1a bd 3d 45 2a 3d e1 b8 bd 3e ca ee 91 3d
       -0.03764392 0.041569937 0.37055114 0.071256235
000210 12 2e 95 bd 4f b1 86 be 2a 32 9c bd 4a de 82 3d
       -0.07284178 -0.2630715 -0.076267555 0.063900545
000220 7e af 71 3e 16 82 02 be 63 05 29 be 70 95 ae 3e
       0.23602101 -0.12744936 -0.16505961 0.34098387
000230 b3 51 ce bd f8 93 d5 3d 46 0e 84 3d 48 22 9e be
       -0.10074177 0.104286134 0.06448035 -0.3088553
000240 16 60 f0 3a f9 f9 23 bd 8e 9c e9 bb cc 70 81 3e
       0.0018339183 -0.040033314 -0.0071292585 0.2528137
000250 5d 0b 39 bc b5 26 7c be e3 30 89 3e 81 3e 47 be
       -0.011294213 -0.2462414 0.2679511 -0.19457437
000260 9a 8c 94 bd b1 f2 10 bd fe a8 7a 3e b4 c4 1f be
       -0.0725338 -0.0353877 0.24478528 -0.1560238
000270 e2 7f 45 3e b6 7a 55 3e 75 cb c2 3d 87 c1 82 3e
       0.19287065 0.20847592 0.095114626 0.25538275
000280 cf 9a 52 bd 74 e4 e5 be 80 37 11 be 05 63 6e 3e
       -0.05141717 -0.44900858 -0.14181328 0.2327996
000290 a2 66 4a 3e b6 8d 98 be 3c b8 b2 be 53 4a 56 bd
       0.19765714 -0.29795617 -0.34906185 -0.052316975
0002a0 1a 4b 9e 3e 52 08 e7 bd f8 65 b5 bd 82 05 88 3e
       0.30916673 -0.11280884 -0.088573396 0.26566702
0002b0 1d a2 2c 3e c9 ab c3 bd 19 84 6f be ea e8 b3 be
       0.16858716 -0.0955425 -0.23390235 -0.35138637
0002c0 26 b3 32 3e 8f 96 ab be 05 cb b1 3d f8 71 c0 3e
       0.17451152 -0.33513305 0.08681301 0.3758695
0002d0 b2 04 94 be 5f d7 79 3d 0c 18 6e 3c 24 d2 89 3e
       -0.28909832 0.06099641 0.0145321 0.26918137
0002e0 32 d0 b3 bd fa 49 83 3e 70 03 9e bd ef dd e1 be
       -0.087799445 0.25642377 -0.077154994 -0.44114634
0002f0 0e d3 b3 3d 26 cd 81 bc 02 a9 8e be 8b 62 47 3e
       0.0878049 -0.015844893 -0.27863318 0.19471185
000300 03 cb 8d 3b 1c 75 ab 3d 35 7b c6 be 8e 3f 45 3e
       0.0043271794 0.08371946 -0.38765875 0.19262525
000310 64 ed 80 3e cb eb d1 be 85 c9 56 3e 9b f7 84 3d
       0.25181115 -0.41000208 0.20975311 0.064925395
000320 75 d0 28 3e 41 79 69 be d2 14 54 3e 11 db 06 3e
       0.1648577 -0.22800161 0.20711067 0.13169505
000330 d0 7e 30 be 90 af b0 be 6c 33 41 be 62 79 0f 3e
       -0.17235875 -0.34508944 -0.18867272 0.14011148
000340 43 f6 f3 3d 29 d2 b9 3b e4 1f 88 3e 82 7d 72 3e
       0.11912205 0.005670805 0.2658683 0.2368069
000350 73 51 d1 3e d8 47 4a be 97 f0 2e 3e c9 6e 90 3e
       0.40882453 -0.19753969 0.17083965 0.28209522
000360 7e 25 b6 3d 24 62 f8 bd 3f 02 bd be f3 79 a9 3d
       0.0889387 -0.12128094 -0.36915776 0.08275213
000370 2b 01 e5 3c 9d 8f b9 bd 72 1d 4b 3e da c2 10 3e
       0.027954658 -0.09060595 0.19835451 0.1413683
000380 85 42 4d 3e 94 25 03 3d bc 17 41 3e b1 6a 97 be
       0.20044906 0.03201826 0.1885671 -0.29573587
000390 c4 51 5a 3e e7 bd 62 be ec 91 e4 bd 16 35 51 be
       0.21320254 -0.22142754 -0.11160645 -0.20430407
0003a0 ad e0 41 be 56 cc 99 bb 77 29 b5 be 8f 28 c9 bd
       -0.18933363 -0.004693548 -0.35383198 -0.09822189
0003b0 f3 08 8c 3e 0e 4a ce 3d 5e b3 e3 3e 69 0e ec bd
       0.27350578 0.100727186 0.44472784 -0.11526186
0003c0 67 55 5e 3e 8e 5d b1 be 37 0a 24 be 29 d3 c2 bd
       0.21712266 -0.3464169 -0.16019522 -0.09512932
0003d0 a1 29 5f be 0b 9b 10 be b4 6d 69 be 0f a9 9a bc
       -0.21793224 -0.14121644 -0.22795755 -0.018879442
0003e0 99 cb 58 3e a9 f4 98 3e e9 ce c0 3d 8d f5 a7 3d
       0.21171416 0.2987416 0.09414465 0.08201132
0003f0 26 7c f9 3d e3 96 93 ba 8e d4 09 be 5b 70 fa 3b
       0.121818826 -0.0011260178 -0.1345999 0.0076427883

conv1.bias f4 [32]
000000 7e 9d a2 3d a4 c4 99 3b 45 30 a5 3e 47 1a a8 3e
       0.079401955 0.004692631 0.3226339 0.32832548
000010 45 eb 30 3e 19 a2 ef bd 90 07 ac 3e 24 71 de 3b
       0.17277248 -0.117008395 0.3359952 0.0067883898
000020 69 87 bb 3d 7a 54 83 3e f2 5d 0d 3d eb 52 d5 3d
       0.09156687 0.25650388 0.03451342 0.10416206
000030 bb ad a2 3c be b4 ef bd a7 4b 08 3d 0c be d1 3d
       0.019858232 -0.11704396 0.033275273 0.10241327
000040 91 00 aa bd 05 30 86 be 2e 0b b3 3d 98 8f 4c 3c
       -0.08300889 -0.2620851 0.08742367 0.012485407
000050 ed f3 44 be d7 9a 3a 3e 26 47 1e be 8d dc a4 3d
       -0.19233675 0.18223129 -0.15456828 0.08049879
000060 a6 94 8f be e8 f3 fa bd a8 49 80 3e eb 7e 81 be
       -0.28043097 -0.12253553 0.25056195 -0.25292143
000070 f6 1f 22 3d 06 59 07 be a8 1f 39 be fe e1 64 3d
       0.03958126 -0.13217553 -0.18078482 0.055879585

bn1.weight f4 [32]
000000 6a d4 a4 3f 8a a7 92 3f 8b a0 df 3e 5a 22 8f 3f
       1.2877324 1.1457379 0.43677172 1.1182358
000010 95 ba 9b 3f 01 a7 05 3f 03 0c 88 3f fc 88 8b 3f
       1.2166315 0.5220795 1.0628666 1.0901179
000020 51 e7 9d 3f 98 fc 05 3f 5d 6f 87 3f 19 c3 7f 3f
       1.2336217 0.5233855 1.058086 0.9990707
000030 27 6a a4 3f 4a e0 44 3f 7a c9 7d 3f a1 9c 50 3f
       1.2844895 0.7690474 0.99135554 0.81488997
000040 4f 8b 64 3f 86 fb bd 3e 07 18 b7 3f c6 3e 8f 3f
       0.8927507 0.3710596 1.4304208 1.1191032
000050 20 51 4d 3f c1 a6 75 3f 04 21 a8 3f 26 2b f3 3e
       0.8020191 0.9595757 1.3135076 0.47493857
000060 c8 20 50 3f 5e 03 ae 3f 92 d6 97 3f fd 80 57 3f
       0.8130002 1.3594778 1.1862357 0.84181195
000070 b8 31 29 3f f6 d4 61 3f 6d 14 89 3f 72 fe 7f 3f
       0.6609149 0.8821558 1.0709358 0.9999763

bn1.bias f4 [32]
000000 33 b6 af bc 1d 8d 1a 3d b2 e6 ae be 38 d1 25 bd
       -0.021449184 0.037732232 -0.34160382 -0.04048273
000010 f9 e9 a2 bc cd be b0 be 6a df 2a bd 47 b5 f3 3c
       -0.019886957 -0.3452057 -0.04171697 0.029749526
000020 04 1e 5d bd c8 86 b3 be 71 3e d5 bd da 19 c5 3d
       -0.053983703 -0.35063767 -0.104123004 0.096240714
000030 8c 2c 38 3d e5 29 70 be 6d e0 40 be 0b fa 20 be
       0.04496436 -0.23453481 -0.18835612 -0.15720384
000040 2d 2c 06 be 22 67 00 bf b5 05 01 3d 85 4e c0 bd
       -0.13102789 -0.5015737 0.031499583 -0.093899764
000050 2e 86 60 be 15 b1 7e 3d 96 c8 a5 3d 8b 9e ff be
       -0.21926185 0.062180597 0.08094899 -0.49925646
000060 27 a3 75 be c9 9e dc 3b 87 3e c7 bd 69 e6 fb bd
       -0.23988019 0.006732796 -0.09728723 -0.122998066
000070 e3 7c d2 be 9a 1a ff bd 36 d4 15 bd 6d 3f 13 3e
       -0.41110906 -0.12456246 -0.036579333 0.14379664

bn1.running_mean f4 [32]
000000 7a 09 8e 3d 48 09 59 bc 8d 1e a5 3e 5d c4 a2 3e
       0.06935401 -0.013246842 0.3224987 0.31790438
000010 c0 1f 34 3e 5f fe cb bd ab 09 a8 3e 74 88 c9 3a
       0.17590237 -0.09960627 0.32819876 0.0015375749
000020 77 c1 b0 3d 68 33 8b 3e bc e8 e2 3c b5 06 cf 3d
       0.086306505 0.27187657 0.027698867 0.10108701
000030 42 0a 22 3c d8 d4 d9 bd 24 2f 87 3c 89 f5 c0 3d
       0.009890141 -0.106363 0.01650197 0.09421832
000040 e3 bb a5 bd 8f 34 89 be 88 41 bf 3d ec 3f ab 3c
       -0.08092477 -0.26797912 0.09338671 0.020904504
000050 79 76 49 be bb 13 35 3e 84 48 23 be c6 a2 c1 3d
       -0.196741 0.17683308 -0.15945631 0.09454875
000060 c3 24 8e be 7b 57 07 be 94 26 7a 3e 04 f4 7f be
       -0.27762422 -0.13216965 0.24428779 -0.24995428
000070 f8 58 fa 3c cb af 07 be 03 a7 49 be 97 55 82 3d
       0.030560002 -0.13250653 -0.19692616 0.06363981

bn1.running_var f4 [32]
000000 78 c9 1b 3f d6 a9 9e 3f 1c 63 9e 3e 59 83 fe 3e
       0.6085429 1.239558 0.3093499 0.49709585
000010 27 9c 8c 3e 62 b5 42 3f 63 5b 06 3f d5 6f ae 3e
       0.27462885 0.7605802 0.52483195 0.34069696
000020 2b f5 ec 3d b9 e4 03 3f 6a 7c 09 3f 82 d8 86 3e
       0.115701996 0.5152088 0.53705466 0.26337057
000030 e6 20 98 3e 72 3f 19 3e 97 33 02 3e ea 90 0d 3e
       0.297126 0.14965609 0.12714992 0.13824812
000040 1b be 23 3e 8a 1a b0 3e ac 4c 2c 3e 0e 6c 6a 3e
       0.15990488 0.34395248 0.16826123 0.22892782
000050 14 7f d9 3d d1 0b 79 3e 2e 54 75 3e a2 98 b9 3f
       0.10619941 0.24320914 0.23957893 1.4499705
000060 3e 2c 57 3e 0c 4b ba 3e af e7 ff 3d 56 8b 3f 3e
       0.21012971 0.3638538 0.12495362 0.18705496
000070 da 8d 45 3d 09 e4 52 3e f8 a7 8a 3d b3 2d 64 3e
       0.048230983 0.20594801 0.06770319 0.22283058

conv2.weight f4 [64, 32, 3, 3]
000000 f4 07 d9 bd 7d 35 0b 3d 33 8f 83 3d b4 c6 24 be
       -0.1059722 0.033986557 0.064237975 -0.16091424
000010 9d 90 eb bd e3 88 75 be ed f8 6b 3b 56 85 1e be
       -0.11502192 -0.23978 0.0036006526 -0.15480551
000020 5e 96 0f be e8 e4 8f 3d c7 ac 79 bc 08 ab a5 3d
       -0.14022204 0.07026082 -0.015238947 0.08089262
000030 46 db 13 3e 31 05 80 3b 73 dd 5c bd 18 61 35 3e
       0.14439115 0.003906869 -0.053922128 0.1771282
000040 b7 33 14 3e e0 b3 09 3d e4 bd 24 bd 1e ca 78 3d
       0.14472853 0.033618808 -0.040220156 0.06073963
000050 5f f4 92 bc 89 49 dd bd a0 f8 dd bb 7f 16 34 3d
       -0.01793879 -0.10805041 -0.006774023 0.043966766
000060 bb ec f9 bd 7e 43 f3 bc de d0 a2 3d f2 b4 19 3e
       -0.12203356 -0.029695269 0.079499945 0.15010431
000070 00 3e bd 3c 01 8e 02 bd ba e1 91 3d a2 2f 29 3e
       0.023100853 -0.031873707 0.07123132 0.16522077
000080 d7 89 83 3d 39 d5 39 bc 27 67 31 3e c6 ae 06 3e
       0.06422775 -0.01134234 0.17324506 0.13152608
000090 f8 70 b8 ba c7 d2 43 3c 26 ef 2f bd 1b 32 1c bd
       -0.0014071753 0.011952109 -0.04295268 -0.03813372
0000a0 52 05 98 be c2 17 98 bd e7 cf 2a 3d d8 27 01 be
       -0.2969156 -0.074264064 0.041702177 -0.12612855
0000b0 59 fe ad bd 1c 40 2e 3c 73 f8 73 3d 72 dc 70 3d
       -0.084957786 0.010635402 0.05956311 0.058803983
0000c0 56 d4 fb bd 51 3e 38 bd da 6e bc 3d 9d 41 35 be
       -0.12296359 -0.044981305 0.09200831 -0.1770081
0000d0 2e 85 95 bd fe 15 14 3e 17 50 62 3d 7b d6 88 3d
       -0.07300793 0.14461514 0.05525216 0.06681534
0000e0 64 92 d1 3d b4 8c b2 3d c4 78 c8 3c 60 1c 00 bd
       0.10233 0.08718243 0.024471648 -0.03127706
0000f0 ca a6 73 bd 3b 14 90 3d c0 02 14 be 41 f8 fa 3d
       -0.059485234 0.07035109 -0.14454174 0.12254382
000100 20 d8 62 bc 96 bb 16 bd 11 e4 43 3d 37 bf 8a 3c
       -0.0138454735 -0.03679999 0.047824923 0.016936881
000110 66 4a 6b 3d 23 19 b1 bd 46 18 81 3d 29 0d 03 3d
       0.057444 -0.086473726 0.06303458 0.031994972
000120 18 91 79 bd b1 90 c5 3b fb 8f 21 3d 53 d5 30 bd
       -0.060929388 0.0060292115 0.03944395 -0.04317219
000130 8c c1 8b bc 13 69 31 be 86 8c 91 bd 9d e3 18 bd
       -0.017060064 -0.17325239 -0.07106881 -0.037326444
000140 6c b8 3d be 04 4c 8c bc bd bb d1 3c b9 3e 39 bd
       -0.18527383 -0.01712609 0.025602216 -0.045225833
000150 cf 69 13 bd c1 e6 84 3d 36 6b 48 3d 3f 21 73 bd
       -0.03598958 0.06489325 0.04893037 -0.059357878
000160 ca 4f f0 3d b9 59 aa 3d 7d ae ce 3c be 99 69 bd
       0.117339686 0.083178945 0.025229687 -0.057031386
000170 4c a0 72 3d 83 83 1d 3d f3 d8 db 3d bb 87 47 bd
       0.059234902 0.038455497 0.10734739 -0.048713427
000180 c9 b3 39 3d 15 4d e3 3d f3 bd a4 bd ea e9 59 bd
       0.045337472 0.110986866 -0.080440424 -0.053201593
000190 cd 54 e1 bd 22 14 0a 3e da cd f8 bd 38 4a 0c bd
       -0.110025026 0.13484243 -0.12148638 -0.034250468
0001a0 48 59 01 3e 28 c7 69 bd e7 48 93 bd de 69 92 3d
       0.12631714 -0.057074696 -0.071916394 0.07149099
0001b0 b0 e2 86 3c fe 62 33 bd 2a 6d 98 3c 71 90 20 bd
       0.016465515 -0.04379558 0.018606741 -0.03920025
0001c0 33 2f fb bc 49 bf b2 3d 8e 58 53 3e 08 79 9e bd
       -0.030662155 0.08727891 0.2063925 -0.07737929
0001d0 df 53 36 3e f2 94 ee 3c cd 7f ae bc c2 50 6f bc
       0.17805432 0.029123757 -0.021301175 -0.0146066565
0001e0 01 06 77 3d b0 89 d5 3d b6 73 f3 bc f5 e4 68 bd
       0.06030846 0.104266524 -0.029718261 -0.056858975
0001f0 90 ae dd 3d 34 31 66 bd 78 80 05 3e 01 60 5d 3b
       0.10824311 -0.056199268 0.13037288 0.0033779147
000200 01 cc db bb f7 f5 e4 3d 44 c0 e7 3d b9 71 3a 3d
       -0.006707669 0.111797266 0.11315969 0.04551861
000210 ee 00 67 3c 6e 3f 2d bd 6b 8b e1 3c 1d ae 51 3c
       0.014099343 -0.04229682 0.0275323 0.0127978595
000220 3b 84 5b 3c a3 a4 2f 3e 81 33 cb bd 48 73 0f 3d
       0.013398225 0.17152648 -0.09921933 0.03502205
000230 e9 ba b9 3b d1 99 3c be ca d2 36 3d 9e 7d a1 bd
       0.0056680334 -0.18418051 0.044634618 -0.07885288
000240 d1 77 28 3d 25 c2 ac bd f5 fe b2 bb 8b 32 ac bd
       0.04112989 -0.08435468 -0.005462522 -0.08408078
000250 b0 36 9b bc 1d b0 ee 3d f3 86 05 be 35 14 8a ba
       -0.018946975 0.11654685 -0.1303976 -0.0010534587
000260 f3 cb 70 3d 12 a0 c1 3d 7b db 95 bc c1 35 d1 3d
       0.05878825 0.09454359 -0.018293133 0.10215331
000270 3d de 26 be e2 34 92 3d 61 11 db 3c 0f 6f 10 be
       -0.16295715 0.07138993 0.026741685 -0.14104865
000280 e7 4f 29 bc cd f5 73 3d cd 5f cb bd 4b 3b 0e be
       -0.010333992 0.059560586 -0.09930382 -0.13889806
000290 0f 58 59 bb c8 0d 4c 3d 61 dd 04 bd f3 fc 1a 3e
       -0.003316406 0.04981783 -0.032437686 0.15135555
0002a0 66 ca 64 3e 8e 5a c5 3d 09 8b 13 3e c6 33 23 3d
       0.22342834 0.096364126 0.14408506 0.039844297
0002b0 42 8d 29 3e 71 6f b6 bc d1 3b 89 3d 68 83 81 3d
       0.16557792 -0.022269936 0.06700862 0.06323892
0002c0 8a b0 22 be ff 8c d2 bc 7b b2 2e bd 55 3b 2f bd
       -0.15887657 -0.025701998 -0.04265068 -0.042781193
0002d0 e1 46 dc 3d 7d 0a 76 3d 82 7a 49 bb 83 7f 82 bc
       0.107557066 0.060068596 -0.0030743186 -0.015929943
0002e0 ae ba 37 3e 4e 60 bc bd a0 82 94 bd bf 56 20 3e
       0.17942306 -0.09198056 -0.07251477 0.15658091
0002f0 b9 9d 75 bd d2 28 ac 3d b6 6d 0c 3c 2d 72 90 3d
       -0.05996487 0.08406223 0.008571079 0.07053027
000300 55 59 17 be a7 dc df 3c 3e a7 e3 3d c7 6d 7a bc
       -0.14780171 0.027326895 0.11115883 -0.015284962
000310 31 be 22 bd 30 fd 8d 3b 82 f9 26 bc 4c 63 11 bd
       -0.039732162 0.004333161 -0.010191323 -0.035495088
000320 d9 da f9 3b 67 97 2c bb 9a 3d 07 be 1f 40 80 bc
       0.0076249656 -0.002633536 -0.13207093 -0.015655575
000330 24 9d 0c 3d ad f7 af bb 6d cf 5c 3c d6 e7 3d 3d
       0.03432955 -0.0053701014 0.013477189 0.046363674
000340 31 77 58 3c bf d6 ef bc 3d 5d 3e bc 26 64 d5 3d
       0.013212011 -0.029277204 -0.011618909 0.104194924
000350 65 18 fa bc cf 7f d4 bc b7 f0 df 3d 83 a9 67 3d
       -0.03052921 -0.02593985 0.109345846 0.056558143
000360 32 e0 38 bd 41 af cb bc 83 00 c0 3c a4 56 c0 bd
       -0.045135684 -0.024863841 0.023437744 -0.093915254
000370 47 8f 33 bc c1 8e 03 3e 7f 7c 80 bd b3 26 41 bc
       -0.010959453 0.12847425 -0.06273746 -0.011789012
000380 ca 35 4a 3e a6 6b 7a bd c8 40 ef bd 91 46 1a bd
       0.19747081 -0.061137818 -0.11682278 -0.037664954
000390 bc 99 40 3e b4 ce 13 be f0 a7 05 3b 06 bb 84 3d
       0.18808645 -0.1443432 0.0020394288 0.064809844
0003a0 f7 0e 12 bd 94 9d 02 be f9 8f 40 3d ae 2f 58 bc
       -0.035658803 -0.12755424 0.047012303 -0.0131949615
0003b0 08 28 04 3d 12 f8 1b bd af 49 5d be 71 c4 9b bd
       0.03226474 -0.038078375 -0.2161014 -0.076058276
0003c0 60 62 fc bd 53 98 c9 bd fc a3 02 be c8 82 39 be
       -0.12323451 -0.09843507 -0.12757868 -0.18116295
0003d0 eb 93 14 b9 65 20 e1 bd f2 44 06 be 53 26 71 bd
       -0.00014169484 -0.10992507 -0.13112238 -0.05887444
0003e0 fd 49 55 bd 2c ad 2c 3d a9 5b 69 bd e4 3c 8c bd
       -0.052072514 0.042157337 -0.05697218 -0.068475515
0003f0 0a de 5b bc 23 b5 cb bc 0e 14 61 3d f4 2e 17 3c
       -0.013419637 -0.024866646 0.054950766 0.009227503

conv2.bias f4 [64]
000000 db 57 0f bd 5e 1a 02 3c cf 3b 70 bd be 21 18 bd
       -0.034995895 0.007940857 -0.058650788 -0.037141554
000010 0d 90 35 3d 7f 24 be bc 85 38 2c bd 80 4f 1c 3d
       0.04432683 -0.023210762 -0.04204609 0.038161755
000020 12 a7 3e bd 1f d2 a9 bc fd 8a af 3c 4c c9 ae 3c
       -0.04654605 -0.020730076 0.02142858 0.02133622
000030 df 54 f9 3b ed ca 82 3c aa 23 06 bd b1 1b 14 3d
       0.0076089944 0.015965903 -0.032748856 0.03615922
000040 b6 c4 28 bd 67 d4 01 bd db a1 0e bc d8 d4 81 3d
       -0.041203223 -0.031696703 -0.008705582 0.06339425
000050 b5 a7 51 3d 0c 9f 27 3d 91 48 71 bd d0 0b 5e bd
       0.05118533 0.040923163 -0.058907095 -0.054210484
000060 1e f5 50 bc d8 d4 3b 3d a1 36 04 bc 4b e1 06 bd
       -0.012753753 0.04585728 -0.008069665 -0.0329297
000070 9b 92 2f bd 92 77 66 3a 72 a3 0b bd c5 d9 de bc
       -0.042864423 0.0008791621 -0.03409142 -0.02720345
000080 1a 5c 5f 3c 48 b4 09 bc 1a f8 40 3d 79 14 51 3d
       0.013632799 -0.008404799 0.047111608 0.051044915
000090 b5 b8 34 3d 60 89 f0 bb 7f 30 21 bc 08 9b f3 3c
       0.044121463 -0.007340595 -0.0098382225 0.02973701
0000a0 5e ea 53 3d 36 c5 0b bc 7b ca a5 3c 44 f0 7a bd
       0.05173718 -0.0085309055 0.020238152 -0.06126429
0000b0 d1 e6 e8 3c 72 f3 3e 3b 08 7d 59 bc ad 85 c5 3b
       0.028430374 0.0029136804 -0.013274439 0.0060278983
0000c0 9f b8 d3 3c 4e 56 b6 3c ee 40 d3 bc 2e ba 11 3d
       0.02584487 0.02225795 -0.025787797 0.035577945
0000d0 f6 3f 56 bd f6 35 eb 3c 18 4d 1e bd 5a 1e 14 bd
       -0.05230709 0.028712254 -0.03864774 -0.036161758
0000e0 af 90 93 bb 56 ea d2 3c b1 ea 4b bc 7b b0 2b 3d
       -0.0045033316 0.025746506 -0.0124460915 0.04191635
0000f0 80 d7 ae bc d9 17 3d 3c c3 59 fb 3c db 34 5c 3d
       -0.021342993 0.01154133 0.03068245 0.053761344

bn2.weight f4 [64]
000000 2f ba 83 3f 08 79 5d 3f af f5 72 3f 52 92 4a 3f
       1.0291194 0.86512804 0.94906133 0.7912952
000010 82 a4 3e 3f 54 fa 8c 3f e7 5b 73 3f 7e cd 7c 3f
       0.7446977 1.1013894 0.95062107 0.98751056
000020 40 7f 81 3f b8 a5 80 3f 1a c3 85 3f ea 1c 8f 3f
       1.0116959 1.0050573 1.0450165 1.1180699
000030 34 37 7a 3f fc 51 70 3f 0b a5 83 3f 6e e3 53 3f
       0.97740483 0.938751 1.0284742 0.82768905
000040 09 48 84 3f ef 8d 83 3f e1 e5 8c 3f d9 7c 8a 3f
       1.0334483 1.027769 1.1007653 1.081935
000050 97 4a 8b 3f 3b 7a 5f 3f 33 d4 78 3f 79 80 85 3f
       1.0882138 0.87295884 0.9719879 1.0429832
000060 b1 c5 5d 3f dc 08 8c 3f 54 02 61 3f 84 f4 7f 3f
       0.8662978 1.0940204 0.8789418 0.99982476
000070 0f f2 79 3f 02 1b 83 3f fb 59 5d 3f 4b 6b 87 3f
       0.9763498 1.0242617 0.86465424 1.0579618
000080 a7 61 73 3f 50 66 89 3f 75 06 86 3f ac 1e 9b 3f
       0.9507088 1.0734348 1.047072 1.2118735
000090 80 32 89 3f c3 9b 84 3f 4a 30 8c 3f 9b f9 5b 3f
       1.0718536 1.0360035 1.0952237 0.8592774
0000a0 b5 02 83 3f 1c 96 5a 3f d0 62 94 3f 76 bc 86 3f
       1.0235201 0.853853 1.1592655 1.0526264
0000b0 a8 9e 9b 3f 15 b8 84 3f 38 e4 69 3f 1a 14 2e 3f
       1.2157793 1.0368677 0.9136386 0.6799942
0000c0 06 ed 8e 3f 11 e2 04 3f 4a f4 77 3f e9 90 7c 3f
       1.1166084 0.5190745 0.9685713 0.98658615
0000d0 37 ab 78 3f 44 fe 82 3f 1f 47 87 3f a0 85 4d 3f
       0.97136253 1.0233846 1.056858 0.8028202
0000e0 4d dd 85 3f 38 2c 89 3f 30 74 5d 3f 8d 48 93 3f
       1.0458161 1.071662 0.86505413 1.1506516
0000f0 90 9e 8c 3f 61 ca 83 3f 01 2b 81 3f e2 4c 86 3f
       1.098589 1.0296136 1.0091249 1.0492213

bn2.bias f4 [64]
000000 24 1f 0f be 8d 9a c5 be 20 e7 aa be 58 9c ef be
       -0.13976723 -0.38594475 -0.3337946 -0.46798968
000010 a3 93 b8 be cf 44 21 be ae 0e 89 be d4 2f f6 bd
       -0.36050138 -0.15748905 -0.26769012 -0.12020841
000020 bb 05 94 bd 78 d2 7d 3c 56 6a 04 bd 50 9c 2c bd
       -0.072276555 0.015492074 -0.032327972 -0.04214126
000030 24 4f 88 be da 8d 70 be 94 18 f3 bd 61 f0 f8 bd
       -0.2662288 -0.23491612 -0.11869922 -0.12155224
000040 d9 67 15 be a0 97 21 bd d3 e4 ad be f2 04 8f be
       -0.14590396 -0.03945124 -0.33963642 -0.2793346
000050 60 53 04 be f1 c9 c9 bd 67 df ae bd ef e2 10 3d
       -0.1292243 -0.098529704 -0.08538704 0.03537267
000060 e9 08 ff be 0e 78 be 3d 1e 06 80 be 14 16 04 be
       -0.49811485 0.09300242 -0.25004667 -0.12899047
000070 f4 a4 91 be 68 63 8e be b4 2b 53 3d a5 d4 66 3d
       -0.28446162 -0.27810216 0.05155535 0.056355137
000080 ea 30 77 be 09 6f 97 bd 15 fa 3c be 85 db b0 bd
       -0.24139753 -0.07394225 -0.18454774 -0.0863562
000090 02 ec 08 be 43 8e ef bd 34 04 27 be 27 db 28 be
       -0.1337128 -0.11697056 -0.16310197 -0.1648985
0000a0 d9 de 8d bd 67 1b c8 be dd ec 33 be 31 59 09 be
       -0.069272704 -0.39083406 -0.17570825 -0.1341293
0000b0 02 31 0e be 39 7f 4c be 34 0e 46 be b8 f8 f6 be
       -0.13885882 -0.19970407 -0.19341356 -0.48236632
0000c0 db eb 53 be 08 1a 04 bf a8 53 3a be 63 16 46 be
       -0.2069544 -0.5160222 -0.18195975 -0.19344477
0000d0 f0 6f e1 be 2a 31 70 be 77 7a 48 be b4 7f 40 be
       -0.44030714 -0.23456255 -0.19577967 -0.18798715
0000e0 b4 68 03 be a4 09 52 be 34 cc 9a be 50 fc 46 be
       -0.1283291 -0.2051149 -0.3023392 -0.19432187
0000f0 4d ed 3f be f4 53 12 be 15 25 c9 bd bc 4e 1e bc
       -0.18742867 -0.14289838 -0.09821526 -0.009662326

bn2.running_mean f4 [64]
000000 8c 8a e2 be d9 00 f2 bf f5 0d 39 bf 4d e0 06 bf
       -0.44246328 -1.8906509 -0.7228692 -0.52686006
000010 6b b4 52 bf c5 a4 c0 3d 43 4b aa bf 97 56 8a c0
       -0.82306546 0.09406427 -1.3304218 -4.32307
000020 09 5d 11 bf ea 15 af bf f6 e5 bf be e2 ae c6 bf
       -0.56782585 -1.3678563 -0.37480134 -1.552212
000030 a4 c5 7f 3f 96 1d 0d c0 ab 5e 04 c0 81 0d 0d c0
       0.9991095 -2.2049308 -2.068278 -2.2039492
000040 1e 61 22 c0 81 ed a1 bf 1e 58 b4 bf 49 fe 40 bf
       -2.5371776 -1.2650605 -1.4089391 -0.7538801
000050 da 2e 86 bf 21 a0 52 be c4 d5 ec bf 29 27 9f 3e
       -1.0483048 -0.20568897 -1.8502736 0.31084564
000060 7f bf 90 be 6d 65 ac bf b7 19 d3 bf e8 2a 60 bf
       -0.282711 -1.3468453 -1.6492223 -0.8756547
000070 7a f8 6b c0 57 36 85 3e cf a3 4a c0 8f 29 0a c0
       -3.6870408 0.2601802 -3.166248 -2.1587865
000080 a9 34 4f bf 81 af 05 c0 e7 d8 d7 bf 9a 5c 62 be
       -0.8093973 -2.088837 -1.6863068 -0.22105637
000090 80 46 b4 bf 7d 0d 71 3e 6a 34 14 c0 96 b2 29 be
       -1.4084015 0.23540302 -2.315699 -0.16572031
0000a0 78 af 88 be 90 3f d5 3e 9e 86 77 3e 66 aa c8 bf
       -0.26696372 0.41650057 0.24172446 -1.5677001
0000b0 2d dd ae bf 08 69 4b c0 7b 81 84 bf 43 41 90 be
       -1.3661247 -3.1782856 -1.0352014 -0.2817479
0000c0 59 6a c2 bf e5 e3 ad 3f 81 93 f8 bf 37 04 ac bf
       -1.5188705 1.3585173 -1.9420015 -1.3438786
0000d0 7d cf 92 bf 67 a0 b5 bf e0 7c 37 c0 40 bd 8a c0
       -1.146957 -1.4189576 -2.8669968 -4.335602
0000e0 81 69 84 be 40 f2 12 bf f0 f7 57 bf 9c d1 a1 bc
       -0.25861743 -0.57400894 -0.843627 -0.01975327
0000f0 43 03 d4 be 55 a7 27 c0 8a 05 2d 3e 06 a2 a6 bf
       -0.41408738 -2.6195881 0.16896644 -1.3018196

bn2.running_var f4 [64]
000000 d3 57 a3 40 4b 24 f5 3f 15 24 97 40 3d 1e a1 40
       5.1044707 1.9151701 4.7231545 5.034941
000010 47 b5 52 40 50 26 a1 40 1d 6f bf 40 e8 ad 03 41
       3.2923143 5.035927 5.9823136 8.229958
000020 aa da cc 40 cd f5 83 40 1d ee 07 41 55 dd 50 40
       6.4016924 4.123755 8.495633 3.263509
000030 18 23 c3 40 8e 7f d0 40 5f b7 e8 40 32 73 ad 40
       6.098034 6.5155706 7.272384 5.420312
000040 ba 1c 1e 41 e0 92 0e 41 70 d0 91 40 58 d4 50 40
       9.882013 8.910858 4.556694 3.2629604
000050 61 37 c4 40 5f 87 93 40 e4 89 fb 40 64 49 d7 40
       6.13176 4.610275 7.8605824 6.727709
000060 dc f9 6c 40 09 a8 92 40 9c 72 18 41 6a 92 b8 40
       3.7027502 4.583012 9.527981 5.767873
000070 b2 3a bd 40 ee 4b 57 40 4a c0 13 41 2d fa 90 40
       5.913415 3.3640094 9.234446 4.530539
000080 e6 01 bc 40 95 9a 72 40 1b 9e c0 40 34 5f b9 40
       5.8752317 3.790685 6.0193 5.7928715
000090 06 48 0b 41 d4 37 b0 40 bf 3a 8e 40 ff cd 7a 40
       8.705084 5.506815 4.444671 3.918823
0000a0 fd b6 a1 40 6a 17 87 40 6a d7 ae 40 eb ab 05 40
       5.0535874 4.221608 5.4637957 2.088618
0000b0 9a 5a f4 40 4a 09 48 41 3f d4 5f 40 b4 5c 55 40
       7.6360598 12.502268 3.4973295 3.3337831
0000c0 69 11 11 41 97 b3 0b 41 80 3f 47 40 02 b8 84 40
       9.066751 8.731345 3.1132507 4.147462
0000d0 9c 42 60 40 0a d6 32 41 05 e5 24 40 b6 b9 15 41
       3.5040655 11.177256 2.5764782 9.35784
0000e0 26 72 6f 40 6d cf 5c 40 19 fa c4 40 be 64 ef 40
       3.741342 3.4501603 6.1555295 7.4810476
0000f0 8d 72 b7 40 f5 1c 18 41 00 a9 7b 40 0f 94 fd 40
       5.7327332 9.50707 3.93219 7.9243236

conv3.weight f4 [64, 64, 3, 3]
000000 c7 61 ba 3d 65 98 c4 3d af 01 51 be 5a 25 2e 3b
       0.09100681 0.095993795 -0.20410798 0.0026572556
000010 05 02 27 3e 30 ac b3 bd 0a 76 de 3c b7 66 d6 3c
       0.16309364 -0.087730765 0.027155895 0.026172025
000020 ea 2b 07 3d d9 8c 34 3e 55 76 d2 3c 72 45 eb 3d
       0.033000864 0.17631854 0.02569119 0.11487855
000030 5b 91 c6 bc 3f cf 13 3e 8c b2 26 bd cc 76 f0 3c
       -0.024239233 0.14434527 -0.04069762 0.029353522
000040 fa 5c ee bd 87 a4 13 bc 09 3e 85 bc 70 1b c6 bb
       -0.116388276 -0.009011394 -0.016264932 -0.0060457513
000050 da 56 a9 bc 14 fc 4c 3d e0 cb ad 3d b1 19 05 3d
       -0.020671297 0.050045088 0.08486152 0.032495204
000060 a7 a4 0f be 05 c4 2f bd ea 23 91 3d 4e b9 03 3e
       -0.14027654 -0.04291155 0.07086928 0.12863657
000070 af 21 9a 3d dd cf 24 3d 53 28 10 bd 68 5e 1b 3d
       0.07525956 0.040237296 -0.035194706 0.03793183
000080 8f 2d 8a 3d dc 68 1d 3e 9c 94 de 3b 07 75 4b 3d
       0.06746971 0.15372032 0.006792618 0.049672153
000090 fd 21 a4 3d ca 18 3a 3e 79 b9 85 3d a5 81 f5 3c
       0.08014295 0.18173519 0.06529517 0.029969046
0000a0 4e 48 4e bd 00 74 e2 bd 3f 3b bc 3d 52 fb 1d bd
       -0.050361924 -0.110572815 0.09190988 -0.038569756
0000b0 80 e0 64 3c aa a1 ca bd 8a e3 2f be 93 a5 37 bd
       0.013969541 -0.09894116 -0.17176643 -0.04483564
0000c0 22 ef 9a bd 9c 68 9d bd 1e 89 de 3d 56 87 0d 3d
       -0.07565142 -0.07685968 0.10865997 0.034552895
0000d0 15 3c 1f be fc 52 ae 3d 91 f0 0c bc 36 d8 7d 3c
       -0.15550263 0.08511922 -0.008602277 0.015493443
0000e0 43 53 d1 bd ed 9e 83 3c 9e 80 c4 3c 2d 0d 11 be
       -0.10220959 0.016066993 0.02398711 -0.14165182
0000f0 78 78 45 3c 11 73 69 3b 82 a1 04 3d ec d0 22 3e
       0.012052648 0.0035621563 0.03238059 0.1590001
000100 c1 f1 e0 3c e0 18 4e be 38 8d 10 be 36 c3 0e 3e
       0.027459027 -0.20126677 -0.1411637 0.13941655
000110 c8 19 27 3c 4e ed 9d bd a4 df 99 3d 10 05 77 bc
       0.010199018 -0.07711278 0.07513359 -0.015076891
000120 36 5f 4a 3d 65 5d ad bd 48 2e 82 3d 46 16 f5 3c
       0.049407206 -0.08465079 0.06356484 0.029917847
000130 92 0a bd 3d 0d 8a a9 bd 00 6e 66 3d 3d d9 e4 3b
       0.09230532 -0.08278284 0.056257248 0.0069839046
000140 f5 65 01 be fb 59 ad bd 45 2e 90 3d df c6 a7 bc
       -0.1263655 -0.08464428 0.07040075 -0.020480571
000150 93 91 c1 3c 81 72 01 3e 0c 95 5b 3d da 76 4a 3c
       0.023628986 0.12641336 0.05360894 0.012357438
000160 73 33 d5 bd 5f 70 93 3d a4 77 30 be 5c 21 66 bc
       -0.10410204 0.071991675 -0.1723314 -0.014046039
000170 a3 1d c6 3d ce 19 e4 bd 62 68 93 bd 9a b3 9e 3d
       0.096736215 -0.11137734 -0.07197644 0.077491
000180 0c 0f 2a 3d d9 2a d4 bd 91 4e 5a bc 21 60 ba 3d
       0.041518256 -0.10359735 -0.013324396 0.091003664
000190 93 69 08 3b 95 e0 f5 bd 66 36 cd 3c 6d cb 54 3e
       0.002081488 -0.12005726 0.025050353 0.20780726
0001a0 46 fb 9f 3d 4a 2e 33 bd 9f 74 54 bd 8a 4a b5 3c
       0.078115985 -0.043745317 -0.05186903 0.02213027
0001b0 f6 1c 9f bc e8 2f 20 bd d5 f5 71 bd b4 ce ee 3d
       -0.01942299 -0.039108187 -0.059072334 0.11660519
0001c0 5d e6 f8 bc b0 20 b7 bd dd a8 d2 3b db f5 dd ba
       -0.030383283 -0.089417815 0.0064288215 -0.0016934233
0001d0 25 9e b3 bc 89 aa 2b bd 61 19 4f 3d c4 48 b7 3c
       -0.021925995 -0.041910682 0.050561313 0.022373565
0001e0 62 fd c5 bd 60 78 1f 3c 93 c4 7e 3c 4f b7 36 3c
       -0.096674696 0.0097332895 0.015549797 0.011152103
0001f0 d9 fc df bd 04 f3 86 bd 5e c8 06 3c 7c c8 85 3d
       -0.10936899 -0.0658932 0.008226482 0.0653238
000200 13 a9 ee bc b7 06 11 be 76 28 3d 3b 66 47 8c bc
       -0.029133355 -0.14162718 0.0028863228 -0.01712389
000210 3f ce 70 bc 27 3a 46 3c ed 69 31 bc 03 9a 1e 3d
       -0.01469761 0.012098826 -0.010828477 0.038721096
000220 c0 23 89 bc 46 d5 90 bd 00 89 db bd 54 fb 6e bd
       -0.01674068 -0.07071929 -0.1071949 -0.058345154
000230 83 d0 ef bc b2 46 57 bd 83 eb 92 bd 33 c9 e6 bd
       -0.02927423 -0.052557655 -0.071738265 -0.112688445
000240 4c e3 1e bd 32 dc fb bd d6 b0 cc 3d d6 e0 96 3d
       -0.038790986 -0.12297858 0.09994666 0.07367103
000250 4e 1b bd 3d b2 18 26 3c 2e e8 ec bc f4 22 37 bd
       0.092337236 0.010137724 -0.028919306 -0.04471107
000260 9e 3d d9 bd 32 be d9 bd 15 7b c0 bc c0 96 01 be
       -0.10607456 -0.1063198 -0.02349619 -0.12655163
000270 f5 a0 a6 bd a6 6a 5d be b9 6a a6 bd ac c8 e4 bd
       -0.08136169 -0.21622714 -0.081258245 -0.111710876
000280 20 e6 30 3d bb 70 0d be 2f 9d 87 3e 2e db 3b 3c
       0.043188214 -0.13812535 0.2648711 0.011465831
000290 3f 19 70 bb 36 df b6 bc d3 fd 92 3d 88 4a 90 bd
       -0.0036636142 -0.022323232 0.071773194 -0.07045466
0002a0 d5 87 9c 3d 7e 3c a3 3d 30 4f d7 bc 2f 8e 68 be
       0.076430954 0.07970522 -0.026282877 -0.22710489
0002b0 a2 41 a9 bd 28 35 4b 3e 49 d3 4b 3e f0 b1 a1 bc
       -0.082644716 0.19844496 0.19904818 -0.019738168
0002c0 5c 56 ac 3d 60 bc 4b 3d 00 85 12 3d 7e 30 55 3c
       0.08414909 0.049740195 0.03577137 0.01301205
0002d0 4d c9 4b 3d c0 cb 44 bd ac 62 bd bd b3 81 93 bd
       0.049752522 -0.048045874 -0.09247336 -0.072024725
0002e0 5f 4c df 3d e6 8b 13 bd ce a2 8f ba f1 6a 11 bd
       0.109032385 -0.03602209 -0.0010958554 -0.035502378
0002f0 f9 58 3f bd fe 6b f9 3c d2 3b da 3c ca 27 01 be
       -0.04671571 0.030447003 0.026639853 -0.12612835
000300 6a e6 1b bd 65 08 80 be ca fc 50 bd e8 8f 9e 3d
       -0.038061537 -0.25006405 -0.05102233 0.07742292
000310 eb 59 cb 3c c2 69 ee bd d2 49 1d 39 50 f0 b5 3d
       0.02482315 -0.116412655 0.00015000187 0.088837266
000320 55 b5 9a 3d 52 45 63 bc a0 99 a0 bd f1 ea 13 3d
       0.075541176 -0.013871508 -0.07841802 0.03611273
000330 ce 8e b8 bb 42 9f 01 3d 44 8d 71 3d 79 66 9f 3d
       -0.005632258 0.03164602 0.058972612 0.07783217
000340 80 19 ca 3c 68 de 96 3c 50 8f 54 3c 1e ca 90 bd
       0.024670362 0.018416598 0.0129736215 -0.07069801
000350 5c 16 da bd 8c c5 da bd 08 73 f1 3c 9a ad d6 bc
       -0.10648796 -0.1068221 0.029473796 -0.026205827
000360 29 b0 a5 3d 63 80 11 3e 3e 31 1a 3d 1a 4d 35 3e
       0.080902405 0.14209132 0.037644617 0.17705193
000370 0c 51 ef bc ea b1 a1 3c 9e 00 ef 3d 10 af 54 3c
       -0.02921345 0.019738156 0.116700396 0.012981191
000380 1e b7 55 3d b6 18 07 3d 3e 5f 71 bd 62 38 91 bc
       0.052176587 0.03298255 -0.05892872 -0.01772708
000390 5e ed 16 3e 33 c9 88 bd 21 57 d9 bd 05 0e 4b 3b
       0.14738986 -0.06679001 -0.10612322 0.0030983698
0003a0 ca 57 ad 3c 00 1d 0c 3e 2a 37 8f bd a1 b6 9e 3b
       0.021160025 0.13682938 -0.069929436 0.0048435484
0003b0 43 f0 30 3e ee 17 99 3d 2b cd 07 3d db b4 f8 3d
       0.17279153 0.07475267 0.033154648 0.121438704
0003c0 36 18 b8 3d 3b 7b c2 3d 45 60 ef bc 41 b7 83 3d
       0.08988993 0.094961606 -0.02922071 0.06431437
0003d0 93 dd 17 be 96 51 a3 bc 4a 41 99 3b 6f d3 cb bd
       -0.14830618 -0.019936364 0.0046769725 -0.09952437
0003e0 4a 3b 6d 3d 4a 7b da 3d a0 d8 60 bd 9e 78 c0 3d
       0.05791787 0.10668047 -0.05489409 0.09398006
0003f0 63 00 9c 3d ed 31 11 bd c1 83 a6 3d 4c b4 47 3e
       0.07617261 -0.035448004 0.08130599 0.19502372

conv3.bias f4 [64]
000000 6a 3f cf 3c af 6b 80 bc 9c fa f5 3c 81 30 3f 3d
       0.025298793 -0.015676348 0.030026726 0.046677116
000010 fa ba f9 bc f4 d8 e0 bb b2 aa 9b bc 24 3b 19 bc
       -0.030484665 -0.0068618003 -0.019002292 -0.009352479
000020 89 33 8d 3c 40 d8 f0 3c bd ec ee bc 3b e0 a4 bc
       0.017236488 0.029399991 -0.02916562 -0.020126453
000030 c0 01 7f bc 67 8e c8 bc e4 0d e6 bc 93 9e 25 bc
       -0.015564382 -0.024481965 -0.028082795 -0.010108608
000040 a0 76 06 bd 74 97 81 bc 46 07 ba bc c0 1d de bc
       -0.032827973 -0.015819289 -0.022708546 -0.027113795
000050 0d dc f8 bc ac b3 70 3a 94 21 08 3c 86 3c 10 bd
       -0.030378366 0.00091820466 0.008308787 -0.03521397
000060 63 2c d5 bc 9e da 9d bb 50 7d 64 bc 9c b4 27 bd
       -0.026022142 -0.004817321 -0.013945892 -0.040943727
000070 d8 ff 20 bd 2b 88 22 bb 07 71 93 bb 8a 7e 9f ba
       -0.03930649 -0.00248004 -0.004499558 -0.0012168449
000080 1c 9f 24 bd 61 9c 72 bc 23 68 65 bc f1 e1 95 bc
       -0.0401908 -0.014807791 -0.014001879 -0.018296214
000090 73 cb f1 bc 52 74 22 bb 8e cd 92 bc f6 89 8c 3b
       -0.029515957 -0.002478857 -0.017920282 0.004288907
0000a0 de 43 42 ba 3e 76 e5 3b 08 58 b0 bc f9 92 e8 3c
       -0.00074106257 0.007002621 -0.021526352 0.028390395
0000b0 17 ab 14 3d 6c 20 c4 3c 70 56 8e 3c b7 cf cf bc
       0.036295976 0.023941241 0.017375201 -0.0253676
0000c0 1e 4f 82 3c 3e b3 06 3c 7c cc 96 3b 7a d4 69 3c
       0.015906867 0.008221446 0.004602013 0.01427185
0000d0 7f f9 de 3c eb a2 d9 bc 76 20 0c bd 06 11 81 bb
       0.027218578 -0.026566943 -0.034210645 -0.003938797
0000e0 f4 50 cf bb 08 03 10 3d c3 db a2 3c b2 a1 0b bd
       -0.006326789 0.03515914 0.019880181 -0.03408975
0000f0 b0 74 22 3d c4 9e 42 bb be 3f 5e 3c ad 78 3a bd
       0.039662063 -0.0029696682 0.013565002 -0.04552524

bn3.weight f4 [64]
000000 0b f8 89 3f 20 5c 69 3f df 25 71 3f 48 dc a1 3f
       1.0778822 0.91156197 0.9419841 1.264535
000010 1a ef 8f 3f 6a d2 7d 3f e8 18 7c 3f d4 c1 70 3f
       1.1244843 0.9914919 0.98475504 0.9404576
000020 84 59 9c 3f c3 59 5b 3f 7e 57 74 3f e1 12 73 3f
       1.2214818 0.8568384 0.95446 0.9495068
000030 62 f1 83 3f 2d 86 8a 3f 5a 73 57 3f 5f 14 83 3f
       1.0308039 1.0822197 0.8416039 1.0240592
000040 b9 0f 68 3f 76 a9 60 3f 37 ef 82 3f 55 dd 80 3f
       0.9064899 0.87758577 1.0229253 1.0067545
000050 66 f6 93 3f 2b 7a 84 3f f2 71 85 3f ca 9e 77 3f
       1.155957 1.0349783 1.0425398 0.9672667
000060 b6 40 81 3f 46 82 59 3f 85 99 76 3f 26 0d 83 3f
       1.0097873 0.84964406 0.96328 1.0238388
000070 8f 70 70 3f 1e 37 86 3f 06 af 7f 3f 87 e9 7b 3f
       0.9392175 1.048557 0.9987644 0.9840321
000080 56 54 3f 3f 99 b8 7d 3f b4 b2 85 3f 5e 51 09 3f
       0.7473806 0.991098 1.0445161 0.5363978
000090 78 9f 7d 3f ef cd 7a 3f c6 01 95 3f 1b 28 92 3f
       0.99071455 0.9797048 1.1641166 1.1418489
0000a0 8d 91 74 3f eb b6 84 3f 49 36 81 3f 2e 88 78 3f
       0.9553459 1.0368322 1.0094692 0.97082794
0000b0 b5 c5 70 3f 04 5a 6c 3f 3f 63 64 3f 87 ec 70 3f
       0.94051677 0.9232485 0.8921394 0.9411091
0000c0 02 ab 67 3f 25 9c 50 3f 69 d9 86 3f 8c dd 8f 3f
       0.9049531 0.8148826 1.0535098 1.1239486
0000d0 61 26 60 3f 20 8f 73 3f e0 98 7c 3f 37 a5 8a 3f
       0.8755856 0.95140266 0.9867077 1.083167
0000e0 ce 94 87 3f f5 9f 68 3f 98 8f 8f 3f 59 49 72 3f
       1.0592287 0.90869075 1.1215696 0.9464317
0000f0 e0 14 8d 3f 1c 15 67 3f fc e8 85 3f 57 8f 6d 3f
       1.1021996 0.90266585 1.0461726 0.92796844

bn3.bias f4 [64]
000000 53 26 67 be 0a 7b 7c be 02 75 61 be b4 c8 f5 bd
       -0.22573213 -0.2465631 -0.22017291 -0.12001172
000010 11 66 7b be 17 e5 38 be 30 7b 40 be d3 8d 05 be
       -0.24550654 -0.18056141 -0.18796992 -0.13042383
000020 eb 45 41 be e2 6c 91 be fa c5 94 bd 13 05 68 be
       -0.18874328 -0.28403383 -0.072643235 -0.22658186
000030 ad e8 06 be 97 b4 8c bd 6a 83 52 be 74 ee cb ba
       -0.13174696 -0.06870382 -0.20557943 -0.0015558735
000040 77 56 a0 be 5c 67 a7 bd ea e1 29 be 63 c6 c8 be
       -0.31315967 -0.08174011 -0.16590086 -0.39213857
000050 fe 3b 4b 3d 4e 68 ea 3c 18 62 7b be 1a 60 a9 bd
       0.04961776 0.02861419 -0.24549139 -0.08270283
000060 c7 81 d6 bd 6d b0 f3 bd 70 37 ee bd f8 c2 88 be
       -0.10473972 -0.11898885 -0.116316676 -0.2671125
000070 37 ae f3 3c cd e6 82 3d b8 8d 7f bd 0d 0f eb bd
       0.029746158 0.06391678 -0.062391013 -0.1147748
000080 ff 26 87 bd 48 5c d6 bd 89 f8 25 be 68 6c 5f be
       -0.06599235 -0.1046682 -0.1620809 -0.21818697
000090 ff ed 81 be 22 e1 80 be b5 1f 4b be 41 45 a4 be
       -0.2537689 -0.25171763 -0.19836314 -0.32084087
0000a0 d4 33 8a be 16 01 f1 3c 48 ef 61 3b bd aa cc bd
       -0.26992667 0.029419463 0.0034474898 -0.09993503
0000b0 aa 66 5b bd c5 b3 21 be 26 d6 c4 be 9d 66 8f be
       -0.053564705 -0.15791233 -0.38444632 -0.28007975
0000c0 6d 22 52 bd 55 56 96 bd 24 94 37 be 6f 10 9f be
       -0.051302362 -0.07340685 -0.17927605 -0.31067225
0000d0 0f 0c ec bd 79 7a 5d be 24 b4 a2 bd 5e d6 31 be
       -0.115257375 -0.21628751 -0.07944515 -0.17366931
0000e0 01 27 14 be 7c 53 fe bd cb 8d 1c be 90 da 69 be
       -0.14468004 -0.12418267 -0.15288465 -0.22837281
0000f0 cf 7b e4 bd ef 02 8a be f3 a5 96 3c 0a d3 07 be
       -0.11156427 -0.26955363 0.018389678 -0.13264099

bn3.running_mean f4 [64]
000000 5d c4 fa bd 62 1e 5b c0 fa df 84 c0 04 40 e4 bf
       -0.122444846 -3.4237294 -4.152341 -1.7832036
000010 8d 2c 0c 40 1a 69 57 3e a5 9e a6 c0 80 65 1a 3f
       2.1902192 0.21036187 -5.206866 0.60311127
000020 1e ab 91 bd 40 00 dc bf 9b 13 04 40 a9 6f 5b c0
       -0.07112716 -1.7187576 2.0636966 -3.4286902
000030 b8 2e 34 3e 32 55 3f bf b0 61 d2 c0 a0 77 bd bf
       0.17595947 -0.7473937 -6.5744247 -1.4802132
000040 e9 eb 74 bf 7b fb 95 3e f2 39 4b bf ed f1 60 3f
       -0.9567247 0.29293427 -0.7938529 0.8786915
000050 63 1e ee bf cf 67 68 c0 27 76 0a c0 fd 2a e9 c0
       -1.8603023 -3.631336 -2.1634614 -7.2864976
000060 f2 31 6a bd c1 ba e4 bf a3 db e1 c0 8b 24 8d 3f
       -0.057176538 -1.7869493 -7.058061 1.1026777
000070 1c ba 25 bf 49 57 4a 40 bb 81 30 c0 25 ae 5e c0
       -0.64737105 3.1615775 -2.7579181 -3.479379
000080 72 0e e5 3f 4e 43 7e bf a3 23 17 c0 4c 31 5c 40
       1.7895033 -0.9932145 -2.36155 3.4405088
000090 39 14 2b c0 ac 6b 80 bf 4e 83 90 c0 1d 5d ce bf
       -2.6731093 -1.0032859 -4.5160284 -1.6122166
0000a0 14 a1 83 3f 29 8e 6f c0 6f ee 51 bf eb 9d 61 c0
       1.0283532 -3.7430518 -0.82004446 -3.5252635
0000b0 95 df a1 3f 81 82 09 c0 bd e8 22 c0 11 4b 40 bf
       1.2646357 -2.1485903 -2.5454552 -0.7511454
0000c0 af 79 ce bf c6 76 9c be 9f 08 da bf 3b 63 8d bf
       -1.6130885 -0.30559367 -1.7033881 -1.1045908
0000d0 f7 e0 9a bf 82 4c 05 3f 37 c2 f4 3e b4 6f 31 bf
       -1.2099904 0.52069867 0.47804424 -0.6931107
0000e0 cf 24 b0 c0 90 6a 54 c0 77 9b a1 c0 6a 1d 60 40
       -5.504493 -3.319004 -5.0502276 3.5017953
0000f0 58 cf 79 bf a9 a1 3d bf 9d 05 e7 3e be 98 e4 bf
       -0.97582006 -0.740748 0.4512147 -1.7859113

bn3.running_var f4 [64]
000000 db a2 38 41 5c 73 93 41 24 46 f3 40 2f c3 44 41
       11.53976 18.431328 7.602312 12.297652
000010 0e b1 85 41 06 22 72 41 22 b4 80 41 d2 ba 8b 41
       16.711452 15.1333065 16.087955 17.46622
000020 72 d0 3e 41 5c 97 26 41 01 8f 55 41 33 1b 47 41
       11.92589 10.411953 13.347413 12.44414
000030 fe 01 16 41 29 e6 3d 41 8c cc a5 41 a1 06 41 41
       9.375486 11.868691 20.724876 12.064118
000040 8b df 2f 41 86 fd 07 41 63 7d 2f 41 d2 eb 1c 41
       10.992076 8.499395 10.968112 9.807573
000050 a8 69 0c 41 70 09 42 41 7a 58 5e 41 d8 2d d6 41
       8.775795 12.127304 13.896601 26.772385
000060 1f 71 2d 41 34 35 0a 41 95 cb c1 41 5f 7e 21 41
       10.840117 8.637989 24.224405 10.093352
000070 07 a7 0f 41 91 eb 1c 41 18 e6 50 41 59 29 84 41
       8.978278 9.807511 13.056175 16.52019
000080 01 93 05 41 0d 20 7a 41 d5 d7 40 41 c1 f0 4d 41
       8.34839 15.632825 12.052693 12.871278
000090 b8 5d eb 40 d2 d3 41 41 4f d2 33 41 14 97 1c 41
       7.3551903 12.114214 11.238845 9.786884
0000a0 5b fa eb 40 a5 c3 07 41 e9 7a e3 40 a1 ad a2 41
       7.374311 8.485265 7.1087537 20.33478
0000b0 f7 a1 27 41 d5 1a 8f 41 f2 c5 26 41 d8 14 5a 41
       10.477042 17.888102 10.4233265 13.630089
0000c0 75 26 48 41 1b dc 0d 41 f8 3c 4e 41 44 62 4d 41
       12.509389 8.866237 12.889885 12.836491
0000d0 b0 24 ec 40 c0 12 24 41 22 27 12 41 5c c9 86 41
       7.3794785 10.254578 9.134554 16.84832
0000e0 8f 91 8e 41 f9 f3 54 41 19 4a 01 41 1d 65 5c 41
       17.821074 13.309564 8.08059 13.774686
0000f0 3f c6 5d 41 00 7a 61 41 5a f3 30 41 ef 13 16 41
       13.8609 14.092285 11.059412 9.379867

fc1.weight f4 [128, 576]
000000 43 11 e7 bc d1 db 79 bd b9 07 f6 bd 1f cb 1c bd
       -0.028206473 -0.06100065 -0.12013192 -0.03827965
000010 1c b8 8d bc 03 4b 20 3e 0b 7b a2 bd 99 9c 28 be
       -0.017299704 0.15653615 -0.07933625 -0.16465987
000020 b3 3c a6 bd ff 41 d4 bc 31 fb 3a be b2 ba 7a bc
       -0.08117046 -0.025910376 -0.18259884 -0.015303301
000030 6b 2e e3 bc d4 3b 30 bd 7e d6 3a 3d b9 29 18 3d
       -0.027732095 -0.043025807 0.045614712 0.037149165
000040 0c 76 25 3c 99 7a 84 bb 57 79 f3 3a 34 bd b1 bd
       0.010098945 -0.004042935 0.0018575591 -0.08678666
000050 59 59 40 bd 4a 89 99 3d a6 e2 94 3b b1 7f 58 bd
       -0.04696021 0.07496889 0.00454362 -0.05285615
000060 3c 83 80 3c c3 96 1e bd f1 e8 35 bd 94 0a cc bc
       0.015687577 -0.038717996 -0.044411603 -0.024907388
000070 24 08 e1 3d 36 7f ac 3c 1d f4 a9 3d 91 1a c6 3d
       0.10987881 0.021056753 0.08298514 0.09673036
000080 cf 78 2f bb 99 ae a4 3c b5 1f 16 bd 5d 04 6e bc
       -0.0026774888 0.020102786 -0.036651332 -0.0145274075
000090 2f a7 12 bc 75 4c 6f 3c e0 ec 6c 3d 6f 94 0c bd
       -0.0089509925 0.014605631 0.05784309 -0.034321245
0000a0 11 17 33 3e f1 62 10 3e 04 86 56 3d 6c bc e1 3d
       0.17489268 0.14100243 0.0523739 0.11022267
0000b0 53 6d c4 bd af 41 a8 3d 5b b9 89 3d 18 04 2c bd
       -0.095911644 0.08215653 0.06724807 -0.04199609
0000c0 56 d9 02 bd 58 a1 4d bd 27 7f 43 be c5 51 cd bc
       -0.03194555 -0.050202698 -0.19091474 -0.025063405
0000d0 24 13 4b bc aa 08 b3 3d f6 4d 54 3d 5e 82 34 3d
       -0.0123947 0.08741887 0.05183216 0.04406964
0000e0 b7 7c 52 3d 7c b5 c9 bd 2a 82 02 3d 58 48 0e 3d
       0.05138847 -0.098490685 0.031862415 0.03473696
0000f0 f7 41 88 bd 14 19 62 bd fc ec 1e 3d a2 b9 99 3d
       -0.06653207 -0.055199698 0.038800225 0.0750611
000100 81 bb 68 bc f6 b8 14 bc 58 5f fc 3a 77 33 b0 bd
       -0.014204861 -0.009077301 0.0019254489 -0.08603566
000110 61 24 ec 3d 10 c1 88 3b a6 85 a5 3d 90 bc 03 3c
       0.11530376 0.0041734055 0.08082132 0.008040562
000120 b7 c0 ff 3d d7 b2 57 be 13 e2 a2 bd 4e 9e 86 3d
       0.12487929 -0.21064316 -0.079532765 0.06573163
000130 1f 20 62 3d 25 6f af 3d 7c 69 d7 bc b5 6e 52 bd
       0.055206414 0.08566121 -0.026295416 -0.05137511
000140 61 56 54 bc 59 27 cb bc 70 d2 a9 3c 8a 44 b0 3c
       -0.012960047 -0.024799036 0.020730227 0.021517057
000150 d4 05 52 3d d6 f6 02 bd 8b f9 f2 3c 17 f0 88 3b
       0.05127509 -0.031973682 0.029660007 0.0041790116
000160 89 c9 09 bd eb cf 39 be ff eb 77 3d bb 28 da 3d
       -0.033639465 -0.1814572 0.060527798 0.106523
000170 21 b3 19 3c 54 45 fe bd 42 a9 85 bd 04 c6 a9 bd
       0.009381087 -0.12415567 -0.06526424 -0.082897216
000180 51 9d 58 3d 99 f0 da 3d d7 b4 84 bd 94 c1 c9 3c
       0.052884404 0.106904216 -0.06479805 0.024628438
000190 47 b6 b3 3d a8 83 da bd cd 6e 05 be 04 85 55 bd
       0.08775001 -0.10669643 -0.13030548 -0.052128807
0001a0 9b ed 13 3e d0 15 52 3c 38 55 07 3c 1a bc fb 3c
       0.14446108 0.012822583 0.008260064 0.030729342
0001b0 c5 9a 05 be 4f 17 5c 3d 2b b2 c1 3d ac 4a ab 3c
       -0.13047321 0.053733166 0.09457811 0.02090963
0001c0 a7 82 cb 3d 62 e7 9c bd 51 38 ef 3d f3 8d 7e 3c
       0.09937029 -0.0766132 0.116806634 0.015536773
0001d0 0a f6 86 bd fd 88 f4 3c 71 11 56 3d b9 cd 70 bb
       -0.06589897 0.029850477 0.052262727 -0.0036743714
0001e0 17 75 2e bd 26 39 d1 3d 6f 46 e4 3d 67 f3 12 3e
       -0.042592134 0.10215978 0.11146247 0.14350663
0001f0 41 99 a6 3d ce f7 ec bd 90 c0 40 3c a7 c7 5d bc
       0.081346996 -0.115707025 0.0117646605 -0.01353637
000200 56 a4 b4 3c d0 bf 00 bd 53 fc b5 bc bc 29 ae ba
       0.022051018 -0.031432927 -0.022215044 -0.0013287584
000210 77 89 2c 3c a6 54 e3 3d 9c 62 a1 bd 2b 18 2c 3d
       0.010530821 0.1110013 -0.07880136 0.042015236
000220 01 6b c3 3d 23 c6 0d 3e 62 8d 4a 3d f5 f7 fa 3d
       0.09541894 0.13845114 0.04945124 0.12254325
000230 be 27 51 bc f7 c1 e5 3d 18 95 1b bd a4 36 13 be
       -0.012765823 0.112186365 -0.037983984 -0.14376312
000240 b1 63 1e bd 9d 90 8c 3d 1d 79 83 bd a1 63 bc bd
       -0.038669292 0.0686352 -0.06419585 -0.0919869
000250 bb da 8d bd ec ee 5f 3d 3d b0 aa bb 46 6e 9b 3d
       -0.06926485 0.054671213 -0.0052089975 0.07589392
000260 db 1f 1f 3c 17 b0 01 be bb a4 91 bd 7c ea 41 3c
       0.009712185 -0.12664829 -0.07111498 0.011835691
000270 16 19 14 3c ae cf 4c bd 91 3f 8c 3d 08 dc dd 3d
       0.009039184 -0.050002746 0.06848062 0.10832983
000280 8f 73 f5 3c 7d 29 c3 bd 87 a7 1d bd 23 a0 29 bc
       0.02996233 -0.09529398 -0.038489845 -0.010353121
000290 b9 f6 52 bd f9 6a a6 3d 92 24 b0 3d 8e ce 27 38
       -0.051504824 0.08125872 0.08600725 4.000827e-05
0002a0 da 9c fb 3c 7a 62 74 3d 13 35 e6 bc 38 d0 91 bd
       0.030714441 0.059664227 -0.02810148 -0.07119793
0002b0 ee b8 c4 bd 77 7e 22 be 8d 7a 06 3d 5e 95 f8 bc
       -0.09605585 -0.15868555 0.032831717 -0.030344661
0002c0 59 fc ee 3c f8 30 c7 3c 3a 2e bf 3d 96 71 12 3d
       0.029173063 0.024315342 0.09334989 0.035752855
0002d0 39 d4 41 bc 2e 1f 79 be 02 e0 ba bd 0a b9 fe bc
       -0.011830383 -0.243283 -0.09124757 -0.031094093
0002e0 46 74 65 3d 04 58 f8 bd 59 21 d0 bc a3 eb 1c 3d
       0.05601909 -0.12126163 -0.025406526 0.03831066
0002f0 9f 1a a5 3c 60 99 6c 3d 74 8f ce 3b 0f 03 d1 bd
       0.020154295 0.057763457 0.006303722 -0.102056615
000300 0d f4 ae bc 62 07 de 3b 62 82 0a be dd fc a2 bd
       -0.021356607 0.0067757824 -0.135263 -0.07958386
000310 94 7a cb 3c 1b 4a 22 bd 01 79 9b 3d 6f d6 d3 3d
       0.024838723 -0.039621454 0.07591439 0.10343634
000320 50 78 f6 3d d3 72 c9 bc 0b 2b 4c 3d 7d 03 49 be
       0.120346665 -0.024590885 0.049845736 -0.19630237
000330 a5 5f 94 bd c1 cc c8 bd 30 ea 1d be 43 78 99 bc
       -0.07244805 -0.09804679 -0.15421367 -0.018734103
000340 52 f1 99 3d 08 eb 22 3c 6b c8 08 3e 5a 69 4e 3e
       0.07516731 0.009943731 0.13357703 0.20157376
000350 20 7e ce 3d e9 37 11 3d 68 a8 0a bd 2d 78 d3 3d
       0.1008265 0.03545371 -0.03385201 0.10325656
000360 34 9c 26 3c 5a 06 cc 3c 01 58 05 3d 40 2a 70 3d
       0.010169078 0.024905372 0.03255463 0.058634043
000370 ea 3f e3 3d cd 6a 08 be 6e 01 05 bd 20 d0 4d 3c
       0.11096175 -0.13321991 -0.032472067 0.012561828
000380 cc 8c 15 bc a3 0a aa bd 86 6e 99 3d ba 31 5a 3d
       -0.009127807 -0.0830281 0.07491784 0.05327008
000390 68 73 8f 3d 62 b3 96 bc 97 c6 bc bd 2b ce 8c bd
       0.07004434 -0.018396083 -0.092175655 -0.06875261
0003a0 1a 8c b9 3d 83 ac 4b 3c ce 08 26 bd 64 f5 53 3d
       0.090599254 0.012431267 -0.04053574 0.051747695
0003b0 4f f9 57 3c 0b 62 68 3d ec 2f 69 3d 99 5e b4 bd
       0.013181998 0.056734126 0.056930467 -0.088071056
0003c0 66 24 88 3d 5d d4 22 be 9e 7d 8a bd c9 a1 91 bc
       0.066475675 -0.15901323 -0.06762241 -0.01777734
0003d0 2c 1d c9 3b af 52 df 3d d1 3d ea 3d 33 95 02 3e
       0.0061375108 0.109044425 0.11437572 0.12752227
0003e0 86 3a 0b 3e f8 90 c5 bc 8d c3 d3 bd 90 3f b3 3d
       0.13596544 -0.024116978 -0.10340033 0.08752358
0003f0 26 a4 68 bc 8a ac 8b 3d 10 de 0d be 73 f7 b0 bb
       -0.014199292 0.068200186 -0.13854241 -0.005400592
