saved_models/rotate.pth (torch, 535962 bytes, 26 tensors)

conv1.weight f4 [32, 1, 3, 3]
00000000: cb78 fd3c 20a2 00be 1646 a7be 04c9 ab3e
00000010: 0836 e03d cae3 54be f90e e8bd 9805 9b3e
00000020: 7f67 6f3d dfe6 1c3e fd0a 063e 91ae 863e
00000030: db68 b9bd ebc4 02bd 5bd5 d6bc c2c3 6c3d
00000040: c79d b1be ae9b 24be fb45 503d 34dc 923c
00000050: 7b3f 133e b498 fc3c 10c4 983e db90 1cbe
00000060: ebc8 3d3e 8fed 29bc c248 e3be c9ed 36bd
00000070: ea58 263e a4ec 8fbe ef6e 37be 196a aabd
00000080: 5fcd 893e 8509 0fbe a6ee 8f3e b983 aebe
00000090: 6ff6 173c f8ca 63be f0ff aabe c1b0 83be
000000a0: 8f67 4ebe 2f91 a63d 2407 8bbe c12f a43d
000000b0: 377a 983d e78d 9c3e a0e2 3cbe 26ac 81be
000000c0: 1135 ad3e defa 1dbe 7801 32be 86c7 433e
000000d0: 742e 013e 2cf4 7dbe 4b41 afbe 9538 17bd
000000e0: 2540 1c3e 7c48 1fbe 3ac8 8a3e 4907 883d
000000f0: a2bb 423e 38d8 92be e8d0 85be a886 f63c
00000100: 398a 8b3d 889b 2d3e 93f5 7cbe 0a6b 453d
00000110: 295e 1f3e 3f0f 8ebe 3933 7cbe b4c9 69be
00000120: a5c5 a2be 8b3b 01be 29fb 843e 9a2f 80be
00000130: 0c50 723e 7443 11be a278 7abe aad4 d1be
00000140: 10ab 5d3e d3fe b83c 9325 8b3e bce6 0a3d
00000150: 48c4 15be 6185 4b3d 7543 31be 010a c1be
00000160: 159f f1bd 8f15 30be 5c70 d4bd 63e2 adbd
00000170: 5dfe aebe 9b05 c2be bf9c 88bd 9778 963e
00000180: 9381 43be 8c33 2e3e 545a e53d d0e6 f93d
00000190: b645 333e 5ee1 22be 4522 f1bd 5083 433e
000001a0: e1ba 8a3e 48f4 b6be 87dd 38be 377e cc3d
000001b0: 405f 21be 7c6e 753e 1366 fb3d 938a 763e
000001c0: de55 743e a4d1 e1be 5913 4c3e e699 123d
000001d0: 49d5 4abb 3d63 943e 128a 253d af77 7dbd
000001e0: 1ced 033d 76cc e1be 0a51 a43c 69f2 723c
000001f0: 298f 62be 0e9e 933e 3f4a 3dbe 05a2 9fbc
00000200: 8a2c 463e b0ce 2a3e a7df 673e c1e8 3abd
00000210: 58bb 6abe 5b21 dd3c ab06 bebe 5c6d b03d
00000220: 4dc0 a83e 8d3b 8fbe cc60 513e cff0 6dbd
00000230: c7c2 82be c9b3 00be 11d6 66be 42db 2abe
00000240: 6623 473e 11b1 8cbe 22d1 af3e 5748 a9bd
00000250: 9232 a2be 9ee9 50bc 00f1 6c3e fa1e 6a3e
00000260: 6a37 073e 564c 0dbe c74c 133e b3dc aebe
00000270: c073 86bd 16ae 513e 9537 00be 9c65 d3be
00000280: 7e82 7a3e 4a31 aa3c 3ad5 db3d 58cb aebd
00000290: b4b6 3abe aa0c 97be 1862 a1be cfc3 3cbe
000002a0: 14df 91be 4009 973d 3aa6 613e f1c9 473d
000002b0: 93bf b63e 0eba 353e f4fe 70be 8705 9e3e
000002c0: 3fb3 14be a65c 653e dab7 483e 35ee 5a3e
000002d0: 638a 41be 49a0 72be c615 86be a9c7 7f3e
000002e0: 6b88 b0be c956 713e 7e2e 80bd 41fd 99be
000002f0: 5bec 743e e2da 8c3d 5cf0 88bd 2146 0cbe
00000300: 7221 343e 97f6 5c3e 21c9 a73e 9745 533e
00000310: c80a 97be 0434 273e ce19 e7bb ed3c 583d
00000320: ab30 393e 206f c4be 2639 6cbe 4ca3 b43c
00000330: ba40 0abe 867e 343e 7d3e c33e 8fc9 b3bd
00000340: bc2c 82be 3804 c4bd 3622 8dbc 4cc6 99bd
00000350: 2834 91bd a21a 313e 5b3a 903e 9cfd 683e
00000360: c2c7 a7be a9d5 8a3d c8be 493e 2be4 a6be
00000370: 2716 933d e744 023e b51a 92be 53fe 12be
00000380: 1846 a73c 08f6 c7be 748e d93b f005 b73d
00000390: d6d3 81be dc74 0a3e 960d 9a3e aefe 1a3e
000003a0: 077d b43e 5b96 543e 09e0 13be 1a44 e4bd
000003b0: c0f1 2c3e 1a51 61be 3653 9abe 8902 0bbe
000003c0: d2b2 2c3e e475 12be a055 4bbe 6ad6 94be
000003d0: be52 a5be 165a 90be c724 c9bd ea24 503e
000003e0: a70d 0dbe 0bbc b73a abeb 363e 68c8 a33d
000003f0: 4317 1a3e d02d f03d 81d0 10bd 7d0d 7cbe
0.030941388 -0.12561846 -0.3267066 0.335518 0.10947806 -0.2079002 -0.11330981 0.30277705
0.05844831 0.15322445 0.13090129 0.2630506 -0.09053203 -0.031926077 -0.026224783 0.057803877
-0.34690687 -0.16075012 0.05084799 0.017927267 0.14379685 0.030834533 0.29837084 -0.15289633
0.18533675 -0.01037158 -0.44391447 -0.044660363 0.16244856 -0.2811023 -0.17913412 -0.08321018
0.26914498 -0.13968475 0.28111762 -0.3408487 0.009275063 -0.22245395 -0.3339839 -0.2572079
-0.20156692 0.0813316 -0.27153885 0.08016921 0.07445186 0.30577013 -0.18445826 -0.2532665
0.3382955 -0.1542773 -0.17383373 0.19119081 0.12615377 -0.24800175 -0.34229502 -0.036919195
0.15258844 -0.15554994 0.27105886 0.066420145 0.19016889 -0.28680587 -0.26135945 0.030093506
0.06813473 0.16953862 -0.24703054 0.048197784 0.15563263 -0.27746007 -0.24628915 -0.2283085
-0.31791416 -0.1262037 0.2597287 -0.25036317 0.23663348 -0.14185888 -0.2446008 -0.40982562
0.21647286 0.022582447 0.27177104 0.03391145 -0.14625657 0.049687747 -0.17310889 -0.37702945
-0.117979206 -0.17195724 -0.10372993 -0.084904455 -0.3417844 -0.37894902 -0.06670522 0.29388878
-0.19092397 0.17011851 0.11198869 0.12202227 0.17507061 -0.15906283 -0.117741145 0.1909306
0.27095702 -0.35733247 -0.18053256 0.09985011 -0.15758991 0.23967928 0.122753285 0.240763
0.2386088 -0.44105256 0.19929256 0.0357913 -0.0030949882 0.28981963 0.040414877 -0.061881717
0.032208547 -0.44101304 0.020058174 0.014828303 -0.22124924 0.28831524 -0.18485354 -0.019486437
0.19352928 0.16680408 0.2264391 -0.045632128 -0.22923028 0.026993444 -0.37114462 0.08614609
0.32959214 -0.2797512 0.20447081 -0.05809098 -0.25539228 -0.12568583 -0.22542597 -0.16685203
0.19447097 -0.2747884 0.34339243 -0.08265751 -0.31679207 -0.012751011 0.23138809 0.22863379
0.13204733 -0.13798651 0.14384757 -0.34152755 -0.06565046 0.20476565 -0.12521203 -0.4128846
0.24463841 0.020775456 0.10734029 -0.085348785 -0.18233758 -0.2950185 -0.31520152 -0.1843407
-0.28490508 0.07374811 0.22036067 0.04877657 0.35693035 0.17746755 -0.23534757 0.30863592
-0.14521502 0.22398624 0.19601384 0.21379931 -0.18900447 -0.23693956 -0.26188487 0.24978508
-0.3447908 0.23568262 -0.06258868 -0.3007603 0.23918287 0.06877686 -0.0668647 -0.13698627
0.17590883 0.21578442 0.32770637 0.20632015 -0.29500413 0.16328436 -0.0070526367 0.05279248
0.18084972 -0.38366032 -0.23068675 0.022050522 -0.13501254 0.1762639 0.38133612 -0.087786786
-0.25424755 -0.09571117 -0.017228227 -0.07508525 -0.07090026 0.17295316 0.28169522 0.22752994
-0.3276959 0.06779034 0.19701684 -0.32595953 0.071819596 0.12721597 -0.28536 -0.1435483
0.020419165 -0.39054894 0.006639296 0.08936679 -0.2535693 0.13521141 0.3008849 0.15136215
0.35251638 0.20760481 -0.14440931 -0.11145802 0.16889095 -0.22003594 -0.3014161 -0.13575186
0.1686509 -0.14302784 -0.19856882 -0.29069835 -0.3228969 -0.2819373 -0.09821468 0.20326582
-0.13774739 0.0014017833 0.17863338 0.07997209 0.15047936 0.11727488 -0.035355095 -0.2461452

conv1.bias f4 [32]
00000000: 8448 093b 1520 f5bb c575 863e 7ec0 48be
00000010: 9038 283e 71c5 453e c4d9 e83d 9bf0 933c
00000020: 1b37 76be dc0a 8e3b fd3f 6fbe 31d8 a0be
00000030: e0ff a1be 6eb0 7ebd 9b22 1b3e e778 9abe
00000040: 3378 b53e 33d6 97be fbee 9cbd 33c4 5e3e
00000050: 2136 59be 40db ee3d fec9 293c 7647 203e
00000060: d5d8 283e 74c6 953e 18b6 21be 2de5 cd3d
00000070: c971 2ebe 6ba7 30be 95d1 dfbd aaed 79be
0.0020947764 -0.007480631 0.26261726 -0.1960468 0.16427827 0.19313599 0.113696605 0.018059066
-0.24044459 0.0043347906 -0.23364253 -0.3141494 -0.3164053 -0.062179975 0.1514992 -0.30170366
0.35443267 -0.2965561 -0.076627694 0.21754532 -0.21212055 0.11662912 0.0103631 0.1565226
0.16488965 0.2925297 -0.1579212 0.100534774 -0.17035593 -0.17251365 -0.109286465 -0.24407068

bn1.weight f4 [32]
00000000: 0d04 883f d022 8e3f da95 4b3f 44dc 883f
00000010: 5f27 9e3f dd47 973f 15d5 8f3f 4183 a93f
00000020: ff86 8f3f a769 853f b5bb 303f 2b9a 6e3f
00000030: 1579 073f 288f 603f b983 6d3f b7e5 a63f
00000040: d4cc f13e 6a3b 3d3f a668 a73f 5658 083f
00000050: 9076 963f 73f8 353f 633e 753f fdc7 823f
00000060: 2da1 9c3f 73bc 333f 3b2d a43f 512e a43f
00000070: bcc7 8d3f bdfc 793f eab3 163f 9fe4 a23f
1.0626236 1.1104374 0.7952553 1.069222 1.2355765 1.1818806 1.1236902 1.324318
1.1213073 1.0422868 0.6903642 0.9320399 0.5291913 0.8771844 0.9277912 1.3038853
0.47226584 0.73918784 1.3078811 0.5325979 1.1754932 0.7108223 0.9579832 1.0217282
1.2236687 0.70209426 1.2826303 1.2826635 1.1076579 0.97651273 0.5886828 1.272602

bn1.bias f4 [32]
00000000: a13d ddbd 00ba 453c dad7 c6be eff6 b3bd
00000010: 0889 17bb fdfe babd eff1 fbbc f0f5 d53b
00000020: e5a6 4cbe 646b dcbc 91a5 09be 3ca4 44be
00000030: 007a fcbe d335 07bd a129 b6bc 50a7 85bd
00000040: 824d f0be a41b bebe 73b9 043b 3e5c d2be
00000050: 7dce 91bd 32eb 98be 70f9 48be ea14 e5bc
00000060: 7e02 dabd 77cb fbbe 2829 213d c594 55bd
00000070: 3202 1c3d 3b33 f93d 0271 afbe 943c a7bc
-0.108027704 0.012068272 -0.38836557 -0.08787333 -0.0023122448 -0.091306664 -0.030755011 0.006529562
-0.1998554 -0.026906677 -0.13442065 -0.19203275 -0.4931183 -0.033010315 -0.022236647 -0.06526053
-0.46934134 -0.37130463 0.0020252138 -0.41086 -0.07119463 -0.2986694 -0.19626403 -0.027964074
-0.106450066 -0.4917867 0.03934589 -0.05214383 0.03808803 0.121679746 -0.34265906 -0.020414628

bn1.running_mean f4 [32]
00000000: 47a1 98bb 272b 68bb 483a 853e 4e1e 59be
00000010: 9c8b 113e e450 473e c44b cb3d 5f6d 973b
00000020: 577c 84be 64f7 55bc 14d3 7fbe ff61 a4be
00000030: da74 9ebe b4b9 46bd 651c 0b3e 1aa8 a1be
00000040: c959 c23e b8be a3be ba6f b9bd f611 783e
00000050: 06e2 63be a111 043e 3dd0 b23c 7c34 263e
00000060: e27e 153e 5e72 9a3e a47b 2dbe 0213 a03d
00000070: c981 2cbe f956 34be 4ccc c9bd b896 85be
-0.0046578976 -0.0035426111 0.26021028 -0.21202967 0.14213413 0.19464451 0.099265605 0.0046211923
-0.25876114 -0.013059471 -0.24982864 -0.32106015 -0.30948526 -0.048516944 0.1358505 -0.31573564
0.37959126 -0.31981444 -0.09054513 0.24225602 -0.2225419 0.1289735 0.021827811 0.16230959
0.14599183 0.3016538 -0.16941696 0.078161255 -0.16846384 -0.17611302 -0.0985342 -0.26091552

bn1.running_var f4 [32]
00000000: 4732 4e3e cecb 493e 38e4 663e 6171 d33d
00000010: d84e 5e3f a3cd cb3e d051 3e3e 4762 c43e
00000020: fdec 203f 66a1 ce3e 09af ee3e fb57 263e
00000030: ddc1 a33e d1c2 023e aa3f fe3d ef88 d83e
00000040: d362 313e 277a 443e 3e09 4b3f 6220 6f3f
00000050: d5b1 ee3e 2fed af3e 0cc6 913e ee3a 6b3e
00000060: 8fef 013f 6ca0 3e3f 75b8 263f 9144 013f
00000070: c972 6a3e ea74 4e3e 1281 e63e 0ef0 263f
0.20136367 0.19706652 0.22547996 0.1032436 0.86839056 0.39805326 0.18585896 0.3835623
0.62861615 0.40357512 0.46617916 0.162445 0.31983843 0.12769629 0.12414487 0.42291972
0.17322855 0.19187222 0.7931098 0.9340879 0.4662005 0.34360644 0.2847141 0.22971699
0.5075616 0.74463534 0.6512521 0.5049525 0.2289535 0.20161787 0.45020348 0.65210044

conv2.weight f4 [64, 32, 3, 3]
00000000: 4c36 5fbd b1a4 8bbd 331c 6dbd 300b 89bd
00000010: 9fe3 c1bc aa99 b0bd 8602 c3bd c4e0 28be
00000020: 66de 2cbd 6bc2 8ebd fd75 9cbd 6e33 883b
00000030: 99cd 7ebd 4b03 fb3d ff04 e83d cc49 2f3e
00000040: b7c5 803d c251 6b3d 3ae4 52bd e12b c7bd
00000050: a2cd bd3d fcd2 00bd e2c8 f13d 91a1 103e
00000060: ca4e d8bd ba1b 0abd 4e90 aebd 5e62 353c
00000070: 1880 fe3d 3585 023e 90d5 df3d f7f3 dabb
00000080: 284c 5e3d 5b6c 2fbd ab42 eebc 2655 a23d
00000090: 24cb 803d 5c4f 4d3c 1ef8 2d3e 46b1 2cbc
000000a0: a7aa 5b3d 06bd cc3c e5f4 e6bd 8863 88bd
000000b0: 9feb cabc bd71 f9bd 65c1 2ebe 1c72 703c
000000c0: 6cb8 d7bd 2ac2 d2bd 87e8 953d 211f 5dbe
000000d0: 4a35 e4bc ecac 92bd 6903 033e 8405 08bd
000000e0: 9951 17bd e6a7 6c3d 5a40 0f3e 01ce 7f3d
000000f0: 70b9 c5bd abe5 babb 6409 6bbe 573c e1bb
00000100: 26d4 88bd b078 74bd aeb4 b13d 1c51 bebc
00000110: b1f2 66bd e58b 5d3e ca40 913d f02b a7bd
00000120: 382d f63d c93c d53d 02a6 19bc 1921 293e
00000130: e2fe 3a3d 5ba8 153b 15fd d9bd 7db7 f2bd
00000140: f146 8ebe 8650 fbbd eb88 efbd 058a b9bd
00000150: bf09 323c 4e0b 943d 90e0 df3d c8da 193e
00000160: 02bc 393e d595 063e 0288 feba ec8b 8d3c
00000170: 130a dabc 147c 9b3c dedb 36bc dfc4 92bd
00000180: 8574 1bbe 012a eebd 8413 94bd fb77 02be
00000190: 9df6 f43c 0a08 9cbd ab87 86bd d8b7 683d
000001a0: eea0 2d3d edf2 e83d 21cc 873d f569 983d
000001b0: eb6c 2a3d d671 e23c b16a 193e 5552 e8bc
000001c0: 0f8f 323d 3463 a43c 7e57 92bd c50c 64bd
000001d0: a923 16be 0a43 453c d989 8dbc 520f 1bbe
000001e0: bff1 58bd 0d59 f9bd f4e7 10bd 9e62 f5bd
000001f0: fa59 31bd 83dc 1fbc d0bf e0bd d141 55be
00000200: ae73 e23d 67c7 31bd 41f4 853d 9953 1d3e
00000210: 79d5 113d 1250 123e 5118 84bd 449e 7bbd
00000220: b1fe e1bc 123b 9f3c e141 8abd c293 c7bc
00000230: fc3c 813e f28d 0abe ffe6 b93d 0950 f63d
00000240: 1802 243b 6b30 9f3c 29b3 983c a300 37bb
00000250: 6323 f93b 8382 63bd 33df debd b4a1 29bd
00000260: 89cf 72bc ff80 d33c 6a2d 833d 9bf6 9d3d
00000270: 5311 18bc 7417 d33c 227e 61bd 9f1a 1d3d
00000280: e6e9 c6bd 9f0c 79bd f1e8 703d e5d4 ee3d
00000290: 0bf6 cd3d 78e9 4fbd e881 543b 4d44 3a3d
000002a0: 9248 f7bd c1bb 633c cd3b 2b3d d7d9 f53c
000002b0: db70 ad3d c04b ee3d beb4 d5bc 091c 0f3d
000002c0: 99dd c33d 256c 06be 9308 05be b791 9cbd
000002d0: c783 aabc e97e 2ebb c9c2 b03c 2d39 0fbc
000002e0: 526d e7bd 6536 0dbe d2ac 80be 83e5 a1be
000002f0: 44a3 dfbd b3aa b93b 2309 853d 9fcf e13c
00000300: 37f6 223d a8bc b73d b158 06bd 1a92 28bd
00000310: b452 0dbe 6b04 1dbe 235e cc3c 87db 86bc
00000320: 6629 ee3c c99f c7bd 03a5 aabc eec6 f0bd
00000330: b716 47be da86 6dbe ebf0 0abe 4486 a63c
00000340: 0145 f8bd 8c92 96bd cf80 d3bd 4f44 803d
00000350: 72fa b7bd 4cb3 eabd 0667 c53d ba8a c6bc
00000360: 9b66 5eb9 8ee0 6b3c f5de 713d d40a aebd
00000370: f367 a8bb e18d 88bd 81bc b9bd 1644 c8bd
00000380: 85ef 4bbe b5b9 353d f1ec 473d c5aa 033e
00000390: 4113 813d 8947 db3c 7d8e 03bd f2c4 4ebe
000003a0: 293c 35be 7b87 89bd ec13 6f3d 51d1 7a3d
000003b0: 47fb dcbc 18e6 823d af5c 0dbd 28ff 603b
000003c0: 47a3 37bc 6d4c f53d 87c1 04bb 24f9 ab3d
000003d0: 593b adbd a86b 23be 665d 01bd 73a5 0abd
000003e0: c311 983c 98c3 d9bd 0289 36bd ebd6 b6bd
000003f0: 720a abbd 6b40 26be b929 22be 58da ecbd
-0.05449514 -0.06818522 -0.05788822 -0.06691587 -0.023668109 -0.08623059 -0.09521966 -0.16491991
-0.042204283 -0.06970676 -0.07639692 0.0041565215 -0.062207792 0.122564875 0.11329078 0.17117995
0.06287711 0.057451017 -0.051487185 -0.09725166 0.09267737 -0.03145121 0.118058935 0.14124133
-0.10561903 -0.03371785 -0.08523618 0.011070816 0.12426776 0.12746127 0.10929406 -0.006681915
0.054271847 -0.042827945 -0.029084524 0.07926397 0.06288746 0.012531128 0.1698918 -0.010540312
0.053629544 0.024992477 -0.11277179 -0.06659609 -0.024770556 -0.12179897 -0.17065962 0.014675643
-0.105332226 -0.1029094 0.07319742 -0.21593906 -0.027857441 -0.071618885 0.1279427 -0.033208385
-0.036943052 0.057777308 0.13989392 0.06245232 -0.0965451 -0.005703648 -0.22952801 -0.006873648
-0.06681089 -0.05968541 0.0867704 -0.023232035 -0.056383792 0.21635397 0.07092436 -0.08162677
0.120203435 0.104119845 -0.009377958 0.16516532 0.04565323 0.0022835943 -0.10643975 -0.11851404
-0.277885 -0.12271218 -0.11696037 -0.09059528 0.010866581 0.07228719 0.10931504 0.15024865
0.18138126 0.13143094 -0.0019419196 0.017278634 -0.026616132 0.018980063 -0.011160819 -0.071664564
-0.15181167 -0.11629105 -0.07230285 -0.12741081 0.02990275 -0.07618721 -0.06568845 0.056815952
0.042389803 0.113744594 0.066307314 0.07442085 0.04160778 0.027642172 0.14982106 -0.028359571
0.043593463 0.020066835 -0.07145594 -0.05567624 -0.14662041 0.012039909 -0.017277645 -0.15142563
-0.052964922 -0.12175188 -0.035377458 -0.119817 -0.0432987 -0.009757164 -0.10974085 -0.20825888
0.110572204 -0.043403056 0.06540728 0.15363921 0.035603974 0.14288357 -0.064499505 -0.06143023
-0.027587267 0.019437347 -0.06750847 -0.024362449 0.2524184 -0.1353071 0.09077262 0.12026984
0.0025025662 0.019432267 0.018640118 -0.0027923963 0.0076030954 -0.055544388 -0.108824156 -0.041413978
-0.014819988 0.025818346 0.064051464 0.07713052 -0.009281474 0.02576802 -0.05505193 0.038355466
-0.09712581 -0.060803052 0.0588159 0.116617 0.100566946 -0.050759763 0.0032426063 0.045475293
-0.120743886 0.0138997445 0.041805077 0.0300111 0.08468791 0.11635542 -0.026087161 0.034938846
0.09563751 -0.13127191 -0.12991552 -0.076449804 -0.02081479 -0.0026625937 0.021577256 -0.008741659
-0.11300148 -0.13790281 -0.2513185 -0.31620416 -0.10919812 0.005666101 0.06495883 0.027564822
0.03978559 0.0897153 -0.032799426 -0.04115496 -0.1380108 -0.15333717 0.024947232 -0.0164621
0.029072475 -0.097472735 -0.020830637 -0.11756693 -0.19442259 -0.23195973 -0.13568465 0.020327695
-0.121225365 -0.0735217 -0.10327303 0.06263029 -0.089833155 -0.114599794 0.09638791 -0.024236072
-0.00021209793 0.0143968 0.05905052 -0.08498159 -0.005139345 -0.06667686 -0.090691574 -0.09778611
-0.19915588 0.044366557 0.04880995 0.12858112 0.063025005 0.026767509 -0.03211831 -0.20192316
-0.1769873 -0.06715294 0.05836861 0.061234776 -0.026975287 0.06391543 -0.034512218 0.0034331772
-0.011208362 0.11977468 -0.0020256953 0.08397129 -0.08458585 -0.15959036 -0.031583212 -0.03384919
0.018563157 -0.1063301 -0.044564255 -0.08927711 -0.08351602 -0.16235511 -0.15836228 -0.11565083

conv2.bias f4 [64]
00000000: 87ff 41bc b002 cc3c a42b d1bc b81e 253d
00000010: aac7 8a3d 9b55 603d 6965 0b3c bb0f 4bbd
00000020: 39b0 b0ba a758 8ebc f34e f8bb ac18 f9bc
00000030: 101f 27bd 3848 12bc b98b 5fbc 9b04 f1bc
00000040: 3566 adbc 4770 c0bc f6a9 04bd 10f2 aebb
00000050: 9fb7 43bb 4d3c 8d3b 6fb0 24bd 1f58 8bbb
00000060: 2339 e53b f87e 99bc 6b70 27bd 9f2b 333c
00000070: 42e1 423d 0471 64bd 1231 37bc 389c e3bc
00000080: 201d 983c c550 013d 72e0 043d 8470 d33c
00000090: d3bc 03bc a86e 4a3d 623b c33c 3ac4 03bc
000000a0: afcd a43b d471 0bbd 9b03 d6bc 6c4e e33c
000000b0: b177 5abd c990 2bbc 093d da3c 276d 05bc
000000c0: 0536 dc3b 60a6 61bd c808 25bd 3714 d63c
000000d0: d930 4ebd 7044 353d 24e3 073d f676 77bb
000000e0: f4d6 603d 52a0 60bb 1f20 92bc a315 a3bc
000000f0: ea87 7abc a76c 6bbd eaaf 31bd 3ca3 8ebc
-0.011840708 0.024903625 -0.025533505 0.0403125 0.06776364 0.05476914 0.008508065 -0.04957555
-0.0013480253 -0.017376257 -0.007577771 -0.030407272 -0.040801108 -0.008928351 -0.013644152 -0.029421141
-0.0211669 -0.023491038 -0.03238865 -0.0053389147 -0.0029864085 0.004310167 -0.040207323 -0.004252448
0.0069953366 -0.018737301 -0.040878695 0.010935693 0.047578104 -0.055771843 -0.011181133 -0.027784452
0.018568575 0.03157117 0.03244061 0.025810488 -0.008040625 0.049421936 0.023832027 -0.0080423895
0.005029402 -0.0340441 -0.026124766 0.027747355 -0.053336803 -0.010471531 0.026640432 -0.0081437
0.006720307 -0.05509031 -0.040291578 0.026132686 -0.050339554 0.04425472 0.033175603 -0.0037760115
0.054892495 -0.0034275246 -0.017837582 -0.019907778 -0.0152911935 -0.057476666 -0.043380655 -0.01741182

bn2.weight f4 [64]
00000000: 1c32 953f 6b4f 8f3f c76a 683f fe8a 453f
00000010: 2ab7 953f 7a39 3e3f c22d 923f f903 903f
00000020: 4382 713f 3849 853f 65a0 763f 1681 813f
00000030: af2e 733f c625 823f b7f4 7b3f a2f3 993f
00000040: fbfb 523f f952 843f cba3 673f 4719 6a3f
00000050: 9d8e 943f 06a8 843f e204 733f 1c2f 803f
00000060: 200f 7b3f cc55 613f 6e95 813f 7c4c 573f
00000070: 9d90 903f 10fd 983f 3eb4 753f ce5f 823f
00000080: e619 8c3f 3331 783f 27c7 623f 6c8a 7d3f
00000090: 640e 873f 944f 7e3f 2573 973f 5e9c 8d3f
000000a0: 126b 863f df0e 7b3f d9e7 773f ef32 863f
000000b0: cc7d 833f f204 7c3f db17 4a3f d988 713f
000000c0: 82f1 6f3f b8a6 623f 4b4a 6e3f 43ee 8c3f
000000d0: 388c 813f 1f46 653f 599f 873f 2f49 8b3f
000000e0: 8931 833f ffe6 3e3f 3f29 823f 9a50 543f
000000f0: f9aa 423f f9c0 6b3f 32ef 6c3f 4863 7b3f
1.1655917 1.1196111 0.9078793 0.7716521 1.1696522 0.7430645 1.1420214 1.1251212
0.9433939 1.041297 0.9633849 1.0117519 0.9499311 1.0167778 0.9842028 1.2027476
0.8241574 1.0337821 0.90484303 0.9144482 1.1606022 1.0363777 0.94929326 1.0014377
0.98069954 0.8802154 1.0123727 0.8410108 1.1294132 1.1952229 0.9597815 1.0185487
1.0945404 0.9695007 0.8858513 0.9903934 1.0551267 0.99340177 1.1832014 1.1063344
1.0501425 0.98069566 0.96838146 1.0484294 1.0272765 0.98445046 0.7894265 0.9434944
0.93727887 0.8853564 0.9308211 1.1010212 1.0120916 0.8956012 1.0595504 1.0881709
1.0249492 0.7457122 1.0168837 0.8293549 0.76042134 0.9209133 0.92552483 0.98198366

bn2.bias f4 [64]
00000000: bb07 16bd 21eb 80be 80f1 d3be 71b1 92be
00000010: a840 9abe 36d7 07bf 786f 3abe a6fb 26be
00000020: e215 4abe 2e69 15be 0e7b fcbd a859 30be
00000030: 7b58 a6be 9c82 79be 0165 40be 6df0 53be
00000040: ec2d 95be d611 53be a66e 1fbe c75b a0be
00000050: 5c7c 9dbe 4116 5fbd 9da6 33be 5cd1 933b
00000060: 46c8 58be 5edb 29be ac20 0ebe a4db 63be
00000070: 4947 69be edea c3bd 2ed4 0dbe 7894 3fbc
00000080: b583 9ebe 4732 a2be ad46 20be 033b 3ebe
00000090: ba86 d1bd e859 7cbe 2fea 58be b7a7 46be
000000a0: 6434 6cbe eec2 36be ba11 2ebe 6a36 3dbe
000000b0: e7c8 9fbe cc7a b3bd c165 d0be 3ae0 2abe
000000c0: f5cf 02be 43ed 6dbe da45 87be 7a6e 45be
000000d0: c38f 90bd 1e15 7cbe 2ff7 33be 8787 85be
000000e0: 73a5 0abe 4fa9 d0be d73c d8bd f17c 99be
000000f0: 7cf0 16bf cfe0 afbe ee95 2cbe 5c2b efbd
-0.036628466 -0.2517939 -0.41395187 -0.28651002 -0.30127454 -0.5306276 -0.18206584 -0.16306934
-0.1973491 -0.14590904 -0.12328158 -0.17221701 -0.3248938 -0.2436623 -0.1878853 -0.20697184
-0.29136598 -0.20612273 -0.15569553 -0.3132002 -0.3075894 -0.054464582 -0.17544027 0.0045110416
-0.21170148 -0.16587588 -0.13879651 -0.22251755 -0.227811 -0.09566293 -0.13850471 -0.011693113
-0.3095986 -0.31678984 -0.1565196 -0.18577199 -0.10230775 -0.24643672 -0.21183084 -0.19399916
-0.2306686 -0.17847797 -0.1699895 -0.18477789 -0.31207964 -0.08763656 -0.40702632 -0.16687098
-0.12774642 -0.2323504 -0.2642048 -0.19280425 -0.0705867 -0.2461743 -0.17574762 -0.26079962
-0.13539676 -0.40754172 -0.10558479 -0.29978135 -0.589607 -0.34351203 -0.16854069 -0.11678192

bn2.running_mean f4 [64]
00000000: 47eb 0bc0 3f61 f7be 0072 52c0 35b6 42c0
00000010: 7d2c 793f 87f0 9fbf 6380 babf db50 e9bf
00000020: 0713 dabf f638 dabf 0ac4 57be a693 27bf
00000030: 8520 e3bf efa7 b73e 5853 febe e70d 43bf
00000040: 88d9 a2bf 6602 d0bf 6cac 21c0 6473 61bf
00000050: fd14 5bbf 8d5a d9be f7c2 39bf bb03 92be
00000060: 5fec 3dc0 f336 9abf fa79 b4bf 32eb 3ec0
00000070: 4fe8 d93d af32 5a3f 1028 36be f8ce 9cbf
00000080: 3a9f a1bf 6a0e c8bf f4ed a63e dc27 e03e
00000090: ea8c 33bf 87f3 20bf 6fa6 2fc0 0f03 223f
000000a0: f9ab a6be c279 11c0 2932 85bf a730 af3d
000000b0: 3fcb 86bf 60eb c1bf 8ab1 ddbf affd 14c0
000000c0: 193b b9bf 15f6 b5bf cca7 c2bf 039f f1bf
000000d0: 25fa f4bf 0ea5 5fc0 4947 abbf d4d3 b63e
000000e0: cc75 67bf 9630 bbbf 19e0 2abf 0cbc 553f
000000f0: cb60 86bf e90c 7bbf 43b2 25c0 ab5b 3bc0
-2.1862352 -0.4831638 -3.288208 -3.042371 0.9733351 -1.2495278 -1.457043 -1.82278
-1.7037057 -1.7048633 -0.21070877 -0.6545967 -1.7744299 0.3587031 -0.4967296 -0.7619309
-1.2722635 -1.6250732 -2.5261488 -0.880667 -0.855789 -0.42451897 -0.7256312 -0.2851847
-2.967552 -1.2048019 -1.4099724 -2.9831052 0.106400125 0.8523359 -0.1778872 -1.2250662
-1.2626717 -1.5629399 0.3260342 0.4378041 -0.7013689 -0.62871593 -2.7445333 0.6328592
-0.3255308 -2.2730565 -1.0405933 0.085542016 -1.0530776 -1.5149956 -1.7319806 -2.3279836
-1.447116 -1.4215723 -1.5207458 -1.8876652 -1.9138838 -3.4944491 -1.338113 0.35708487
-0.9041412 -1.4624202 -0.66748196 0.8349006 -1.0498289 -0.98066574 -2.5890052 -2.92747

bn2.running_var f4 [64]
00000000: 893a cb40 0e5c e940 5d2f 983f 3b2a f340
00000010: c968 5440 6591 7540 afd3 d040 1784 9c40
00000020: 9b73 aa40 8de4 e540 1d46 a240 e7d9 3b40
00000030: a1e4 8f40 3813 9140 0895 4840 22fc ed40
00000040: 694d b040 1bf6 9440 9eff 6740 da59 de40
00000050: dc64 bd40 25ce f540 4e93 9540 b249 7e40
00000060: aa12 7e40 1ee7 5e40 e7f0 5440 ce16 b440
00000070: c030 a740 2c95 6540 524c 3e40 c66a e140
00000080: 0590 9840 7186 2b40 e338 8240 7a1f e540
00000090: 32a9 d840 ec22 8d40 0811 7d40 3301 7840
000000a0: af81 c440 d2df c740 e63e d140 54e8 8a40
000000b0: 95bf fc40 a19d 1a41 4e58 1e40 d788 d240
000000c0: 81fe 1640 273b 3d40 c511 b740 5b00 b240
000000d0: fa43 8640 67e0 5440 f44e a640 8f38 1740
000000e0: 2ecf ba40 52ce d040 d141 9e40 3a1d 8740
000000f0: 595f 2740 f757 0a40 0982 b940 be62 ff3f
6.3508954 7.292487 1.1889454 7.598905 3.3188956 3.8369992 6.5258403 4.8911242
5.326612 7.1841493 5.0710588 2.9351747 4.496659 4.533596 3.1340961 7.437028
5.5094495 4.655042 3.6249766 6.948468 5.918562 7.681414 4.6742315 3.973248
3.9698892 3.4828563 3.3272035 5.627784 5.224701 3.5872297 2.9734082 7.044284
4.7675805 2.6800807 4.069444 7.1600924 6.7706537 4.410513 3.9541645 3.8750732
6.1408305 6.246072 6.538928 4.3408604 7.8983865 9.663484 2.4741397 6.579204
2.3592837 2.9567354 5.720919 5.5625434 4.195798 3.3261964 5.197138 2.362827
5.8377905 6.5251856 4.945534 4.2223177 2.6151946 2.161619 5.7971234 1.9952009

conv3.weight f4 [64, 64, 3, 3]
00000000: c548 19bd 3fcb 92bd cdda cebc 4255 1cbd
00000010: f15e b4bd 083f 1abc c030 06be a98a 59bd
00000020: 4e32 32bd ee7c d0bd a23c fd3b 8cb3 78bc
00000030: ecc8 b93d 2370 c53d c51c de3d e1aa 033e
00000040: 2b45 eb3d f1ab 693c f481 f43c 788d c4bd
00000050: dff3 ebbc 78b9 32bd 2360 243d 7f4c 1ebc
00000060: fcc2 013e f023 b93d 4bb8 71bd 1769 d43c
00000070: 49c4 103d f312 073d e65c 33bd 0350 963d
00000080: d180 e33d 5154 99bb 9562 063e 494e a63d
00000090: 0ca1 94bd d607 823d 326e 133e d2c9 213e
000000a0: 2400 ba3d b97f da3c 2016 ef3d 7d57 a7bd
000000b0: 867f b13d 0491 bdbd 73e4 4f3d 2ed3 92bd
000000c0: 0ded 76bc 5d7f 5e3d 893b ed3d 1887 993d
000000d0: 22d1 e73d c047 43bd e689 ed3c 0dfd d7bc
000000e0: 7bda 093d b7ae 6c3d 7e26 5a3d 37da c4bd
000000f0: ca6e 393c 2cb7 57bd 0c62 99bd e54c 0e3e
00000100: a8e9 af3d b1ed 073e d184 743e 50e4 87bb
00000110: eaec 433d 9ba6 4b3e b398 18bc c790 bd3d
00000120: 8ff1 bc3d c442 16bc a735 b9bd 78c0 903d
00000130: 5481 1abd f220 92bd aef2 29bd f6ec aabd
00000140: 33ef f03c e3c7 89bc e93a 90bd ac50 b1bc
00000150: 6e76 bebc 5ad0 613d 7cc2 0d3e 9389 c4bc
00000160: 4f96 fc3d 7021 1d3d f582 3cbb 826d 5dbd
00000170: 64f9 833b 9d7a 13bd 76c1 76bd f49e 85bd
00000180: 07a2 473d b402 473b f6ef d1bc 3dbb df3d
00000190: 6045 e3bc 4302 febd 5319 c1bc 2c5a 5abe
000001a0: d4c7 12bd f15a d4bc 1c55 e4bb 5599 533c
000001b0: 35e4 6cbd 2f39 e3bb df9b d3bd 8e7e e63c
000001c0: 6b1b 083d 5ff0 4c3d 7fc0 c53d 7df3 153d
000001d0: bd94 7fbb dd0b 8c3d 7cb5 c0bc 30de 9f3d
000001e0: 4c58 01bd 24a0 bebc 9b0f 773e aec0 9a3d
000001f0: e2fa a9bb ea8f 0a3e d646 4b3d 2dc7 343e
00000200: 458c 093e 4f78 4f3d 2471 e0bb 9be4 783d
00000210: 6cda 80bd e871 1cbe b50f e33c 1477 223d
00000220: 8a8e c83d 4542 1abb ceea 0c3e f5a6 693e
00000230: 0045 de3d 290f 2f3d 4109 dcbd 9998 36bd
00000240: fc8c ba3d 5be4 1f3d 0fc5 f73c b397 243d
00000250: 8e3c c0bd c1de 99bd bd27 6a3d 0605 c1bc
00000260: 8d27 253d 9fad d23c e954 213d bae1 c4bb
00000270: a244 0dbd 2718 2dbe eae3 e33d fe64 abbd
00000280: 9dbd 2bbc c130 8a3d 0b51 103e 4002 003e
00000290: 1abc 9b3d 2a28 ee3d 0b46 7fbb c79d 05be
000002a0: bfc9 273c 8104 95bd c993 1c3d 63d3 f2bb
000002b0: bd2c 2b3d 5f66 243d d2b0 a43b 33d2 ebbd
000002c0: f50e db3d bd14 3dbd f133 4fbd 2933 5abe
000002d0: c2ae 4dbb bd52 08bd 6b96 3c3a 3371 ccbd
000002e0: d50b 19be 8177 6cbd 0677 33bd 6aa0 11be
000002f0: 8522 fabd b3f4 723d 1096 20bc 9e1f 1e3d
00000300: 5d86 bdbc 03ed 43be d426 2fbe 29f8 bbbd
00000310: 71c9 eebd d23f 05bc 6cf0 83bd 3f68 aa3d
00000320: a57a 9d3d a07a 313e 47dc da3d 127c 0c3e
00000330: 936f d83d 3c64 d7bb f7c2 3d3c f6ad 743c
00000340: b238 013e efbc 31bd 1a7c cbba 22f2 7d3d
00000350: b3c0 c13c 4da3 863d 0ba4 25be 9c08 4cbc
00000360: 5cb8 51bd 7ee6 483d 13e9 913d d7c6 c239
00000370: 4c35 02bd df2d d73c 5623 a03c 4554 b5bd
00000380: 9294 e5bc da94 ce3c 4a21 d63d 73d0 183e
00000390: 6993 0c3e ad01 9bbd 4029 9f3d 894f b23b
000003a0: df0d 9b3d 8f50 283d 0fff 2e3d a03d c43d
000003b0: 93e4 0dbe 0b8f bdbc eb8b 0cbe afec bdbd
000003c0: d32a f3bb 5736 97bc 77e0 b23c c824 d9bc
000003d0: c695 803d b6ba b23c b3d1 91bd 22e7 5f3d
000003e0: 94f3 74bc 7ac9 9ebd b77f 973d c773 b33c
000003f0: 1e8a 913c 365c 993d 835c 963c 5997 2ebd
-0.037422914 -0.07167672 -0.025250817 -0.038167246 -0.08807171 -0.009414442 -0.13104534 -0.053110752
-0.043505006 -0.101800784 0.0077281753 -0.015179526 0.09071526 0.09640529 0.10845331 0.12858154
0.11487802 0.014262185 0.029847123 -0.095972955 -0.02880281 -0.043633908 0.040130746 -0.009661793
0.12672037 0.09040058 -0.059013646 0.025929017 0.035343442 0.032977056 -0.043789767 0.0733948
0.11108554 -0.0046792408 0.13123544 0.081204005 -0.0725728 0.06349151 0.14397505 0.15799645
0.09082058 0.026672231 0.11674142 -0.08170984 0.08666901 -0.09256175 0.050754976 -0.071691856
-0.015071166 0.05432068 0.11583621 0.0749647 0.11319186 -0.047675848 0.02899642 -0.026365781
0.033655625 0.05778381 0.053259365 -0.09611934 0.011317918 -0.05266492 -0.07489404 0.1389652
0.08589488 0.13274266 0.2387879 -0.00414709 0.04783336 0.19887774 -0.00931375 0.0925613
0.09225761 -0.009171192 -0.090434365 0.070679605 -0.037720993 -0.0713519 -0.041491203 -0.08345978
0.029410934 -0.016818946 -0.07042486 -0.021644913 -0.023249831 0.05513034 0.13843721 -0.023991382
0.123333566 0.038361967 -0.002876458 -0.054059513 0.0040275324 -0.036005605 -0.060243092 -0.065244585
0.048738506 0.0030366601 -0.025627118 0.10924385 -0.027743042 -0.12402775 -0.023571646 -0.2132346
-0.035835102 -0.02592227 -0.0069681536 0.012914975 -0.057834823 -0.006934307 -0.103324644 0.028136518
0.033229273 0.050033923 0.09655856 0.03660916 -0.0038998567 0.068382 -0.023524038 0.07806051
-0.031578347 -0.02326972 0.24127047 0.07556282 -0.0051873783 0.13531461 0.0496281 0.17654105
0.13432415 0.050651845 -0.006849425 0.06076489 -0.06291661 -0.15277827 0.02771745 0.039664343
0.09792812 -0.0023538035 0.13761446 0.22817595 0.108530045 0.042739067 -0.107439525 -0.044579122
0.09108922 0.039036136 0.030245332 0.040183734 -0.0938655 -0.0751319 0.057166804 -0.023561966
0.04032092 0.025717555 0.039387617 -0.006008354 -0.03448928 -0.16903745 0.111274555 -0.08368872
-0.010482219 0.0674758 0.14093415 0.12500858 0.07604237 0.116287544 -0.003895166 -0.13048469
0.010240971 -0.0727625 0.038226876 -0.007410453 0.041790713 0.04013669 0.0050259614 -0.11514702
0.10696212 -0.046162356 -0.050586645 -0.21308579 -0.0031384681 -0.03328203 0.0007194045 -0.099825285
-0.1494592 -0.057731155 -0.04381468 -0.1422135 -0.12213615 0.059315395 -0.009801403 0.03860437
-0.023135358 -0.19133382 -0.17104656 -0.09178192 -0.11659516 -0.008132892 -0.06442341 0.083206646
0.07689408 0.17331934 0.10686546 0.13719204 0.10568156 -0.006573228 0.011582128 0.014934054
0.12619284 -0.04339307 -0.0015524656 0.061998494 0.023651456 0.06574116 -0.16175859 -0.0124532245
-0.05120121 0.04904794 0.071245335 0.0003715071 -0.03178911 0.02626699 0.0195481 -0.08853964
-0.028024945 0.025217462 0.10455568 0.14923267 0.13728108 -0.07568679 0.0777154 0.0054416102
0.07571005 0.04109245 0.04272371 0.095820665 -0.13856725 -0.023139497 -0.1372525 -0.092736594
-0.0074208765 -0.018458528 0.021835549 -0.026506796 0.06278567 0.021817546 -0.07120075 0.054663785
-0.014950652 -0.07753272 0.073974065 0.021905793 0.017766055 0.07488291 0.01835466 -0.042624805

conv3.bias f4 [64]
00000000: e38a e43c 1763 a2ba d96c 213d 9fab 06bd
00000010: 7730 9dbc cf6e b73c beae bdbc 5ca5 953c
00000020: 7fb6 d9bc 5b42 553c 58a6 bb3c 73b1 90bc
00000030: 4564 5f3c 7fec 8e3b 1b0e fbb9 9ad6 983c
00000040: 7f74 b43c f769 a73c 1881 02bd aa21 d8bb
00000050: 9905 3fbd 04d8 1ebc e5b2 153d c1ab b3bc
00000060: dc09 3c3d 8105 d5bc 9924 2bbd d417 ccbc
00000070: 6326 07bd 3d70 cc3c cfbf da3c 8013 9d3c
00000080: b226 9cbc f412 e73c 1fe8 dcbb 8dfe 69bc
00000090: 517d 22bd b3d1 e73b 7a8e ac3c feaf 56bc
000000a0: ff1a 4d3c 24f5 96bc a9ca a33c 4835 21bb
000000b0: 124e 3dbc ed40 963b ae1b be3c 5a54 09bd
000000c0: d52b c8bc 8e13 553c 1843 683c 2d87 2bbb
000000d0: 46aa 20bc 03f2 43bc 470b eabc 2594 07bd
000000e0: 89fe 923a 21b7 193d bbf6 f93c 15e2 07bd
000000f0: e0c1 113d 341d 5ebb 03a5 c2bc fcc0 e93c
0.027898258 -0.001238915 0.039410446 -0.032878514 -0.019188149 0.022391705 -0.023154613 0.018267326
-0.026576279 0.013016309 0.022906467 -0.01766274 0.013634746 0.0043616886 -0.0004788496 0.018657017
0.022028206 0.02043627 -0.031861395 -0.00659581 -0.046636198 -0.009695057 0.03654756 -0.021932485
0.04590784 -0.026003601 -0.04178295 -0.024913706 -0.032995593 0.024955863 0.02670279 0.019174337
-0.01906142 0.02820728 -0.006741538 -0.014281881 -0.039670292 0.0070745586 0.021064032 -0.013103483
0.012518643 -0.018427439 0.019994097 -0.0024598408 -0.011554258 0.0045853765 0.023206558 -0.03352771
-0.024434963 0.0130051505 0.014176153 -0.00261731 -0.009806221 -0.011959556 -0.02856983 -0.033100266
0.0011214773 0.03752816 0.030513158 -0.033174593 0.035585284 -0.0033891918 -0.023760324 0.028534405

bn3.weight f4 [64]
00000000: e45a 7d3f 4e1e 863f 3446 653f abee 4d3f
00000010: fafe 723f 67f3 743f ffe3 6e3f c7f4 653f
00000020: 0148 7b3f 0c20 723f 202d 843f 8a14 7e3f
00000030: 8da5 863f 79d8 8b3f 3bad 903f 8472 813f
00000040: 7a75 7d3f 204d 493f 77d3 643f 0be8 7e3f
00000050: 276f 783f 5a2b 6f3f c1f7 7b3f 9ab1 813f
00000060: 5bb3 873f f6e5 8d3f d2a7 773f ce70 7e3f
00000070: dbc8 9e3f 8e5e 823f 0ea2 6e3f 235c 823f
00000080: 9803 753f 9b3d 733f 494a 663f 4d9e 5b3f
00000090: da4a 723f ac78 7f3f faf7 823f 58bf 6d3f
000000a0: 9c54 823f feb0 863f f8d3 8b3f 4e5d 833f
000000b0: 4a4c 833f 6145 823f 05cd 903f 5b85 813f
000000c0: b95a 8d3f e1d2 7a3f e3b5 753f e483 923f
000000d0: 0b35 803f bde6 823f cc51 853f 8cb6 8b3f
000000e0: ef64 683f 55cc 793f 5407 743f 838c 723f
000000f0: e994 763f d7c3 843f e4c2 4b3f a935 813f
0.98966813 1.0477998 0.89560246 0.80442303 0.94920313 0.956839 0.93316644 0.89826626
0.98156744 0.9458015 1.0326271 0.9925009 1.0519272 1.0925437 1.1302866 1.0113072
0.9900738 0.7863331 0.8938517 0.9957282 0.97044605 0.93425524 0.9842492 1.0132325
1.060161 1.1085804 0.9674045 0.99390876 1.2405046 1.0185106 0.93216026 1.0184368
0.9570861 0.9501588 0.899571 0.8578842 0.94645464 0.99793506 1.0231926 0.9287009
1.0182071 1.0522764 1.0924063 1.0262849 1.0257657 1.0177423 1.1312567 1.0118822
1.1043311 0.97978026 0.9598066 1.14465 1.0016187 1.0226666 1.0415587 1.0915084
0.9077901 0.9757741 0.9532368 0.94745654 0.9632097 1.0372266 0.79594254 1.0094501

bn3.bias f4 [64]
00000000: 3a22 83bd 0e78 f9bd 1ee1 18be 2594 61be
00000010: f542 83be 2841 38be 4baf 94bd 35af 1bbe
00000020: 48fb 523d ffa5 493c a891 1ebe a357 21be
00000030: 65af 3cbe caa3 a3bc 907b 2bbe d455 15be
00000040: be53 adbd fb13 9b3c 506d 7cbe cc24 5fbd
00000050: 04b1 e6bd 233f 4bbd 80ba 67be 6486 28be
00000060: b9f9 a1bd 12f2 d1bd c17c ffbd 38d9 09be
00000070: 79bf 7dbe ffe0 1ebe 4a4d a0be 1089 d9bd
00000080: 64c2 90be f781 8abe f316 6dbe 389f 51bd
00000090: 10a7 44be 3a3b 7cbe 45ac b9be c78d eabd
000000a0: e8db a9be 7624 debe 12b8 adbd fe5d 1ebe
000000b0: 253c 45be 27c5 3bbe 9391 2dbe 15c2 5ebe
000000c0: 411e fbbd d148 37be e770 3dbe 5866 77be
000000d0: 2ed9 94be bba5 dabc f06f 62be 0326 36be
000000e0: f383 23be 5007 90bd 5929 75be 929b 8fbe
000000f0: 9371 e7be 9af5 6dbe d008 e2bd 01b3 17be
-0.064030126 -0.12181102 -0.14929625 -0.22029169 -0.25637022 -0.17993605 -0.07259997 -0.15203555
0.05150917 0.012307643 -0.15485251 -0.15756087 -0.18426283 -0.019975562 -0.16746354 -0.14583522
-0.08463238 0.018930426 -0.24651074 -0.05447845 -0.11264232 -0.04962076 -0.22629738 -0.16457516
-0.07908959 -0.102512494 -0.12474967 -0.13461769 -0.24780072 -0.15515517 -0.31308967 -0.10621846
-0.28273308 -0.2705228 -0.23153286 -0.051177233 -0.19204354 -0.24631968 -0.36264244 -0.11452823
-0.33175588 -0.43387192 -0.08482374 -0.15465543 -0.19261225 -0.18336926 -0.16950063 -0.21753724
-0.1226163 -0.17898871 -0.185001 -0.24160135 -0.29071945 -0.026690355 -0.22113013 -0.17787938
-0.15968303 -0.07032645 -0.23941554 -0.28048378 -0.45203838 -0.23238221 -0.11036837 -0.14814378

bn3.running_mean f4 [64]
00000000: d098 4d40 bf2e 453e 8727 6dbf 04ce d0be
00000010: e3b1 2e3f 1912 2ebf 3ba6 20bf 4145 7e40
00000020: 2bd9 21c0 d1b6 1140 f622 8bc0 203a 99c0
00000030: 8c95 24bf 3075 bbc0 d1d9 90c0 3f2b dbbf
00000040: 6899 d83f ff6e 81c0 1a5d f8bf 7fd2 c13e
00000050: fc14 a33e 7597 00c0 2295 54c0 1739 2440
00000060: cd53 85c0 7444 86c0 ce64 393f f839 bdc0
00000070: ce20 f0be ea2b 47bf 7333 d7bf 61e4 2b3e
00000080: d308 0fc0 0d41 cabe 2206 77c0 412c b5bf
00000090: 514d acbf 11d2 83c0 ac8a b1bf 0443 c9c0
000000a0: 6837 85c0 7fc3 97bf 6f2b 69c0 c182 4fbd
000000b0: 1378 eb3f 85ce 42c0 bdad 40c0 e29f 24c0
000000c0: 8db9 0a40 33d6 73c0 d60a 483f 1dad 17c0
000000d0: 6463 d3bf 08ec 25bf 3521 12c0 dfad 93c0
000000e0: da6c 64bf 69c8 e4bf 62ae f3bf ebf6 82bf
000000f0: f7ab b6bf 7e71 3dc0 716e 42bf c0c8 3bc0
3.212452 0.19256113 -0.9263844 -0.40782177 0.68240184 -0.67996365 -0.6275365 3.972977
-2.52888 2.2767832 -4.3480177 -4.7883453 -0.6429069 -5.858055 -4.526589 -1.7122573
1.6921816 -4.0447993 -1.9403412 0.37855908 0.31851947 -2.0092442 -3.3216023 2.5659845
-4.1664796 -4.195856 0.7241944 -5.9133263 -0.46900028 -0.7780138 -1.6812576 0.16786338
-2.2349136 -0.39502755 -3.8597493 -1.415413 -1.3461095 -4.119393 -1.3870444 -6.2894306
-4.1630135 -1.1856536 -3.643276 -0.050661806 1.8396019 -3.043855 -3.0106041 -2.5722585
2.1675751 -3.8099487 0.78141534 -2.369941 -1.6514707 -0.6481328 -2.2832768 -4.6149745
-0.89228594 -1.787366 -1.9037592 -1.0231603 -1.427123 -2.960052 -0.7594977 -2.9341278

bn3.running_var f4 [64]
00000000: 7db6 3641 3eff 1d41 1aaa 2141 cdf3 3a41
00000010: 1cca 2b41 dfaa 1a41 09f7 2641 b9bf 1541
00000020: 624e 1941 13a1 7941 f353 8641 617b 7441
00000030: a567 2a41 2830 9d41 cf27 8f41 146a 0041
00000040: f795 0441 4cbf 5741 2357 0641 0489 6b41
00000050: 4516 6541 4533 5841 8ce1 0641 52cd 1c41
00000060: bd77 da40 b16f 2041 3718 4a41 b0ff 4941
00000070: 0aca 8641 156c 4a41 8f7d 2941 a560 7241
00000080: a3aa 4d41 7aa7 6541 a588 1b41 e0cd 2a41
00000090: 0a9b 3341 7c38 1941 9d53 5541 2755 8941
000000a0: 3914 4441 787e 0741 3bfa 5b41 0a3b 3c41
000000b0: 8c3f 2041 35eb 8241 6aa0 5541 e884 2241
000000c0: 95a0 1a41 e392 5c41 54c9 1241 3420 6d41
000000d0: 93ee 7a41 9c10 5141 1515 2441 a9bf 4f41
000000e0: 4ad6 7641 8048 4441 d699 0e41 5088 4941
000000f0: 80d3 2341 8781 5e41 9072 ef40 ce20 9c41
11.419553 9.874815 10.104029 11.684522 10.736843 9.666717 10.435311 9.359307
9.581636 15.601825 16.79099 15.280122 10.650304 19.648514 17.894438 8.025898
8.2866125 13.484203 8.396274 14.720951 14.317937 13.512517 8.430065 9.800127
6.8271165 10.027268 12.630912 12.624924 16.848652 12.651387 10.593154 15.148595
12.854159 14.353388 9.7208605 10.675262 11.225351 9.57629 13.332913 17.166578
12.254937 8.468376 13.748591 11.764414 10.015514 16.364847 13.351664 10.157448
9.664205 13.785861 9.174152 14.820362 15.683246 13.066555 10.255147 12.984292
15.427317 12.2677 8.912558 12.595779 10.239136 13.906623 7.4827347 19.516018

fc1.weight f4 [128, 576]
00000000: 97df f53d 9d5e 3bbe c625 893c 0d2f 043e
00000010: c672 c13d 48b5 0e3d e9ff b4bb 7aee 65bd
00000020: ac36 ddbc 2db8 c73d 6152 2dbe bc1e d63c
00000030: a4be 15b6 e7c8 653e f4b9 a83c 27db a93d
00000040: b438 7abd 2c09 39bc a91b 8bbd e189 dcbd
00000050: 8e53 cabc 4346 a73b a16b 03bd b6d8 823e
00000060: a208 b83d ae73 aabd fd52 b13b e10b dcbd
00000070: c67e 5b3d acc1 4cbd a1e1 17bd 0edf 1fbe
00000080: da01 083e 14fc 8bbc d27f 28be b83e 8a3d
00000090: 1f42 88bd 26a7 b93d 479e e23d 667d 99bd
000000a0: 6595 f23d 4d38 38bd b688 a83c d666 0dbd
000000b0: cb2a 88bd 6b92 23be 1386 25bd 10a2 a33d
000000c0: 7426 68bd 3332 dbbc 05d7 56bd ab1f 023d
000000d0: cf63 b0bc 557f f0bb b35e 6bbd ac9e f03c
000000e0: 1c28 0b3d 6ead b1bd c02b 433d 2076 873d
000000f0: d131 7cbd f808 bbbd 6c57 13be 6015 3f3d
00000100: 4699 a03c a467 aabc 82b1 51bd d3a1 b23c
00000110: e6e2 7f3d d29e 5b3d b60a 9eba f5f2 1dbe
00000120: 7b89 873d eb6a 063c fd1a 0d3d 7c71 b53d
00000130: 62b6 6bbd 51d6 ab3c 3b54 32bd f712 d2bc
00000140: 67b3 923d ed51 643e 931e a8bd 51a3 25bd
00000150: a3af a3bd 66ff 1b3e e2cf 44be 9aa0 ac3c
00000160: f32a d33c b4a9 e53d da30 923d 1f7e 003e
00000170: a55c 563d cc58 163c 696e d83d d89a 66bd
00000180: 3d3c 74bc 54a1 2dbd f6ce b5bc d83b 60bd
00000190: e73f b5bc 6f66 4e3d 5fce d3bd 6a39 f73d
000001a0: 5258 89bc 8a4e d1bd 6584 a43a a518 e2bd
000001b0: e382 293e 98fd 82bc cfa3 163c 3fc7 a53d
000001c0: 896b 043e c2cb ef3d 52ae e33c 3771 283d
000001d0: 8189 853e 2f68 e03c 8c52 003e ac8d 7dbd
000001e0: 8e2c 5dbd 61b5 8ebd 786a 323d 990c c33b
000001f0: 7439 8b3d 015e 7abe b6a7 8bbd 1291 04be
00000200: 371b f33d a460 ae3d 784b 0dbe cdfe 003c
00000210: c682 b13d 7c11 a0bd 9a7c de3d d4f0 143d
00000220: 8c57 c93d 6b7c 173d c851 5cbc 8f52 033e
00000230: 6b71 f7bd 6ad8 9abc f380 f7bd 8c99 063d
00000240: c008 583d d983 813d d9c1 903c c66e 0f3d
00000250: c504 393c f65a 8fbd 6d35 c23c d0e1 f9bc
00000260: 6d18 06be 04ea 313d 8215 b53d 9ad7 0ebd
00000270: cedc f13c b343 c43d 215c c3bd 1e4f 4ebd
00000280: 66a6 763d b0c5 a5bb de00 0c3b 677b f4bd
00000290: 5d68 afbd f923 713d d746 8fbd 701f 753e
000002a0: fb88 28bd 55f0 03bd a19a 55bc cecd 1a3c
000002b0: 75ff 85bd ad1e 2ebe 407e 33be 70c1 de3c
000002c0: 760e e2bd a486 2ebd f8f7 263d aa54 703e
000002d0: d4c9 973d 6687 e63d bcdd 1d3d a845 543d
000002e0: 1b80 57bc d990 c9bd c852 713d a167 50bd
000002f0: aafa 733c 0399 8dbd 5eec f0bc eeb2 b13b
00000300: 3f5a e73d e285 0abe b1d3 0a3c e802 d7bc
00000310: 58a5 c5bc 8f97 11be d50f 503d 2184 713d
00000320: 07d3 993d 49e9 f1bd d1a9 f6bd 6ade 813d
00000330: 4bf9 153d 7205 b93d 61c0 3bbd 11dd 5ebd
00000340: bb42 2dbc eb3d bcbd 94d3 e5bb bdd0 a8bd
00000350: 0b97 de3c 0ebe eebd 6aaf 443c d74e 07be
00000360: f7ce 89bd fa8b 8c3c b64a a9bc 13b1 233d
00000370: 2fdb 97bb 0090 47be 599d 9a3c b2f1 0d3e
00000380: fb27 7cbd a713 a4bc 17ff cfbc 9faa 7bbd
00000390: a2c1 77bb c704 bdbc b362 493e e6ab 533d
000003a0: 5a09 203e 39c0 403d f4d1 b2bc c948 14bd
000003b0: ca1f 3e3d e00f b2bd 906f 72bd 2dfa 98bd
000003c0: 032b 2abe d22d ba3c 393a 363d 331e 59bd
000003d0: bc1c 003a 2ed2 0d3e 9691 da3d 163d 04be
000003e0: 1377 9cbd e01c 203d 42f3 c93d 5231 ee3b
000003f0: 7858 0abe 8916 d63d 5c87 263d 0820 c9bd
0.12005537 -0.18297811 0.016741645 0.12908573 0.094457194 0.034840852 -0.005523671 -0.056135632
-0.027003609 0.097519256 -0.16925956 0.026137702 -2.2313698e-06 0.2243992 0.020596482 0.08293753
-0.061089233 -0.011293691 -0.06792385 -0.10768486 -0.024698045 0.0051048114 -0.032085065 0.25555962
0.089860216 -0.083228454 0.0054115043 -0.10744453 0.053587697 -0.049989387 -0.03708041 -0.15612432
0.13281956 -0.017087974 -0.1645501 0.06750244 -0.066532366 0.09065084 0.11065345 -0.07494621
0.11844901 -0.044975568 0.020573001 -0.0345219 -0.06648787 -0.15973823 -0.040411066 0.07989895
-0.056677297 -0.026757335 -0.052451152 0.031768482 -0.021531967 -0.007339398 -0.05746336 0.029372536
0.0339738 -0.08675657 0.047649145 0.066143274 -0.061570946 -0.0913257 -0.14388818 0.046651244
0.019604336 -0.020801373 -0.051194675 0.02180568 0.062472247 0.05361826 -0.0012057635 -0.15424712
0.06618019 0.008204202 0.034449566 0.08859536 -0.05754698 0.020976217 -0.04353736 -0.025643809
0.071631245 0.22296877 -0.082089566 -0.040438954 -0.079924844 0.15234146 -0.19219926 0.021072675
0.025777316 0.11214009 0.07138224 0.12548111 0.052334446 0.009176444 0.10567934 -0.056300014
-0.01490694 -0.042390183 -0.022193413 -0.05474457 -0.022125198 0.050390657 -0.103420965 0.12071498
-0.016765747 -0.10220058 0.0012551664 -0.11039857 0.16553836 -0.015990064 0.009194328 0.08094644
0.12931646 0.117087856 0.027793083 0.041123595 0.2608147 0.027393429 0.12531489 -0.061902687
-0.05399757 -0.06968189 0.043558568 0.0059524295 0.06798068 -0.24449922 -0.06819098 -0.12945965
0.11870425 0.085145265 -0.1379832 0.007873249 0.08667521 -0.07815835 0.108636096 0.036362484
0.09831151 0.03698389 -0.013447233 0.12824462 -0.1208218 -0.018902022 -0.12085142 0.032861277
0.05274272 0.06323976 0.017670559 0.03501775 0.011292641 -0.06999771 0.023707116 -0.030503184
-0.13095255 0.043436065 0.08841993 -0.034873582 0.029524233 0.09583225 -0.095390566 -0.05036842
0.060217284 -0.0050589666 0.0021362822 -0.119376 -0.085648276 0.058872197 -0.069959335 0.23937774
-0.04114626 -0.03221162 -0.013037355 0.009448482 -0.06542865 -0.1700389 -0.1752863 0.027191848
-0.110379145 -0.042608872 0.040763825 0.23469797 0.074115425 0.11256294 0.03854154 0.051824242
-0.013153101 -0.098420806 0.058916837 -0.05088008 0.014891306 -0.0691395 -0.029409584 0.0054229414
0.1129651 -0.13527635 0.008473323 -0.026246503 -0.024126694 -0.14217971 0.05079635 0.0589639
0.075109534 -0.11812074 -0.12044109 0.0634125 0.036614697 0.09034242 -0.045837764 -0.054410044
-0.010574992 -0.091914974 -0.0070137475 -0.08242939 0.027171632 -0.11657344 0.012004713 -0.13213669
-0.067289285 0.01715659 -0.020665508 0.039963793 -0.004634283 -0.19488525 0.018873857 0.1386173
-0.061561566 -0.020028902 -0.025390191 -0.061442014 -0.0037804623 -0.023073567 0.19666557 0.051677607
0.15628567 0.047058318 -0.02182863 -0.036202226 0.046417035 -0.08694434 -0.059188426 -0.07469592
-0.1661797 0.022726927 0.04448912 -0.053007316 0.0004887094 0.13849708 0.106722996 -0.12913927
-0.07639899 0.039090037 0.09860851 0.007269063 -0.1351031 0.10453517 0.040656433 -0.098205626

fc1.bias f4 [128]
00000000: 1803 1cbc 831d debc 00dc fdbb a673 393b
00000010: cdc6 ed3b b288 42bc 1890 a83c 6577 a63c
00000020: b9b4 013d b17d 2e3d d075 773a 7237 e73c
00000030: a334 d8bc ee4f 18bb 14e5 a93c 5c73 003d
00000040: e843 d73c dc3c 1abb 7c1f 213c b4a1 3c3b
00000050: dc93 c33c b293 7dbb d86c 01bd 7ce3 5d39
00000060: 2e1f f93c 5430 37bd 1cca db3b 759f 12bd
00000070: 41dd ec3a 074e ad3c a2ac a13c 5617 bbbc
00000080: 8beb 4a3c ef21 92bc 6f0f 933b 7473 7f3c
00000090: aa93 3e3c 2a87 3b3d ef4f 7bbc cb17 843c
000000a0: 8d14 c4bb 8eac 083d 5e09 ad3c b33c 0abd
000000b0: 6e17 06bd e435 02bd 8ab4 153d 198e 19bd
000000c0: 32ec f4bc 7a8d ab3c b5ae debc 41c9 80bb
000000d0: ad01 363c 6e9d da3a 4292 b0bc 5629 d7bc
000000e0: 16cf e9bc e777 f5bc 8713 94bc b156 a7bb
000000f0: a313 31bc b248 03bd 5a44 be3b c2dc 46bc
00000100: 964f 703c 8ab6 21bd 6223 a63b 9aa8 2a3d
00000110: 00c5 493c cca4 66bc 7f4b 173d a78c 3a3b
00000120: a2dd b9bc aefb 113d be48 d73c b5bc 093d
00000130: 21ae 063d 6197 95bb 917e 033d 6d32 dc3c
00000140: c82c 23bd 77ee d9bc 6947 f8ba cac3 563c
00000150: 8db9 06bd 4bf3 25bd 4ac5 0cbd 6cdd bfbc
00000160: 6da0 bdbb a5e8 1e3c 9823 a83c 753d bd3c
00000170: e39d 213d 46c9 f2bc f291 47bc f0bf 2b3b
00000180: 0903 f73c bfaa d7bb 4a33 c5bc d7af c2bc
00000190: b796 2dbd d1ef 303b d818 2bbc 6563 70bc
000001a0: 7fc0 69bc 988f 783c 0d07 983c 1349 a13b
000001b0: d579 b83c 47b6 c9bc cdfd ac3c 80ff bf3b
000001c0: 3f0f 563c 68eb 13bd c8c7 8abc 287d b43c
000001d0: c686 f13c 9eef b4bc abf2 b43b 59c8 5a3c
000001e0: db17 7c3c 9647 d0bc 0244 babc 50c6 a43b
000001f0: d3fd e7bc c935 0f3d ec46 63bb 4202 7b3c
-0.009522222 -0.027113682 -0.0077471733 0.0028297692 0.007256365 -0.011873411 0.020576522 0.020320604
0.03166649 0.042600337 0.00094398577 0.02822468 -0.026392287 -0.0023241001 0.020739116 0.031360015
0.026277497 -0.002353481 0.009834167 0.0028782906 0.023874216 -0.003869277 -0.031597942 0.00021160947
0.030410375 -0.044723824 0.006707443 -0.0357966 0.001807131 0.02115537 0.019735638 -0.022838276
0.012385259 -0.017838446 0.004487924 0.015591491 0.011631886 0.0457832 -0.015338882 0.016124627
-0.005983895 0.033367686 0.02112263 -0.033749294 -0.032737188 -0.031789675 0.03654913 -0.03748903
-0.029897783 0.020941485 -0.027182916 -0.0039302413 0.011108798 0.0016678998 -0.021554116 -0.026264828
-0.02854113 -0.0299644 -0.018075718 -0.00510677 -0.010807904 -0.03205175 0.005806488 -0.012137594
0.014667412 -0.039480723 0.005070136 0.041664697 0.012315035 -0.014077377 0.036937233 0.0028465183
-0.02268869 0.03564041 0.026279803 0.03362723 0.032880906 -0.004565165 0.032103125 0.026879514
-0.03983763 -0.026602967 -0.001894218 0.013108203 -0.0328918 -0.040515225 -0.034367837 -0.023421012
-0.0057869465 0.0096990215 0.020524785 0.023100594 0.039457213 -0.02963699 -0.012180792 0.0026206933
0.030152814 -0.006581634 -0.024072308 -0.023765488 -0.04238006 0.002699841 -0.010442935 -0.014672135
-0.014267086 0.015170954 0.01855805 0.004922041 0.022519032 -0.02462305 0.021117115 0.0058593154
0.013065158 -0.036113173 -0.016940966 0.022032335 0.02948321 -0.022086915 0.0055220923 0.013353431
0.015386547 -0.02542476 -0.022737507 0.0050285235 -0.028319275 0.034963403 -0.0034679724 0.0153203625

bn4.weight f4 [128]
00000000: 4ed1 a43f 6df6 b13f e742 b43f 6717 b13f
00000010: 4986 a53f af5b ae3f 1937 a73f c693 a63f
00000020: 8a4e b83f 4e77 973f 299c a63f 5a3c 993f
00000030: 1c6e ac3f c100 953f 7471 af3f b940 a13f
00000040: 98ed bb3f 75ae af3f d902 aa3f 4368 ad3f
00000050: f5e0 a73f 4514 bd3f 5242 a93f c600 a23f
00000060: 41d9 a33f e53a ae3f 04a0 c23f 492a b13f
00000070: 58e2 a13f f5b8 a33f 79e1 a63f 7754 b23f
00000080: 5712 a43f 4962 9e3f d7a3 a63f 6006 b13f
00000090: f30e a73f 1764 ab3f 3d77 b73f 1e5c a53f
000000a0: 0fb8 a33f f1d1 b33f 9e66 af3f bbf8 ba3f
000000b0: 62d4 ae3f a295 b03f 8684 963f ba02 ac3f
000000c0: 9aaa 973f f5cb b23f f40b ba3f e506 ac3f
000000d0: 0c23 943f 8cc9 a63f a841 a13f 655d ab3f
000000e0: f61e c43f 04a6 b63f cf63 b53f 3ebc a33f
000000f0: 4b98 a43f 938e 9c3f 2502 ab3f 89be ae3f
00000100: 23b1 a33f 0afb b33f 0291 a33f ad6b a33f
00000110: 5a3c a23f ce93 b23f 4f50 9a3f c771 9e3f
00000120: a5c3 b73f 497d b43f 43e4 ac3f bac4 b13f
00000130: e673 a63f fe08 bf3f b3d2 b73f 48da a33f
00000140: 4f9a ac3f f3f0 b03f 7fa6 af3f e79e b03f
00000150: 52cf ac3f 2b9c a33f cbf0 a23f 4c4a b13f
00000160: f558 bf3f caf5 a63f 5f20 a83f aa7f ad3f
00000170: c370 a33f 22b8 b43f 01d3 9e3f 9c3d ac3f
00000180: 5866 a73f 010e ac3f 28e0 c93f d2c7 ad3f
00000190: 7847 ac3f 33b5 b03f 3f41 aa3f 4074 a23f
000001a0: 060b b13f 8385 a43f 41e7 af3f 0aad ae3f
000001b0: 2c19 a93f d483 a33f 0f0c b33f 831c 9e3f
000001c0: 20b3 a93f 5f05 a23f c157 b03f bf62 bc3f
000001d0: 395f a23f 5e12 bf3f a3ba a33f cf34 9d3f
000001e0: 9ae8 9a3f a865 9e3f 732c a53f a2bf b33f
000001f0: 1172 b23f bd4e b73f df48 ad3f 892e b43f
1.2876375 1.3903328 1.4082917 1.3835267 1.2931606 1.362173 1.306369 1.3013847
1.4398968 1.1833284 1.3016406 1.1971543 1.3471103 1.1640855 1.3706498 1.2597877
1.4681883 1.3725115 1.3282119 1.3547443 1.3115526 1.4771811 1.3223364 1.2656486
1.2800676 1.3611723 1.5205083 1.384103 1.26472 1.279082 1.3037559 1.3932027
1.2818097 1.2373744 1.301875 1.383007 1.3051437 1.338992 1.4333264 1.2918737
1.2790545 1.4048444 1.3703191 1.4607157 1.3658564 1.3795664 1.1759193 1.3438332
1.1848938 1.3968493 1.4534898 1.3439604 1.1573195 1.3030257 1.2598162 1.3387877
1.5321949 1.4269414 1.4171084 1.2791822 1.2858976 1.223101 1.336003 1.3651897
1.2788433 1.4060986 1.2778628 1.2767235 1.2674668 1.3951356 1.2055758 1.2378472
1.4356581 1.4100734 1.350716 1.3888161 1.3004119 1.4924619 1.4361175 1.2800989
1.3484591 1.3823532 1.3722686 1.3798493 1.3500769 1.2782034 1.2729734 1.3850799
1.4949023 1.3043759 1.3134879 1.3554585 1.2768787 1.4118693 1.2408143 1.3456302
1.3078108 1.3441774 1.5771532 1.3576605 1.345931 1.3805298 1.3301162 1.2691727
1.3831489 1.2853245 1.3742448 1.3646557 1.3210807 1.2774606 1.3988055 1.2352451
1.325779 1.2657889 1.377678 1.4717635 1.268531 1.492748 1.2791332 1.2281741
1.2102234 1.2374773 1.290419 1.4042857 1.394106 1.4320904 1.3537863 1.4076701
