saved_models/rotate+gan+4samples.pth (torch, 537556 bytes, 26 tensors)

conv1.weight f4 [32, 1, 3, 3]
000000 43 7c 9b be 62 2c 30 ba 39 e9 6f be 5f 66 40 be
       -0.30368242 -0.0006720481 -0.23428811 -0.18789051
000010 3d b4 d4 bd 75 d5 49 be 5f 34 80 be 37 67 80 be
       -0.1038594 -0.19710334 -0.25039956 -0.25078747
000020 98 0f 3d be 0e a0 6b 3d b2 04 55 be c9 4b 06 be
       -0.1846298 0.057525687 -0.20802572 -0.13114847
000030 97 69 99 3d b9 0a 01 3d de 2b a7 be 63 58 f4 3d
       0.07490843 0.031504367 -0.32650656 0.11930921
000040 2d 31 17 be c6 5c 9e be 29 46 b8 bd 2d 7f be 3e
       -0.14764853 -0.30930156 -0.08997757 0.37206402
000050 d2 8a 8e 3e 88 ae 79 bd 55 ad f2 bd 8a e6 c3 3d
       0.27840286 -0.06095746 -0.11849467 0.09565456
000060 0d 16 90 be 6e 96 82 bd 43 51 b4 be 7e be 19 be
       -0.28141823 -0.063763484 -0.35218248 -0.15014073
000070 d6 cd a3 be d4 ec 1f be f9 a8 f1 3c bc 70 43 3e
       -0.31992978 -0.15617687 0.029499518 0.19085974
000080 2e 27 9c be 7a a7 8e 3e 9f 00 2d bd e6 04 9a 3e
       -0.30498642 0.2786215 -0.04223692 0.30081862
000090 71 a5 91 3e ea 8f 3f be a6 5c f1 bd 31 64 47 be
       0.28446534 -0.18707243 -0.117852494 -0.19471814
0000a0 c8 d1 8a be 50 72 a8 3d ca 2e bb be c9 d0 0b 3e
       -0.27113175 0.082249284 -0.36559135 0.13653864
0000b0 cf 0c fd 3d 9a 53 ad 3e d0 45 64 be cf 9b 9f be
       0.12355959 0.33852845 -0.22292256 -0.3117356
0000c0 e6 aa aa 3e e0 c1 e1 bd 10 20 aa be f6 ec 95 3e
       0.3333351 -0.11023307 -0.33227587 0.2928235
0000d0 fe 56 13 be a0 bc 55 3d db 72 6e be 4b d7 37 bd
       -0.14388654 0.05218184 -0.23286001 -0.044883054
0000e0 3b 8f 2e 3d 2a f9 86 be 68 b5 5f 3e 3c 7f 00 3e
       0.042617064 -0.26361972 0.21846545 0.12548536
0000f0 68 c9 66 3e 2e 16 d3 3d 7c 16 64 be 0a 62 d9 be
       0.22537768 0.10306965 -0.22274202 -0.4245761
000100 c6 25 a0 be df b8 a9 be 9a f0 e4 bd cd 6b 40 be
       -0.3127882 -0.33148858 -0.111787036 -0.18791123
000110 d7 ac a5 3e 65 2f 49 3e 91 25 13 be 14 b5 86 bd
       0.3235843 0.19646986 -0.14369799 -0.06577507
000120 ac ec bc bd 6e 92 a6 3e f9 b6 4a be ad 8b d2 3d
       -0.09224829 0.32533592 -0.19796361 0.10280547
000130 47 a9 df 3d d7 28 bb be 89 79 c7 bc d4 7e b1 be
       0.10920959 -0.36554596 -0.024349945 -0.34667075
000140 bf 06 80 3e 63 f0 5c be 77 fd 7f 3c e2 5f 78 3e
       0.25005147 -0.21576075 0.015624396 0.24255326
000150 ae 56 5b be 9b 55 be bd 46 54 35 3d af b1 da 3d
       -0.21419784 -0.09293672 0.044269823 0.10678422
000160 21 dd 78 be ff 5f 3d be b4 a7 5a be 44 82 39 3e
       -0.24303104 -0.18493651 -0.21353036 0.18116099
000170 ed a4 f5 bd 2a 4c c7 3e eb c9 4f bd 81 8e 40 3e
       -0.11994348 0.38925296 -0.050729673 0.18804361
000180 50 8c 92 3e f7 4e 78 3e b0 01 98 3e 5f 4b 1e 3e
       0.28622675 0.24248873 0.29688787 0.1545844
000190 69 d2 06 3e ce 6c 82 bc 08 28 30 3e 2e c4 3f 3e
       0.13166203 -0.015921023 0.1720277 0.1872718
0001a0 e9 7f 99 3e fb 6d 0e bf 09 9a d1 3c 8c 67 36 be
       0.299804 -0.55636567 0.025586145 -0.17812937
0001b0 96 e3 07 be e9 2d 23 bd 2f 2f 3a 3d c8 0c 51 be
       -0.13270411 -0.039838705 0.045455154 -0.20415032
0001c0 27 cd cf bd 9b 9e b0 3e d5 4a c4 bd 86 38 ac be
       -0.101465516 0.34496006 -0.095845856 -0.33636874
0001d0 d7 a6 07 be d7 e4 b0 3d 1e f5 d5 be 03 9f 78 be
       -0.13247238 0.08637398 -0.41788572 -0.24279408
0001e0 6b 63 84 be 7a 82 13 3e 40 82 46 3e c6 12 94 3e
       -0.258571 0.14405242 0.19385624 0.28920573
0001f0 fc 76 53 3e 08 cb b4 3c 50 2c 99 3e e7 f8 a4 3d
       0.20650858 0.02206947 0.2991662 0.08055287
000200 a2 90 94 bd b4 7b 70 be 89 00 2d 3e 5f 27 b0 be
       -0.07254149 -0.23484689 0.16894735 -0.34405038
000210 1a 31 10 3e 6e 04 f1 bd 97 f6 c8 be d0 05 9a bc
       0.14081231 -0.11768423 -0.39250633 -0.0188016
000220 22 00 02 3c 8f f4 11 be 12 84 d1 3d 16 bc 57 be
       0.007934602 -0.14253448 0.102302685 -0.21067843
000230 fa 96 4c 3e 56 c7 f2 bd fb f5 9b 3e 92 de ba be
       0.19979468 -0.118544266 0.30461106 -0.36497933
000240 9b f7 41 bd c5 c8 a2 bd 34 f1 cc 3c 60 4e 07 3d
       -0.047355276 -0.0794845 0.025017358 0.03303373
000250 d2 fe 1c be 93 56 54 3e e3 53 c2 3d 3d fc b0 be
       -0.15331581 0.2073615 0.09488656 -0.34567443
000260 c9 61 94 3d b2 05 0c be 84 aa bf bd 05 06 71 be
       0.072452135 -0.13674048 -0.09358695 -0.23537453
000270 32 7d 63 3e b1 fd 9e 3e 6b f8 24 be 00 76 bb be
       0.22215727 0.31052926 -0.16110389 -0.36613464
000280 8d f1 98 3e 89 09 03 be 91 1b 06 be ee ef 91 3e
       0.2987179 -0.12796606 -0.13096453 0.28503364
000290 60 27 b5 3d 35 2e 8a be 9e 7a c1 be 10 5b a9 be
       0.08845401 -0.26988378 -0.37788862 -0.33077288
0002a0 f1 b8 00 3e 37 84 32 3e ed 0b dc 3b c5 19 f1 ba
       0.1257055 0.17433248 0.006715289 -0.0018394521
0002b0 e2 e8 6f 3e 71 f5 57 be dd 58 70 be fe fa 49 be
       0.23428681 -0.21089722 -0.23471399 -0.19724652
0002c0 d4 79 a7 3b bc ef 9f bd 62 c9 8e 3e 8a 68 6a be
       0.0051109586 -0.078093976 0.27888018 -0.22891441
0002d0 7a ce a3 be 44 0e 93 3e c3 98 b9 3c 87 a3 02 3e
       -0.31993467 0.2872182 0.02265585 0.12757693
0002e0 80 71 d5 bc 8e fc 1b 3e 81 6a a8 3e 50 39 25 3d
       -0.026055098 0.1523306 0.32893756 0.04033786
0002f0 7c 17 48 3e 60 cd 1a be 76 e7 7f be 51 e0 df bd
       0.19540209 -0.15117407 -0.24990639 -0.10931457
000300 4e ab d8 3e 30 38 34 3e 48 21 02 3d 3b c9 90 be
       0.42318195 0.17599559 0.03177002 -0.28278527
000310 50 52 68 be 81 db a7 bc b1 5a 59 3d bb b0 24 be
       -0.2268765 -0.02049041 0.053065006 -0.16083042
000320 6c bc 85 be 4b 90 93 3e e9 4a 65 3e 16 bf 8e bd
       -0.26120317 0.28821024 0.22391857 -0.069700405
000330 e6 47 88 be 53 2c 77 3e b6 54 6f bd 41 21 91 bd
       -0.26617354 0.24138002 -0.058430396 -0.07086421
000340 1a 09 be be 49 29 eb 3d af f8 8a 3e 49 f5 00 bf
       -0.3711632 0.11482484 0.27142856 -0.50374275
000350 5e 98 e2 3d 5a 23 13 be ca be 0d be 19 36 47 be
       0.11064218 -0.14368954 -0.13842312 -0.1945423
000360 f1 dd 82 be 4f b3 35 3e 64 8f 2c 3e 6f 3e 95 3e
       -0.25559953 0.17744182 0.16851574 0.29149196
000370 f3 58 09 be 03 9a ad bc 65 1e 8b 3e cd 37 ab be
       -0.13412838 -0.021191603 0.27171627 -0.3344101
000380 c2 77 88 be ad a1 77 3e ef 5a 7c bd 35 31 b2 3d
       -0.26653868 0.24182768 -0.06161016 0.08700792
000390 13 54 80 3d 42 bc 1a 3e 51 38 88 be 2b a1 a9 be
       0.06266036 0.15110877 -0.26605466 -0.33130774
0003a0 26 ff c6 be 5b 95 36 bd 51 a9 80 3d 8d 24 94 3e
       -0.38866538 -0.04457603 0.062822945 0.28934136
0003b0 6a 67 d1 3d e5 a3 cc bc 3a bb a6 be 2b c5 3d 3e
       0.10224803 -0.024980495 -0.32564718 0.18532245
0003c0 f3 8e a0 be 20 c8 a9 bd 59 61 df 3d 8d 35 b6 be
       -0.31359062 -0.08290124 0.109072395 -0.3558773
0003d0 1e 91 83 be 13 09 6e be c3 0b 80 be b4 cd 20 be
       -0.25696653 -0.23245649 -0.25008973 -0.1570347
0003e0 e3 7d 3f be 61 4c 1a 3d 5c 85 8b bd 95 f3 a6 be
       -0.18700366 0.037670497 -0.06812546 -0.32607713
0003f0 b8 23 12 be 13 f2 8e be 43 74 d8 bb 79 4a 5c be
       -0.14271438 -0.27919063 -0.0066056564 -0.21512784

conv1.bias f4 [32]
000000 2e 10 5c be 9a ed 76 be 2e 7c 60 be 85 04 ac bd
       -0.21490547 -0.24114075 -0.21922371 -0.083992995
000010 c1 f1 26 be 85 79 49 bd 0a 92 c4 3d c9 d0 87 3d
       -0.1630316 -0.049188156 0.09598167 0.066316195
000020 e6 fb 9b 3d fc 27 dd bc 9b 47 a4 bd b8 32 8e be
       0.07616405 -0.026996605 -0.0802147 -0.2777307
000030 01 b7 74 be a9 f8 fe 3c 7c 45 16 be 35 21 5b 3e
       -0.23897935 0.03112443 -0.14674944 0.21399386
000040 fe 18 99 3e ba 53 f7 3c 9f f5 04 bd 29 74 8e be
       0.2990188 0.030191291 -0.032460805 -0.27822998
000050 40 f5 f8 bb 42 56 ba 3e e5 98 2c be f0 ea a9 be
       -0.0075975955 0.36393934 -0.168552 -0.33187056
000060 ec 9c d7 bd 8a ff 03 be b1 99 6b 3d 19 25 6c bc
       -0.10527977 -0.12890449 0.05751962 -0.014413142
000070 0d ef 89 be 87 f2 5f be df c9 1c be 6e 04 66 be
       -0.26940194 -0.2186986 -0.15311383 -0.22462627

bn1.weight f4 [32]
000000 01 5c 65 3f af 0e 84 3f d4 73 8d 3f 96 16 71 3f
       0.8959351 1.0316981 1.1050973 0.9417509
000010 6f 54 a3 3f 78 7b 8b 3f 0a 9d 7b 3f f5 1f 92 3f
       1.2760142 1.0897055 0.982865 1.1416003
000020 65 b8 7b 3f be 92 95 3f 1d 8d 04 3f 6f 2f 1c 3f
       0.9832824 1.1685407 0.5177782 0.6100988
000030 81 5c 92 3f 5a 21 89 3f 01 cc 7c 3f 80 68 87 3f
       1.143448 1.0713303 0.98748785 1.0578766
000040 f5 20 7d 3f 76 e3 94 3f a7 42 94 3f 46 7d 8a 3f
       0.98878413 1.1631916 1.1582841 1.081948
000050 40 7f f1 3e 19 09 95 3f e7 5e 48 3f 3f cd 83 3f
       0.47167397 1.1643401 0.7826981 1.0297011
000060 e9 3c 69 3f a3 25 9f 3f 85 44 78 3f 79 ec 69 3f
       0.91108567 1.2433361 0.9697955 0.91376454
000070 97 03 89 3f 28 57 9b 3f 08 16 67 3f 46 08 a0 3f
       1.070422 1.2135973 0.9026799 1.2502525

bn1.bias f4 [32]
000000 fa ce 8f be e9 46 1b be b2 07 5e 3d d9 34 8e 3e
       -0.28087598 -0.15163769 0.054206558 0.27774695
000010 5b 1c 2d bd 81 9e ce bc af b3 37 be b5 6b 50 be
       -0.04226337 -0.025222065 -0.17939638 -0.20353587
000020 66 e1 94 3d dc e8 77 be f9 b6 ee be 4b dd 99 be
       0.07269554 -0.24209923 -0.46623972 -0.30051646
000030 e5 28 4f be 2d 83 93 3e f0 42 2a be 29 49 2f be
       -0.20230444 0.28811017 -0.16627097 -0.17117752
000040 fd 2c 27 bd 3f 89 82 bd 29 76 53 3d 17 94 66 be
       -0.04081439 -0.06373834 0.05162636 -0.2251743
000050 37 26 a1 be 59 fe 7a be fb a1 72 be 40 bb 25 be
       -0.31474468 -0.24511088 -0.23694603 -0.16184711
000060 32 1a 08 be 25 4c c8 3c 9d f1 81 be ee a7 7d be
       -0.13291243 0.024450371 -0.2537965 -0.24771091
000070 ba 63 18 be 1d 7e d9 bd 5e 12 8e bd ba a4 0c be
       -0.14881793 -0.10619757 -0.06937097 -0.13734713

bn1.running_mean f4 [32]
000000 30 94 8c be 72 30 89 be bf e1 6b be 91 b3 b3 bd
       -0.27456808 -0.26794773 -0.23035334 -0.08774484
000010 cc b6 31 be a5 00 3a bd 94 39 b4 3d 42 af fe 3c
       -0.17354888 -0.04541077 0.08800045 0.031089429
000020 ce d9 89 3d f7 aa 2a bd 05 17 30 bd 65 e3 90 be
       0.06730996 -0.04166695 -0.042990703 -0.28298488
000030 ee 36 85 be a5 e2 01 3d cc de 25 be 4c a4 4e 3e
       -0.2601847 0.031710286 -0.16198272 0.20179862
000040 62 01 99 3e f3 06 a6 3b 70 2b 16 bd fc 29 97 be
       0.29883868 0.0050667464 -0.03666252 -0.2952422
000050 37 c1 96 3c 11 f1 ae 3e d0 45 38 be db 3b b5 be
       0.018402679 0.34168294 -0.17995381 -0.3539723
000060 93 99 d9 bd 4e c5 16 be 61 98 7e 3d c3 7f 97 bd
       -0.10624995 -0.14723703 0.06215704 -0.073974155
000070 bd 78 99 be 26 0d 82 be 0c 92 2e be 06 1b 7c be
       -0.29974928 -0.25400656 -0.170479 -0.24619684

bn1.running_var f4 [32]
000000 35 62 f6 3f 3e 45 24 3f 3f e3 a6 3e 5f 17 84 3e
       1.924872 0.64168155 0.3259525 0.2579908
000010 4f 0a ab 3e c4 7f fa 3e 72 a0 d2 3d ab 32 7b 3f
       0.33406302 0.48925602 0.10284509 0.9812419
000020 22 52 03 3e d6 7c 91 3e b6 0e 92 3f 69 f2 89 3e
       0.128243 0.28415555 1.141074 0.26942757
000030 e1 05 d3 3e a3 b8 81 3e e8 07 e3 3e 4d b5 5a 3d
       0.41215423 0.2533618 0.4434197 0.05339556
000040 c6 fb 92 3d 14 4b d9 3d 4b a2 6b 3e 7d f3 1a 3e
       0.07176928 0.10610023 0.23011129 0.15131946
000050 c4 8f 0e 3f 48 01 1b 3e 60 e5 be 3d 93 f0 33 3f
       0.5568812 0.15137208 0.093210936 0.7028896
000060 0a 49 35 3e b4 24 e7 3e 65 84 34 3e 69 9d 09 40
       0.17703643 0.4514519 0.1762863 2.1502326
000070 13 29 a1 3f 48 b2 65 3f eb 53 7f 3d 88 72 5c 3e
       1.259066 0.8972516 0.06233589 0.21528065

conv2.weight f4 [64, 32, 3, 3]
000000 a0 d3 e5 bd cb 76 e7 bd cd 38 ca bd 17 ca 97 3d
       -0.11222005 -0.11301955 -0.09874115 0.074115925
000010 3a 4d 2c 3e 05 04 68 bd b4 80 31 bd 19 f7 08 3e
       0.16826335 -0.05664446 -0.04333563 0.1337551
000020 c8 a1 36 3b 57 75 8d bd af ef 23 be ca 8e d3 bd
       0.0027867425 -0.069071464 -0.16009401 -0.10329969
000030 62 c3 dd 3d b6 19 7d 3d 24 53 86 3b b5 a6 54 bd
       0.10828282 0.061792098 0.0040992666 -0.051916797
000040 8d da 58 3d 39 07 f2 bc 00 f8 ca 3d 1d 39 c9 3d
       0.0529428 -0.02954446 0.099105835 0.098253466
000050 ab 67 d6 3c e1 f4 59 bc 7e f6 12 3d 81 25 34 3e
       0.02617248 -0.013303013 0.035879605 0.17592432
000060 f9 4a 69 be 1b 1e 46 be 9b 48 66 be a1 05 8d bd
       -0.22782506 -0.19347422 -0.22488634 -0.06885839
000070 0b f3 bf bd 3d 44 14 bc 4d 6f 7f 3c a2 78 12 3b
       -0.09372529 -0.009049472 0.015590501 0.0022349735
000080 e8 75 42 bd 08 05 5d 3e bc 50 2f 3e 44 08 91 3d
       -0.047475725 0.2158395 0.17120641 0.07081655
000090 0d 4c 14 3d 68 cd d8 bd 8e 33 c4 bd 2a bf 3a 3d
       0.03620534 -0.10586053 -0.09580146 0.045592465
0000a0 c9 5e ae 3d f5 ac 28 3d 85 a0 1f be fd d3 01 bc
       0.085141726 0.04118057 -0.15588577 -0.007924077
0000b0 5b 6d ab 3d 18 4e 4e bd ee 84 20 3b 98 ac 58 bc
       0.08370467 -0.050367445 0.0024493295 -0.013224743
0000c0 f4 98 9e 3d a9 ae e9 bd d3 da fb bd d5 26 50 3c
       0.07744017 -0.11410267 -0.12297597 0.012704571
0000d0 dd 52 7f 3b de 76 3f bd 86 0d 6f bd 9b 93 f7 3c
       0.0038959302 -0.04674422 -0.058362506 0.030221751
0000e0 59 0c 7d bc 7f 12 be bd 4a 9a da bd 0b e2 c0 bd
       -0.015444838 -0.092808716 -0.106739596 -0.09418114
0000f0 2d cc ac bd f0 6b 3c 3e 68 86 59 3d 07 d4 f0 bd
       -0.08437381 0.1840055 0.053106695 -0.11759191
000100 ce 28 5e be e9 49 20 be c4 d6 08 be 87 96 21 bd
       -0.21695253 -0.15653194 -0.13363177 -0.039450195
000110 4a ae 70 bd 39 ea 0f be 9b 6e 99 3d c8 03 18 3d
       -0.058759965 -0.14054193 0.074917994 0.03711298
000120 e2 14 af bc 6a c0 00 3e 5a 7c 9e bd fd d5 1a 3d
       -0.021372262 0.125734 -0.07738562 0.03780173
000130 f1 86 39 bd c4 c7 4f 3d a4 ee a5 bc 1c 5e 47 3d
       -0.045294706 0.05072762 -0.020255394 0.048673734
000140 89 67 ed bc 66 5f b8 3d 90 62 3f 3d c3 c0 62 bd
       -0.028980033 0.09002571 0.046724856 -0.055359613
000150 be 37 7d 3a b3 6a 7f 3d 11 3c 3c 3b 5e 77 f6 bd
       0.00096594903 0.062357616 0.0028722326 -0.12034486
000160 39 d9 65 be b7 5f 83 be 3e dc 14 3d 2a df e5 bc
       -0.22446145 -0.25658962 0.03634285 -0.028060514
000170 9a 73 b2 3c e1 3f a5 bc 74 f0 28 be ee d7 c0 bd
       0.021783639 -0.020172061 -0.16497976 -0.09416185
000180 95 59 79 3d 86 a7 b1 3c 42 0e 18 3d 25 7b 15 3e
       0.060876448 0.021686327 0.037122972 0.14597757
000190 77 1b 0c 3e c6 9a 4c 3e 1a 78 ef 3d 52 79 59 3d
       0.13682352 0.19980916 0.116928294 0.053094216
0001a0 3c a0 3c 3d 7b 21 13 bd 3f 50 c0 bd 76 80 d0 bd
       0.04605125 -0.0359206 -0.09390306 -0.10180752
0001b0 6c 65 81 3d 49 eb 21 3e 09 28 ec 3b da a5 17 3c
       0.06318173 0.1581241 0.007206921 0.009255851
0001c0 f6 a6 8f 3d 56 4b 1a 3d 56 35 d4 bd e7 b1 49 be
       0.07014267 0.037669502 -0.103617355 -0.1969677
0001d0 f0 94 fd bc 73 89 01 be cd bd e3 bd 31 e6 56 3d
       -0.030954808 -0.12650089 -0.11120186 0.05246562
0001e0 5f 7b 71 bb 92 e0 fa 3b 7f 23 06 bd 69 f3 26 3e
       -0.0036847217 0.0076561654 -0.032748695 0.16303791
0001f0 c7 1a eb 3d 71 3f f1 3a 89 e2 92 3d ac 7e 3f 3d
       0.11479717 0.0018405748 0.071721144 0.046751663
000200 ce a7 2a 3c 7c a2 33 3e 08 7b 72 bb 23 ba eb 3c
       0.010415984 0.17542452 -0.0036999602 0.02877528
000210 e3 7f b1 bd 6f ee 4e bd c3 d7 75 bc e2 52 be bd
       -0.086669706 -0.050520357 -0.015005055 -0.092931524
000220 64 87 0b be 7f 03 3d 3e 03 b3 86 bc 26 80 94 be
       -0.13625866 0.18458365 -0.016442781 -0.2900402
000230 be 5c 9c bd 07 e4 7d bd 58 81 67 3b a4 4a 6d bd
       -0.07634877 -0.061985042 0.0035324898 -0.05793251
000240 5c 88 a0 3d 38 e1 37 3d f4 8a 6f bc 15 c6 b5 bd
       0.078385085 0.04489252 -0.014620531 -0.08875672
000250 a7 8c 3a 3e 8c 3a af 3d 84 d4 a1 bd c0 d1 0d be
       0.18217717 0.08556089 -0.07901862 -0.13849545
000260 64 20 d6 bc 55 9d 14 be 33 bf 19 be 23 a9 eb 3d
       -0.026138492 -0.14513142 -0.15014343 0.1150687
000270 f2 e7 25 3e 68 f8 ac 3c 99 23 11 bb 18 79 b3 3c
       0.16201761 0.021114543 -0.0022146462 0.021908328
000280 2f 53 55 3d 2d 69 ae bd 5a 39 0f 3c ac 60 65 bd
       0.052081283 -0.085161544 0.008741701 -0.056000397
000290 9c 0e 7e bd 70 ba 28 3e 38 0b 0f 3e 7f 26 ff 3d
       -0.06202565 0.1647737 0.13969123 0.124585144
0002a0 c9 ba 02 be 20 6d a9 bd 10 69 51 be bd 9b 37 bd
       -0.12766565 -0.08272767 -0.20450234 -0.044826258
0002b0 02 61 3c bd 3d 0b 1f bd 32 e5 fb 3d f6 01 03 3e
       -0.04599095 -0.038829077 0.12299575 0.12793717
0002c0 8a 89 13 3d 74 ce 25 bd d3 06 e2 3d 51 fb a2 bd
       0.03601984 -0.040480092 0.11036458 -0.07958091
0002d0 8a 62 f6 3d 87 9b c5 3c 6d ff 51 3c 2a 3f 37 bd
       0.120305136 0.024122013 0.012817246 -0.044737972
0002e0 3d e3 d9 bd 83 33 b3 bd 8e a5 d2 3c 9c 56 24 bb
       -0.106390454 -0.087500595 0.025713708 -0.0025076037
0002f0 90 54 2b 3d b6 d1 92 bd ba 3b 2f be 5e 5b 49 3d
       0.041828692 -0.071689054 -0.17112628 0.0491594
000300 e4 fe a2 3d 84 a4 0a 3d 5e 58 36 be 9e f0 dd bd
       0.07958773 0.0338483 -0.17807147 -0.1083691
000310 c2 6c ca bc c4 e2 1b bd 57 55 b5 3c 93 2f b6 3c
       -0.024710063 -0.038058057 0.02213542 0.022239482
000320 14 09 0a 3e 79 92 53 3d 1a 15 d3 bd 63 f8 89 bd
       0.13480026 0.05165336 -0.10306759 -0.06736829
000330 6d c8 8d 3d b1 56 ad 3c 9a 2c 53 3d 74 6e 25 bd
       0.06922994 0.021159502 0.051556207 -0.04038854
000340 a9 fb 1a be 8c 60 44 be 98 34 24 3a 9c 89 a3 bc
       -0.15135063 -0.19177455 0.00062639406 -0.019963078
000350 c2 44 06 be c0 d5 6c bd 43 05 62 3c d5 49 44 3c
       -0.13112167 -0.057821035 0.0137952 0.011980494
000360 44 dd 34 3e 87 56 40 3d 5c 48 1d bd ce 65 1b 3d
       0.17662531 0.04695752 -0.038399085 0.037938885
000370 96 65 c7 bc 31 77 4e bd 90 6e a4 bd 68 2d 0f 3d
       -0.024340432 -0.05040664 -0.080289006 0.034955412
000380 76 93 ee bd e8 fd a4 3d 3e 77 de 3d 60 dc ff bc
       -0.1164922 0.08056241 0.108625874 -0.031233013
000390 39 7b 53 3e 6c 82 f8 ba 3f 85 b5 3c c7 fe 0a be
       0.20652474 -0.0018959767 0.022158263 -0.13573752
0003a0 47 68 01 bd a7 5f 08 3d 62 0f 79 3c 06 d8 55 3e
       -0.031593587 0.033294346 0.015201421 0.20883188
0003b0 b7 04 7a 3d fd cd b0 3c 5d 29 00 3e 84 77 1d 3e
       0.061039653 0.021582598 0.12515779 0.15377623
0003c0 66 c8 fc bd ee b3 76 be f1 20 22 bd 12 29 08 bd
       -0.123429105 -0.24092075 -0.039582197 -0.033242293
0003d0 98 db e5 bd 7b ce 10 be 6c ea 46 3d 6a b3 aa 3d
       -0.11223525 -0.14141266 0.048563406 0.08335002
0003e0 10 36 03 bd 92 06 b7 3d d7 c1 a2 3d fe 02 ac 3d
       -0.03203398 0.089368 0.07947128 0.08399008
0003f0 87 6f 13 be ae e1 c3 bd 6a 88 80 be 7d 86 35 bd
       -0.14398013 -0.09564529 -0.25104076 -0.04431771

conv2.bias f4 [64]
000000 4d 5e 90 bd c1 61 3e bd 36 9b 6d 3d 5d 96 fe bc
       -0.070492364 -0.046479944 0.05800935 -0.031077558
000010 a1 bc a5 3c b3 11 ae bc ad 94 86 3c e1 26 11 bd
       0.020231547 -0.021248674 0.016428316 -0.03543747
000020 3a 40 ca 3c f5 f6 6a 3c 4a 7d 0d 3d 5c 0c 1d bc
       0.024688829 0.014341106 0.034543313 -0.009585466
000030 14 39 76 bd 51 cf 2a 3d 9f d0 9e bb 22 da 5f bd
       -0.060113028 0.04170162 -0.004846647 -0.054651387
000040 5d 07 46 bc 69 4a 12 3d c5 bd 74 3a c4 2f 32 3a
       -0.0120867165 0.035715494 0.0009336139 0.0006797279
000050 2c 72 cd bb 03 b0 7a bd cd b8 f5 3b fc 74 62 3d
       -0.006269714 -0.061203014 0.0074988366 0.055287346
000060 07 af df 3c 02 b9 a2 bc 05 e9 2c 3d 25 d0 85 39
       0.02730514 -0.01986361 0.042214412 0.00025522817
000070 18 67 45 3d 2a 68 03 bd 72 18 e1 39 61 3b f6 b8
       0.04819402 -0.03208176 0.00042933557 -0.00011741254
000080 75 cd 9f bb e1 ff b0 bc f8 0a 64 3d 36 a3 cf ba
       -0.0048767873 -0.021606388 0.055674523 -0.0015841487
000090 77 eb 78 3d d7 88 74 bc e4 02 21 bc 32 a8 50 bd
       0.06077143 -0.014925203 -0.009827349 -0.050941654
0000a0 40 da 00 3d 02 7e 0e bd 6b 29 10 bd 6c 9d 92 bc
       0.03145814 -0.03478814 -0.03519575 -0.01789733
0000b0 a6 5b 9c 3c 18 6c 0b 3d c4 23 1c 3a 0b 56 18 3d
       0.01908667 0.034038633 0.0005956257 0.037191432
0000c0 6e b5 4c 3d d6 2c 86 3c 41 2b 97 bc 86 e7 06 bc
       0.049977712 0.016378801 -0.018453242 -0.00823391
0000d0 f7 bd 22 3b 31 ac 2f 3c 5d 1a 87 3c 4c 24 a2 3b
       0.0024832466 0.010722206 0.016492063 0.0049481746
0000e0 9e 87 da bb 66 91 5c bc 87 53 31 3c d4 81 d0 3c
       -0.006668999 -0.0134624 0.010823137 0.025452532
0000f0 46 2b 99 bc 74 b6 e6 bc e1 15 5f bd 5a 6a 48 3d
       -0.018697392 -0.028163172 -0.054464225 0.04892955

bn2.weight f4 [64]
000000 43 4e 80 3f 62 63 8b 3f 13 1f 94 3f b1 fd 7d 3f
       1.0023884 1.0889704 1.1571983 0.9921523
000010 3d d5 8f 3f 92 81 93 3f b7 b8 60 3f e4 1e 76 3f
       1.123695 1.1523917 0.8778185 0.96140885
000020 9f d6 7f 3f 7d 1c 74 3f 34 3c 6d 3f db 49 81 3f
       0.9993686 0.9535597 0.9266999 1.0100664
000030 f7 b9 1f 3f 8f d7 82 3f ee 00 85 3f 92 70 9d 3f
       0.62393135 1.0222033 1.0390909 1.2299979
000040 5e 0c 80 3f 5b d9 82 3f eb 4f 90 3f fb 80 91 3f
       1.0003774 1.0222582 1.1274389 1.1367487
000050 b8 d3 81 3f 2a fe 88 3f 99 19 9e 3f 89 e3 83 3f
       1.0142736 1.0702565 1.2351562 1.0303813
000060 e8 5d 60 3f 44 24 62 3f 2d 37 4c 3f b5 48 63 3f
       0.8764329 0.88336587 0.7977169 0.8878282
000070 48 5b 92 3f 5c 90 76 3f 5f b8 82 3f 44 4b 8a 3f
       1.1434107 0.96314025 1.0212516 1.0804219
000080 e3 1a 81 3f 83 8e 68 3f 8b dc 82 3f 84 0f 7e 3f
       1.008633 0.90842456 1.0223554 0.99242425
000090 14 74 75 3f 37 5c 91 3f 99 7d 87 3f cc 23 72 3f
       0.95880246 1.1356267 1.0585204 0.9458587
0000a0 41 d6 84 3f f8 5b 85 3f f8 c3 5e 3f 78 4e 83 3f
       1.0377885 1.0418692 0.87017775 1.0258322
0000b0 11 96 85 3f 05 d5 59 3f 7c 70 78 3f 38 ef 85 3f
       1.0436422 0.85090667 0.9704664 1.0463629
0000c0 98 8e 77 3f fc f6 85 3f 33 85 68 3f 00 c2 8f 3f
       0.96701956 1.0465999 0.90828246 1.1231079
0000d0 c8 a1 84 3f bc 42 81 3f af 77 89 3f 16 69 82 3f
       1.0361872 1.0098491 1.073965 1.018832
0000e0 93 70 41 3f 7d 08 37 3f 65 52 94 3f 41 cd 73 3f
       0.755624 0.7149733 1.1587645 0.9523507
0000f0 40 74 89 3f 49 ec 44 3f 60 ba 8f 3f 58 bd 78 3f
       1.0738602 0.7692304 1.1228752 0.97163916

bn2.bias f4 [64]
000000 64 b0 4f bc 79 37 8d bc ca ec 03 be 86 ba 34 bd
       -0.012676332 -0.017238365 -0.12883297 -0.044123195
000010 70 d2 2b be 1f 86 12 be fc 1c 9b bd bc 72 52 be
       -0.16779494 -0.14308976 -0.07573888 -0.2055158
000020 f6 e6 1c be e7 5f 0f be 1b e2 6f be 51 6d 1e be
       -0.1532248 -0.14001428 -0.23426096 -0.15471388
000030 41 e0 17 bf 47 92 7d be 1d 4e e4 bd 1b bc 07 be
       -0.5932656 -0.24762832 -0.111477114 -0.1325535
000040 3c 87 59 be 4f af 27 be 06 fc 21 be 53 6b e3 bd
       -0.21242994 -0.16375469 -0.15818796 -0.11104455
000050 35 b1 55 be 17 45 95 be 30 2d e3 bd c1 2f 55 be
       -0.2086838 -0.29154274 -0.11092603 -0.20818998
000060 49 75 da be 2d 55 ed bd c9 27 f0 be 9e e2 7f be
       -0.42667606 -0.115885116 -0.46905354 -0.24988791
000070 ab bc a1 3d 47 2b 3c be 7e 90 a0 be 1f 10 33 be
       0.07897314 -0.18375884 -0.3136024 -0.17486618
000080 a2 a1 89 bc ae f2 a6 bd bb 80 0a be 03 8a 52 3d
       -0.016800705 -0.08151756 -0.1352567 0.05140115
000090 47 23 d3 bd b4 51 00 be 71 e7 a5 be cd 5e 91 be
       -0.10309463 -0.12531167 -0.32403138 -0.2839264
0000a0 5b 60 1f be 00 24 78 be 0f 10 23 be a5 fe ed bd
       -0.155641 -0.24232483 -0.15924095 -0.11620835
0000b0 e3 4c 33 be 76 4f 6f be c8 82 1c be f2 31 eb bd
       -0.17509799 -0.23370156 -0.15284264 -0.11484136
0000c0 c9 d4 6e bd 47 c2 0c bd 9e e4 65 bd 73 1e 34 be
       -0.058308396 -0.034364965 -0.05612623 -0.1758974
0000d0 17 d9 2b be 70 89 28 be 3b 13 42 be 70 62 32 be
       -0.16782032 -0.16458678 -0.18952648 -0.17420363
0000e0 92 04 a6 be bc 05 00 bf d2 bf 46 be e7 cd bb bd
       -0.32425362 -0.5000875 -0.19409111 -0.09170132
0000f0 6b 85 e3 bd f4 64 6f be 75 c4 10 be dc 91 a2 3d
       -0.11109432 -0.23378354 -0.14137442 0.07937977

bn2.running_mean f4 [64]
000000 85 35 63 bf 31 99 a0 be 44 3f 07 c0 c4 32 e9 bf
       -0.8875354 -0.31366876 -2.1132364 -1.8218617
000010 d0 db 1f bf 68 0f ca be f6 04 f0 bf 14 cd 17 c0
       -0.6244478 -0.3946488 -1.8751514 -2.371892
000020 e5 bd 05 c0 d8 17 e9 3f 1a a2 17 bf 0e 27 e7 bf
       -2.0897152 1.8210402 -0.5923172 -1.8058794
000030 0b dc d4 3e df 30 1e c0 e4 12 de bf b6 79 50 bd
       0.4157413 -2.4717329 -1.7349515 -0.050897323
000040 70 69 8d be 74 7a 98 bf 72 9c b3 be c5 92 60 be
       -0.27619505 -1.191237 -0.35080296 -0.21930988
000050 37 bc 08 c0 69 f4 0c 3e e4 07 1b 3f 96 b2 00 bf
       -2.1364877 0.1376511 0.60558915 -0.502725
000060 50 dc 16 bf b9 65 b7 bf 9c 2d 0e 3f 71 f8 05 bf
       -0.5892992 -1.4327918 0.55538344 -0.52332217
000070 3e 0d da 3e b0 98 fc bf 0e 4d b9 bf d7 e6 1e c0
       0.42588228 -1.9734097 -1.447664 -2.4828393
000080 8b 0e c6 3d d9 00 88 bf 3a d1 18 c0 57 dc 1a c0
       0.096707426 -1.0625259 -2.3877702 -2.4196985
000090 0a 2b 6c bf ef 44 27 bf 32 cc d3 bf dd d8 0d c0
       -0.9225317 -0.6533956 -1.654669 -2.2163613
0000a0 ca 3d 1a be 6c 68 97 bf af 2e 97 bf 65 73 ae bf
       -0.15062633 -1.1828742 -1.1811122 -1.3628966
0000b0 11 94 a8 bf 41 db 52 c0 0a a1 90 bf bc 0a cb bf
       -1.3170186 -3.2946322 -1.1299145 -1.5862651
0000c0 be 93 1c c0 8c c1 bd bf e9 e3 c9 bf 3d 40 97 3f
       -2.4465175 -1.4824691 -1.5772678 1.1816479
0000d0 6d 55 94 bf 57 28 f5 bf 69 22 93 bf e3 ef bb bf
       -1.158857 -1.9152936 -1.1494876 -1.4682583
0000e0 dc fb 3d c0 72 4e 1e c0 40 2a 31 bf 0d 8a 0e c0
       -2.9684973 -2.473538 -0.69205093 -2.227176
0000f0 26 c3 b5 bf c1 90 32 c0 27 7a b8 3e f5 aa bf bf
       -1.420018 -2.790085 0.36030695 -1.4974047

bn2.running_var f4 [64]
000000 7e bc b1 40 23 08 a2 40 d7 92 18 40 c1 90 08 40
       5.5542593 5.0634933 2.3839624 2.133835
000010 e3 b1 9b 40 5a 64 9a 40 07 7c f8 40 9e 46 b7 40
       4.8654647 4.82475 7.76514 5.7273703
000020 31 17 29 40 9c 87 2f 40 a7 bb ab 3f 63 72 e7 3f
       2.6420405 2.742652 1.3416642 1.8081783
000030 37 1c 0f 40 b1 cd 46 40 8a 15 c5 40 3c a9 ea 40
       2.236097 3.1063044 6.1588793 7.3331585
000040 0a 53 4e 40 fa 3f 47 40 7b db a4 40 78 ba 70 40
       3.2238183 3.1132798 5.151792 3.7613811
000050 02 bb 34 40 92 fb 95 40 6d 7e 6d 40 08 e0 1d 40
       2.823914 4.6869593 3.7108414 2.4667988
000060 fa eb 23 40 df ef 31 40 7b 34 81 40 93 f7 6f 40
       2.5612779 2.7802656 4.0376563 3.7494857
000070 23 a0 94 40 95 b0 42 40 d7 f7 91 40 a7 e0 cb 40
       4.644548 3.0420277 4.561504 6.3711734
000080 ca 8c 26 40 89 e6 b8 40 db e9 a5 40 c8 fc 7b 40
       2.602343 5.7781415 5.184797 3.9373035
000090 78 cb 69 40 ab f1 2b 40 1e 33 51 40 29 8c f9 3f
       3.6530437 2.6866252 3.268745 1.9495898
0000a0 e6 45 58 40 3d 58 c2 3f 54 a9 65 40 7d 35 0e 40
       3.3792663 1.5183178 3.58846 2.2220147
0000b0 59 3e 7e 40 93 81 f6 3f d7 66 8b 40 d2 50 1d 40
       3.9725554 1.9258293 4.3563037 2.4580579
0000c0 08 a3 59 40 6f 21 76 40 1d 2d 2d 40 06 29 60 40
       3.4005756 3.8457906 2.7058785 3.5025039
0000d0 ee 15 72 40 7e 13 a2 40 71 11 ca 40 86 b7 50 40
       3.7825885 5.0648794 6.314629 3.2612014
0000e0 64 83 0d 40 0f ff 0d 40 7a c7 91 40 ac 67 65 40
       2.2111444 2.2186925 4.5556 3.5844526
0000f0 a9 50 26 40 fc 7d 80 40 66 ba 30 40 d5 9d 91 40
       2.598673 4.015379 2.7613769 4.5505166

conv3.weight f4 [64, 64, 3, 3]
000000 19 0c 44 3d d0 d7 5c 3d f1 0d 77 3d 83 55 20 3b
       0.0478631 0.053916752 0.06031603 0.0024465031
000010 4f 42 41 bd 1a a5 5e 3b e4 5a c2 3d 42 59 8f 3d
       -0.047182377 0.003397292 0.09489992 0.069994465
000020 0a 49 12 3d bc 23 f0 3c d8 b8 e7 bd 4b 25 ff 3c
       0.035714187 0.029313914 -0.11314553 0.031145712
000030 b4 90 04 be bb 3b 83 3d 04 c3 b3 3d de 2a fd 3c
       -0.12945825 0.06407877 0.08777431 0.03090423
000040 62 c5 d2 3a 18 52 38 3e 61 7d 28 be ed ba 77 3d
       0.0016080553 0.18000066 -0.16454078 0.060481
000050 21 d4 8c 3d 7e ba a7 3d 58 f8 80 bc be c9 da bd
       0.06876398 0.081898674 -0.01574342 -0.106830105
000060 98 5b 7e 3d c7 65 a9 3c f4 71 39 3d 98 d0 df bc
       0.06209907 0.020678414 0.04527469 -0.027321145
000070 e4 d1 98 3d 3f 3c 7f 3e a2 5a 8c 3d 64 d6 2c be
       0.074619085 0.24925326 0.06853224 -0.16878659
000080 dc 98 75 bd d2 9f 80 3c 00 a1 f1 3c a3 22 05 bc
       -0.05996023 0.015701208 0.029495716 -0.008125934
000090 ea 34 2c 3e ee 87 7c bd 7c a4 99 bc 67 93 91 bc
       0.1681706 -0.06165307 -0.01875519 -0.017770482
0000a0 c1 b2 6e 3d fe cf 17 3e 70 60 ef bc 8a c9 40 bd
       0.05827594 0.14825436 -0.02922079 -0.047067203
0000b0 56 7c 35 bd f4 9b a1 bc 21 f6 69 bd 57 b0 6f 3a
       -0.04430803 -0.019727685 -0.057119492 0.0009143403
0000c0 cd 4d 08 3d 7c c8 ce 3d df d5 1b 3e 67 cc b3 3c
       0.03327732 0.10096833 0.15218304 0.021948053
0000d0 8b 6e 95 3d f2 66 76 be ce 03 ab b9 2f 10 c7 3d
       0.07296475 -0.24062708 -0.00032618496 0.09719884
0000e0 72 9b a1 3d 0d e4 b1 bd 3c a7 bc bd 6b b5 80 bd
       0.07890977 -0.08686075 -0.09211585 -0.06284603
0000f0 8f e8 67 bd 76 99 e4 bc 89 d2 3e bd dc fe 06 be
       -0.05661827 -0.027905207 -0.0465875 -0.13183159
000100 e3 94 ff bd 34 73 f6 3b 7a 92 23 3d 00 b6 1a 3d
       -0.1247957 0.0075210575 0.039934613 0.037771225
000110 bc ad a2 bc 36 85 72 bd 7a 52 5d bd 51 9b 0e 3e
       -0.019858234 -0.05920907 -0.054033734 0.13926436
000120 da b3 59 3c 0a a0 85 bd 89 9d 0f be 99 53 fb bd
       0.013287509 -0.06524666 -0.14024939 -0.12271804
000130 4c be 2a 3d d4 9a d7 3d 86 cf ae 3d 0c 17 8a bd
       0.041685387 0.10527578 0.08535676 -0.06742677
000140 bc ca f5 bd 91 27 75 3b cb ab 1a bd 9c 26 5a bd
       -0.12001559 0.0037407617 -0.03776149 -0.053259477
000150 58 70 39 3b 17 5c 4c 3d 14 3c 77 3d 0a 22 3e 3d
       0.0028295722 0.04989251 0.06036003 0.04641918
000160 67 33 9c bd fd fa a5 3d 26 5e 0d 3d 47 39 76 bd
       -0.07626992 0.08104513 0.034513615 -0.060113218
000170 fe 47 28 bd df 9d f8 bd 7c b5 cc bd f4 4d 0d bd
       -0.041084282 -0.121394865 -0.09995553 -0.03449817
000180 6c ad 8f 3d 3c e8 f4 3c 6b 1b 7b 3c 11 18 a2 bd
       0.070154995 0.029895894 0.015326361 -0.079147466
000190 43 0e 05 bd e6 0c 3a bd 14 1e ea 3c 9a 5d d1 ba
       -0.032484304 -0.045422457 0.028578795 -0.001597333
0001a0 36 32 21 bd 74 3e fd bd e1 4f a3 3d cc a0 c9 3a
       -0.039354526 -0.123654276 0.0797422 0.0015383004
0001b0 9a 5a 69 3d 4d 3f 30 bc 2f 65 02 be da 23 e0 bc
       0.05697117 -0.01075728 -0.12733911 -0.027360845
0001c0 c4 e3 b4 bd cb 8f 2d be 92 06 96 3b 74 97 69 3d
       -0.08832505 -0.16949384 0.00457842 0.057029203
0001d0 f3 7e 41 bd 82 da e6 3d 01 35 fa 3d 72 c2 ae 3d
       -0.04724021 0.11272146 0.12217141 0.08533181
0001e0 b9 4f 0e 3e 65 00 27 be 51 94 3f be e3 7b 32 be
       0.138976 -0.16308744 -0.18708922 -0.17430072
0001f0 f7 d0 76 bd 5d ad 58 bd 92 ee e1 bd 08 df 46 bd
       -0.06025788 -0.052899707 -0.11031832 -0.048552543
000200 25 7d 8b bd bf 4a 4d 3d 3d 21 b5 3d c6 85 83 3c
       -0.06810979 0.05012011 0.0884423 0.016055
000210 6e 88 26 3c c2 f6 e3 3d ef f0 76 bd d5 00 b6 3c
       0.010164363 0.1113105 -0.060288366 0.022217194
000220 8e 69 e9 bb 3b ef e3 3e 6a bc 1d 3d 15 a3 57 3e
       -0.007123179 0.44518456 0.038509764 0.21058305
000230 04 2a bc 3d df a6 d7 3d 04 ed 59 bd 77 e8 8f 3d
       0.09187701 0.10529875 -0.05320455 0.07026761
000240 e7 95 ae 3d 42 6d 71 3d fe cd 2e 3d 86 2d bc bb
       0.08524685 0.058942087 0.04267692 -0.0057427315
000250 67 a2 ed bd a7 b7 05 be 7d c8 50 be a7 6c 6f 3d
       -0.116032414 -0.13058339 -0.2038898 0.05845323
000260 f1 a3 f7 bc 50 cb 1c bd e9 05 2f 3d c1 33 5b be
       -0.03022954 -0.03827983 0.042730246 -0.21406461
000270 36 c0 d6 bc 72 96 08 3e c2 54 63 bd b2 aa b6 3d
       -0.0262147 0.1333864 -0.055500753 0.08919276
000280 21 c1 3b 39 ff 51 66 3d 82 64 21 3d 81 92 aa 3c
       0.00017905656 0.05623054 0.039402492 0.020821812
000290 9a d8 71 3e 48 9e 2a 3e f1 59 8f bd b6 64 a0 bd
       0.23617783 0.16661942 -0.06999577 -0.07831709
0002a0 d3 0b 41 bb 09 12 58 be 8e e7 c5 3d 82 65 47 bc
       -0.002945651 -0.2110063 0.09663306 -0.012170197
0002b0 55 65 f5 3d 9a d8 92 3e 44 51 5f 3d 94 4f f5 bc
       0.11982218 0.2868088 0.05452086 -0.029945172
0002c0 26 a5 1b 3d 8f 90 7a bd 6e c2 dc bd 40 28 51 37
       0.037999295 -0.061173018 -0.10779272 1.2466742e-05
0002d0 b2 7c a8 bc 6b ea 67 bc 8c 30 e1 3c 03 bd 49 bd
       -0.020567272 -0.014155011 0.02748897 -0.04925252
0002e0 f4 c9 54 bd 34 68 12 be c4 82 45 be b3 ff 0f bd
       -0.05195041 -0.14297563 -0.19288164 -0.035155963
0002f0 67 93 18 3d bc 6a b7 3c 30 ca aa bc e9 92 02 be
       0.03724995 0.022389762 -0.020848364 -0.12751354
000300 5a 1f 26 3d f9 58 de bd 04 a0 d5 3c 04 a9 e7 3b
       0.040557243 -0.10856814 0.026077278 0.007069709
000310 33 d7 63 bd 5a 1e f6 3d 8e c2 5a 3e 35 a1 0c be
       -0.05562515 0.12017508 0.21363279 -0.1373337
000320 43 a6 1c be 6c 7c ef bc a2 44 91 be 40 71 bc 38
       -0.15297799 -0.029234134 -0.28372675 8.985633e-05
000330 d3 70 ac 3d 2f 11 d9 bc e7 7c 52 3d 4b a6 1d be
       0.08419957 -0.026497452 0.051388647 -0.15395467
000340 04 6b 23 bc 06 4f 0a be 20 eb 2f 3c 2f 6f aa 3d
       -0.009974245 -0.13506708 0.0107372105 0.08321988
000350 81 06 5d bd 5b 70 61 bc ef 74 03 bc ca 88 b3 bc
       -0.05396128 -0.013759698 -0.008023485 -0.021915812
000360 3a f6 5d 3e 10 61 ad bd 61 95 5b bc 8f ce 0d bd
       0.21675959 -0.08465779 -0.013402314 -0.034620818
000370 89 f7 13 3d 2f 03 c5 bd 34 82 03 3e 8e 7f a8 bd
       0.03612474 -0.09619748 0.12842637 -0.08227454
000380 7d a7 e3 bd 4f e7 b7 bd 26 b3 ea bd 7f cb 0f bd
       -0.1111593 -0.089796655 -0.11459951 -0.03510618
000390 19 b8 91 3d 0e 68 7a 3d f5 b6 48 bb 27 a1 0f 3d
       0.07115192 0.06113439 -0.003062663 0.035065796
0003a0 16 66 44 bc 0c 20 37 3d 8c c6 ba 3d 61 73 c7 3d
       -0.01198723 0.044708297 0.09119901 0.09738804
0003b0 f7 e1 17 bb 6c 2e ab bb 75 a5 8d bd 11 13 e6 bd
       -0.0023175457 -0.00522404 -0.06916324 -0.112341054
0003c0 9f 52 4e 3d 62 df ce 3c 3e 8f 08 be 15 2c 85 bc
       0.050371762 0.025253002 -0.13335893 -0.016256372
0003d0 51 7c 58 be 77 c8 03 be 29 f1 ea 3c 9b aa 8e 3c
       -0.21141173 -0.1286944 0.028679447 0.017415335
0003e0 a1 f4 90 3c 35 35 f1 3c 6f 5e 4e 3d d7 8c 8c 3d
       0.017694773 0.029444316 0.050383028 0.068628006
0003f0 fe 8a 47 3e 3b 56 86 3d 46 69 e7 bc e5 13 9b bd
       0.19486615 0.06559416 -0.02824844 -0.07572154

conv3.bias f4 [64]
000000 78 0e a7 bc cd b6 8c ba d1 68 61 bb 93 7b ac bc
       -0.020392641 -0.0010735631 -0.003439475 -0.021055019
000010 5b 1f 88 ba 87 7e 11 3a 09 19 35 bb ca fa 90 3c
       -0.0010385321 0.0005550165 -0.002763333 0.01769771
000020 e8 49 e9 bc 54 d1 db 3c 7a 1c ce ba 28 cc 14 bd
       -0.028477624 0.026833214 -0.0015725039 -0.03632751
000030 f3 f8 58 bc 01 b6 19 bc 70 69 04 bd ee 2c 58 3c
       -0.013242948 -0.009381772 -0.032327116 0.013194306
000040 bb 22 da 3c 59 15 3b 3d cf 79 8f bc 3c 50 de bc
       0.026627889 0.045674656 -0.017514138 -0.027137868
000050 8a 4d 13 3d da 89 9c bb ae 0e fe 3c 68 9b 63 bc
       0.03596262 -0.0047771754 0.03101286 -0.013892032
000060 99 a9 2a bb 8c 47 d4 3c ad 68 0a 3d dd 70 e2 3c
       -0.002604103 0.025913022 0.033791233 0.027641708
000070 ac 25 e2 3c bf 5f b8 3c 4a 00 2d bd d0 5f db 3c
       0.027605854 0.022506593 -0.042236604 0.026779085
000080 22 30 5d 3c 65 91 b4 bb 90 8a 24 bd 54 fc 51 3c
       0.013500245 -0.0055104964 -0.040171206 0.012816507
000090 0c 98 92 bc 79 45 c5 bc 2e b0 00 3d 34 0e 06 3d
       -0.017894767 -0.024080979 0.031418018 0.03272839
0000a0 1e 9f fa bc 87 a1 89 3c 1f a8 76 3b 36 1b 33 bb
       -0.030593451 0.016800655 0.003763683 -0.0027329451
0000b0 58 a2 85 3c 18 b0 24 3c 22 93 99 3c b7 21 99 3b
       0.016312763 0.01005175 0.018746916 0.0046732086
0000c0 a4 b2 07 3c 59 50 92 bc 40 6a 7a 3b 6e 2d 99 3c
       0.008282337 -0.017860578 0.0038210303 0.01869842
0000d0 5c 94 93 bb 46 b5 83 3c 6d 55 d1 bc df d1 da bc
       -0.00450377 0.016077649 -0.02555343 -0.026711402
0000e0 09 cf 15 bd 39 12 97 bb ca 07 90 3c 89 16 f5 3c
       -0.036574397 -0.0046103266 0.01758184 0.029917972
0000f0 11 bd a2 ba 3b f0 1c bc d5 4d fe bc 4d 47 f7 3c
       -0.0012415965 -0.00957876 -0.031042973 0.030185366

bn3.weight f4 [64]
000000 c2 1f 6c 3f 6b 5e 8f 3f 22 fd 75 3f e2 ad 87 3f
       0.9223596 1.1200689 0.96089375 1.059994
000010 87 5e 70 3f 5b 7d 6d 3f fa e5 61 3f 9a fc 7b 3f
       0.9389424 0.927694 0.8824154 0.98432314
000020 1c 98 8b 3f a4 da 87 3f f3 4c 42 3f 27 5f 56 3f
       1.0905795 1.0613599 0.75898665 0.8373894
000030 03 51 7d 3f a2 2d 89 3f 2e 83 76 3f 5e fb 83 3f
       0.9895174 1.0717051 0.96293914 1.0311086
000040 08 7e 76 3f a8 8f 8a 3f 23 28 6d 3f f5 13 5b 3f
       0.9628606 1.082509 0.9263937 0.85577327
000050 2d 07 86 3f e8 9b 89 3f 6f 7f 96 3f ea 88 4c 3f
       1.047094 1.0750704 1.175764 0.79896414
000060 28 c4 51 3f fc f2 60 3f 00 05 84 3f 45 fe 74 3f
       0.81939936 0.87870765 1.0314026 0.95700485
000070 e5 93 5b 3f 00 0d 60 3f ae 83 5c 3f 86 6c 91 3f
       0.85772544 0.87519836 0.8613843 1.1361244
000080 82 7e 43 3f 82 e0 87 3f d8 f2 76 3f 76 e3 91 3f
       0.7636491 1.0615389 0.964643 1.139754
000090 a8 d4 8c 3f 41 10 7e 3f 20 cc 8d 3f ef 8c 67 3f
       1.1002398 0.9924355 1.1077919 0.9044942
0000a0 59 74 7a 3f 3b cf 80 3f 95 95 8c 3f 3b 8b 73 3f
       0.9783378 1.0063242 1.0983149 0.95134324
0000b0 27 9f 91 3f ad 01 7e 3f e3 52 8b 3f f4 62 88 3f
       1.1376694 0.9922131 1.088467 1.0655198
0000c0 6e 43 96 3f 39 14 87 3f 9f 67 70 3f b2 09 8e 3f
       1.1739328 1.0553046 0.93908113 1.1096709
0000d0 c8 e3 88 3f 26 8f 65 3f 38 74 89 3f 49 25 8c 3f
       1.0694513 0.8967155 1.0738592 1.0948879
0000e0 5c 8f 6f 3f 73 2e 78 3f e6 34 57 3f 24 36 6e 3f
       0.93578124 0.96945876 0.8406509 0.9305136
0000f0 2e d3 5e 3f 36 cc 91 3f 7c ef 84 3f c8 1c 95 3f
       0.87040985 1.1390445 1.0385585 1.1649408

bn3.bias f4 [64]
000000 14 2a 68 bd 51 37 b3 be 66 8c 74 be c7 fd ca bd
       -0.056680754 -0.3500314 -0.23881683 -0.099116854
000010 60 49 58 be a3 b5 78 bd 0f 31 31 be ff 62 f5 bd
       -0.2112174 -0.060720097 -0.1730387 -0.11981773
000020 df c5 82 be 03 96 dc 3b 06 b0 37 be b7 95 4b be
       -0.2554159 0.00673175 -0.17938241 -0.1988133
000030 4e 79 22 be 8a eb 3f be 2c df a1 bc f7 b4 73 be
       -0.15866587 -0.18742195 -0.019759737 -0.23799501
000040 80 c1 38 be 2c 91 bf bd 89 56 81 be 6b 7d 29 be
       -0.18042564 -0.09353861 -0.25261334 -0.1655175
000050 2a f3 1b be d6 af 3a be cc 67 bc bd 25 3b d6 bd
       -0.15229478 -0.18231139 -0.09199485 -0.104605
000060 60 45 0f be 07 5d 3c be b1 af 0a be 46 84 45 be
       -0.13991308 -0.18394862 -0.13543583 -0.1928874
000070 14 65 89 be 8d 53 26 be dc 9e 4e be 9a d2 9c bd
       -0.2683493 -0.1624281 -0.20177788 -0.076573566
000080 93 a9 03 be 66 75 31 be d7 f2 d5 be d0 ab 2e be
       -0.12857656 -0.1732994 -0.41786835 -0.17057729
000090 b6 0c 3b be 13 c0 f6 bd 8b 4b 27 be 70 07 80 be
       -0.18266568 -0.12048354 -0.16337411 -0.25005674
0000a0 6d 96 b5 bd e0 19 42 be f4 75 cf bd 42 a8 c5 bd
       -0.08866582 -0.18955183 -0.1012992 -0.09651233
0000b0 bb cb 93 3c 26 08 c1 bd 35 a4 4f be e9 54 e1 3c
       0.018041482 -0.09425382 -0.20277484 0.027506309
0000c0 c4 4e a5 be 91 c6 3f be 56 a7 47 bd ae 2c da bc
       -0.32286656 -0.18728091 -0.04874357 -0.026632633
0000d0 08 83 f6 bd d0 f9 e2 3d 92 d4 2a be 58 bc 7f be
       -0.12036711 0.11082804 -0.16682652 -0.24974191
0000e0 be b8 06 be 5c ba 0e be 76 1b 99 bd c0 b4 09 be
       -0.13156411 -0.13938278 -0.07475941 -0.13447857
0000f0 2d be 6e be dd c8 22 be ec ab be bd 12 4f a8 be
       -0.23314734 -0.15896936 -0.09310135 -0.32872826

bn3.running_mean f4 [64]
000000 96 55 41 3d ab b4 26 bf 03 11 86 bf c9 38 84 bf
       0.04720076 -0.6511943 -1.0473942 -1.032983
000010 0b a9 91 c0 30 db 88 c0 98 82 1a c0 70 a1 86 c0
       -4.551885 -4.2767563 -2.4142208 -4.2072067
000020 65 18 8c bf d2 9e c2 c0 1b 5d 9c 3f a9 8e 60 bf
       -1.0944945 -6.0818872 1.2215914 -0.8771768
000030 61 8b cd bf 12 d7 28 c0 a2 e3 8f c0 4b 31 3b 3d
       -1.605816 -2.6381269 -4.496537 0.045701306
000040 b8 ef 78 c0 64 c0 28 c0 8e bf 93 c0 bd d4 25 40
       -3.8896313 -2.6367426 -4.617133 2.5911095
000050 5e 6f c1 bf 18 24 68 c0 a7 59 01 c0 90 ff 75 c0
       -1.5112112 -3.627203 -2.021097 -3.8437233
000060 0d d5 e2 bf 71 a9 9e be 88 d5 9a c0 af a4 af be
       -1.7721268 -0.3098865 -4.838566 -0.3430533
000070 89 c3 71 40 9b bc e6 bf 6a f6 2a 40 a1 b9 1b c0
       3.7775595 -1.8026308 2.67129 -2.433205
000080 9b 64 16 bf a9 20 b9 bf 8d 43 94 be b0 4d 99 3f
       -0.5874726 -1.4463092 -0.28957787 1.1976833
000090 06 50 7a 40 5e 64 54 c0 12 cb 78 bf 6c 5e 2d bf
       3.9111342 -3.318626 -0.9718486 -0.677222
0000a0 13 51 02 bf 3d 07 f6 bf c4 a2 a5 c0 c7 af 90 3f
       -0.5090496 -1.9220959 -5.176119 1.1303643
0000b0 c2 e6 d7 c0 cd a5 6c 3f fa 1a d9 bf ef ce ae be
       -6.7469187 0.9244049 -1.6961358 -0.34142253
0000c0 f6 7e c0 bf 1c 86 76 c0 ea 69 17 bf 2c 56 0c 40
       -1.5038745 -3.8519354 -0.5914599 2.1927595
0000d0 10 1c 89 bf ff e0 32 bf 51 2c 0e c0 d0 df 94 c0
       -1.0711689 -0.69874567 -2.2214549 -4.652321
0000e0 29 a7 e0 c0 ca fa 0d c0 7a 15 8a 3e 50 b9 2d be
       -7.0204053 -2.218432 0.2696951 -0.16965222
0000f0 b8 70 b5 3f 1c f3 c2 bd 19 3b b6 c0 2e d6 00 c0
       1.4175024 -0.09519026 -5.694714 -2.0130725

bn3.running_var f4 [64]
000000 3d c6 1a 41 ef 8c 57 41 75 8d 0f 41 9b 83 16 41
       9.673398 13.471908 8.972035 9.40713
000010 bb c9 a5 41 58 ae 58 41 2c 6a 30 41 58 3a 07 41
       20.723501 13.542564 11.025921 8.451744
000020 36 aa 2c 41 37 cd ae 41 15 01 2d 41 ea 36 4d 41
       10.791555 21.850203 10.812764 12.825907
000030 5a 8e 37 41 5b a9 30 41 7a 91 91 41 85 b1 29 41
       11.472254 11.041347 18.196033 10.60584
000040 c6 bd 5a 41 a6 76 07 41 b4 d6 7d 41 ff c9 1e 41
       13.671331 8.466467 15.864918 9.924315
000050 ee 87 42 41 fb ae 71 41 8e d3 13 41 6e 81 2f 41
       12.158186 15.10522 9.239149 10.969099
000060 fb 94 06 41 56 50 58 41 cb 9b 34 41 e6 3b 31 41
       8.411372 13.519613 11.288035 11.077124
000070 29 0e 4a 41 08 f0 01 41 17 50 35 41 7c 42 8e 41
       12.628457 8.121101 11.332053 17.782463
000080 82 a0 fd 40 d5 25 4d 41 0c a4 16 41 94 44 3a 41
       7.9258432 12.821736 9.4150505 11.641743
000090 a1 79 0a 41 b6 3d 1e 41 a6 9b 9c 41 6a a7 10 41
       8.654695 9.890066 19.576 9.040873
0000a0 da e9 0a 41 26 cd 95 41 cd 60 dd 41 60 0e 21 41
       8.682093 18.72517 27.672266 10.0660095
0000b0 51 29 b2 41 34 91 29 41 a4 82 3f 41 75 67 4f 41
       22.270174 10.59795 11.969395 12.962758
0000c0 7c 7c 1f 41 9b a3 91 41 ca 9d fe 40 4e ae 10 41
       9.967892 18.204885 7.9567614 9.042555
0000d0 af 59 56 41 01 2d fd 40 5a df 3c 41 20 c4 1d 41
       13.396895 7.9117436 11.804529 9.860382
0000e0 3e 12 a5 41 80 de 25 41 28 d8 0c 41 42 4e 4c 41
       20.633907 10.366821 8.8027725 12.769106
0000f0 73 19 46 41 23 78 50 41 a2 4a a8 41 d4 8f 1f 41
       12.381213 13.02933 21.036442 9.972614

fc1.weight f4 [128, 576]
000000 dc 4e cd 3d 1b bc 48 3c 08 e9 b3 bd 1d 22 9b bd
       0.10024807 0.012251879 -0.087846816 -0.07574866
000010 44 06 82 be 15 db 8f 3d 88 58 5b bc 91 21 03 3e
       -0.25395405 0.070242085 -0.013387807 0.12805773
000020 57 c6 77 bb d9 a1 fb bd be 98 9b bc 6f 50 ac bd
       -0.0037807429 -0.12286729 -0.018993732 -0.08413779
000030 3a e2 1b 3e dc f1 ea bd c2 25 0a bd 73 bc c7 bd
       0.15223017 -0.11471912 -0.033727415 -0.09752741
000040 26 78 87 bc 47 82 c9 bd 49 e6 da 3d 20 f1 22 39
       -0.016536783 -0.098393016 0.10688455 0.0001553935
000050 2e 3b 2b 3e 79 73 25 bd 5c 83 b8 bb 95 77 85 bd
       0.16721794 -0.040393326 -0.0056308936 -0.06516949
000060 09 ac 21 3d 62 05 7a 3c 25 c2 5d bc 25 4a 14 bd
       0.039470706 0.015260072 -0.013535057 -0.036203522
000070 19 77 24 bb bf a4 fb 3d 0c 6c 8a 3c d2 19 11 be
       -0.0025095402 0.12287282 0.016897224 -0.14170006
000080 7d 67 a8 bd 8e 27 c6 3d da 41 4c bd 1a c8 7d 3d
       -0.08222864 0.09675513 -0.04986749 0.06195841
000090 f2 3b 68 bd 1c 4a d3 3d 39 8e 63 3d c6 4c 1c be
       -0.056697793 0.103168696 0.055555556 -0.15263662
0000a0 f2 27 0d be c4 ba 63 3d 45 e3 da 3d 47 3c 17 3d
       -0.13784769 0.055598035 0.106878795 0.03692272
0000b0 3f 7e d1 3d 76 85 96 3d bc df dd ba 18 25 b1 bc
       0.10229158 0.073496744 -0.001692764 -0.021624133
0000c0 94 64 8e 3d f7 69 bb 3d d1 cd 61 bd 97 54 ba bd
       0.069527775 0.091510706 -0.055127922 -0.090981655
0000d0 3f 9d 23 3d 19 04 00 bd d0 eb 4b bd ce c6 66 3d
       0.039944883 -0.031253908 -0.049785435 0.05634194
0000e0 d2 4a a6 3d 06 96 10 be 3d 20 45 bc 1b 0f 43 bd
       0.081197396 -0.1411973 -0.012031612 -0.047621828
0000f0 82 2b bb 3c 7d 2e 22 3b 80 9c 25 3d 6f fd 7a 3d
       0.022847895 0.0024746947 0.040432453 0.06127685
000100 d0 d7 26 bd e3 8d c3 bd 8e 05 7d bd 2b c2 d1 3d
       -0.04073316 -0.09548547 -0.061772875 0.10242113
000110 76 47 19 bd a0 b0 a4 3d 9e 8a 7d bd ca 34 d5 3c
       -0.037421666 0.08041501 -0.061899774 0.026026148
000120 44 58 66 3d 4f e1 0d 3e d8 9f bd bd fe 26 60 bc
       0.05623652 0.1385548 -0.092590034 -0.013681171
000130 b2 0d 1a be 45 a9 3d bc 6e aa 53 bd 57 86 88 3d
       -0.15044287 -0.0115760015 -0.051676206 0.06666248
000140 84 86 8e 3c 51 4b 3a 3d 84 2e fa bc bd c6 1c 3c
       0.017398126 0.045481984 -0.030539759 0.009568867
000150 41 87 8e 3d d9 7e 75 3e a4 03 14 3e df b3 51 bd
       0.069593914 0.2397417 0.14454514 -0.05119693
000160 98 9a 6f bd 8a 73 dc 3d 21 05 81 3d 78 c6 36 3d
       -0.05849704 0.10764225 0.062998064 0.04462287
000170 45 07 15 bb 2b 0b 36 bd 54 f0 93 bc 1e 67 b3 3a
       -0.0022739929 -0.044444244 -0.018058933 0.0013687348
000180 86 00 de 3c 46 22 09 bd 50 a7 20 3e 62 f2 81 bd
       0.027099859 -0.03347995 0.15688825 -0.06345059
000190 29 cd b9 3d 66 26 92 3c d6 63 c7 3c 43 1c a5 3d
       0.09072334 0.017840575 0.024339598 0.08062031
0001a0 6c 7a ac 37 c5 d3 b8 bc 98 3c b2 3d 47 ce 9d 3d
       2.0561005e-05 -0.022561917 0.087029636 0.0770536
0001b0 f1 1b f6 3d 83 e6 11 be 05 82 b8 bd 1f 40 b6 bc
       0.12017048 -0.1424809 -0.09009174 -0.022247372
0001c0 0c f7 f0 3d b4 93 c2 bc 9c 28 0c bd 65 ed 8a bb
       0.117658705 -0.023752071 -0.034218416 -0.0042397254
0001d0 e6 4b 7f bd 1d b0 ca 3c cb 9b 46 bd c0 af 0e bd
       -0.06232824 0.02474218 -0.04848842 -0.034835577
0001e0 0a a2 d5 bd ca ea d9 bd d1 a9 09 be 30 6e 80 3d
       -0.10431297 -0.106404856 -0.13443686 0.062710166
0001f0 07 83 d8 bc 71 26 9f bd 68 83 2c 3d b5 20 d2 bc
       -0.026429666 -0.07771004 0.042117506 -0.025650362
000200 1a 42 e0 3b de 0e ac bd c9 d5 19 3e 61 8a ea 3d
       0.0068438174 -0.08401273 0.15022959 0.11452175
000210 46 f5 c5 bc 2e 18 e0 bd 92 51 12 3e 73 2f cf 3d
       -0.024164807 -0.10942112 0.14288929 0.10116472
000220 d2 dd 56 3d 40 9b 49 bc 21 3d 82 bd 36 e2 3c 3e
       0.052457638 -0.012305081 -0.06359316 0.18445668
000230 df 7d a4 3d e2 ce e4 3d 51 8d 3f 3e 80 60 07 be
       0.080318205 0.11172272 0.18706252 -0.13220406
000240 d8 a8 6f bd 84 94 99 bd 93 5d 65 bb f1 59 10 3d
       -0.05851063 -0.0749903 -0.0034998402 0.035242025
000250 3e ca 5c 3b 26 47 b3 bd c8 e8 b9 3d bf 35 f6 bd
       0.0033689882 -0.08753805 0.090776026 -0.1202197
000260 27 ab b8 bd 97 14 ec 3d 3b d8 5b 3e 98 c5 d3 bc
       -0.0901702 0.11527365 0.21469204 -0.025851056
000270 19 60 b0 bc c7 27 60 be 2e cb 33 3d fc 25 ee bc
       -0.021530198 -0.21890174 0.04389494 -0.029070847
000280 ef de d4 bd b9 84 ec 3d f9 d3 94 bd 2d 0f 0e bd
       -0.10394084 0.11548752 -0.07266993 -0.03468244
000290 07 8d fc 3c 9d 21 92 bd 81 78 06 be 37 57 26 bd
       0.030828966 -0.071353175 -0.13131906 -0.04061052
0002a0 c3 53 8e 3b 14 45 a5 bd 1a 93 92 3d 5b 92 34 be
       0.0043434813 -0.08069816 0.07156964 -0.17633955
0002b0 d4 5f 2d 3e fe 5b b6 bc aa cb 5e bd 93 7c d4 bb
       0.16931087 -0.022260662 -0.054393448 -0.006484577
0002c0 80 d2 2a bb 77 21 45 bd 7d a3 8e bb 75 f3 47 be
       -0.002606541 -0.048127618 -0.0043529854 -0.19526465
0002d0 a9 e0 c2 bd fd 7a a7 3d 70 48 8d 3d 34 ae e7 3c
       -0.09515507 0.08177755 0.06898582 0.028281309
0002e0 87 06 05 be c0 6b b1 bd ba 35 a4 3c 13 fc 18 bc
       -0.12990771 -0.0866313 0.02004515 -0.009337443
0002f0 1f b8 a3 bc 50 c7 1b 3b 40 55 c3 bc c5 a5 cd bc
       -0.019985257 0.0023769923 -0.023844361 -0.02510346
000300 d7 3f f8 3d d0 26 fe bd 4d ce 4e bd 38 15 08 be
       0.121215515 -0.12409747 -0.050489713 -0.13289344
000310 c9 d1 9e 3a 11 ef 07 be 77 37 a9 3d 3c a9 80 bd
       0.0012116964 -0.1327479 0.08262532 -0.06282279
000320 19 e9 f2 bc c0 56 05 3e 2b 3c 98 bd aa 05 b5 bd
       -0.029652165 0.13021374 -0.07433351 -0.08838971
000330 4c ee ee 3d c8 ed 38 bc a8 4c 03 be 18 54 e9 3d
       0.11666545 -0.01128716 -0.12822211 0.11392993
000340 8a c9 8a bc 07 db c9 3d 63 40 68 3c 3d 38 49 3c
       -0.016941804 0.09856229 0.014175507 0.012281475
000350 ba c5 17 bd f6 c8 4a bd 1b af c3 3c bd c5 89 bc
       -0.0370538 -0.049508058 0.023887208 -0.016817922
000360 c8 66 21 be 57 4b 9e b9 17 42 f6 3d 6c bb 3a bd
       -0.15761864 -0.0003019224 0.120243244 -0.045588896
000370 d8 21 e3 3c e9 41 0b 3d 59 56 63 bd e2 9a 1f 3d
       0.027726099 0.033998404 -0.05550227 0.038966067
000380 0e de 39 bc 76 b1 4e bc 2b 8e ca 3d b5 73 32 be
       -0.011344446 -0.012615552 0.09890398 -0.17426951
000390 69 c0 af bd 34 eb 44 3d 61 21 0a bc 60 24 25 3d
       -0.08581621 0.04807587 -0.00843081 0.040317893
0003a0 df 12 fb bc 5f 68 9e 3d 98 a2 bc 3d a2 54 03 be
       -0.030648647 0.07734751 0.092107 -0.12825254
0003b0 b2 88 ac bc d7 2c c6 3d 68 7a d7 bc 88 d1 cd bc
       -0.021061275 0.09676521 -0.026303485 -0.025124326
0003c0 7f 80 16 bd b5 df df 3d 0c 94 9a 3d dd 8b 27 be
       -0.036743637 0.109313406 0.07547769 -0.16361947
0003d0 06 76 a1 3c e0 fd 0c bd 08 b6 90 bd 2d 9a 52 bd
       0.019709598 -0.0344218 -0.0706597 -0.051416565
0003e0 88 6c 4f 3d 5d b0 48 be 43 77 41 bd 16 c0 6e 3b
       0.050640613 -0.19598527 -0.047232877 0.003643041
0003f0 51 5d 0a 3c 47 99 72 bc 56 48 36 bd 7c 00 55 bb
       0.0084451 -0.014807052 -0.04450258 -0.003250151
