saved_models/rotate+gan+5samples.pth (torch, 537556 bytes, 26 tensors)

conv1.weight f4 [32, 1, 3, 3]
00000000: d231 fb3d c0f1 eabe 3ca1 a53d 8394 963e
00000010: c654 b63d 60ab 893e f9f1 a0be 21a7 24be
00000020: e3f0 aabd 2286 82bd 7124 e6bd 0232 c4be
00000030: 20e1 443e 7e37 6b3e ed9b 713e fd86 9cbe
00000040: 4662 663e a720 12be 1aaa a53e dad4 69be
00000050: 642b eebc db0a 16be f41c b53d 1908 5e3e
00000060: 0bb9 dcbd 7691 6b3e 6f77 81be dbd0 e63c
00000070: 14ae 99be 93fe a53e 3a29 c9be b20d b9bc
00000080: df04 573e 2f39 0dbe 9798 8d3e ddb2 a8bd
00000090: 0366 14be 5c11 88be 0d97 ad3c f699 903e
000000a0: 05f7 803e c416 a8be 6789 87be e3cd 96bd
000000b0: a70b 8d3e 8aea c93d 57aa d1be 5762 8fbe
000000c0: 7f04 993e 61e6 05be 054f 5f3e 2535 c03d
000000d0: 5948 673e 5f8f a8bd 1cdb 51be f3c3 13bb
000000e0: 71ab a73e 1935 973e 5376 90be 9202 a33e
000000f0: 7e47 faba f61b 973e 07d9 93bd 6325 b5be
00000100: 2ff8 9bbe a6f0 0ebe 4b2d b7bd 4cb4 493d
00000110: fef9 853e 6381 35bd 33fb a83e e39d ad3c
00000120: e1ad 953d 36c1 61be 7e4e 34be 813f 95be
00000130: 5106 da3d e176 f5bd e5df 863e a94f 9d3e
00000140: 8fde 9fbe 3902 913e e713 82bc fe31 1e3e
00000150: 6a92 a2be 64ff e9bd 48e7 bcbe a788 79be
00000160: 5c79 7fbe 4e8d 9e3e 10b9 46bc c218 39be
00000170: 0f50 613e c045 913e 4f4d 23bd cb2f ad3e
00000180: 49e3 61be d32e babe b72b 8fbe ce6a aebd
00000190: 96f6 293d 2981 dc3e ee98 53be 4b78 a6be
000001a0: 23e3 1abe ed9d acbd a9cc c4bd 65f3 7a3d
000001b0: 3840 e13e 68b5 19be 8e8f 6d3e dacd e93d
000001c0: ac1c d13d 91f2 7bbe 4e92 883d d9b4 9d3e
000001d0: 3efa 9e3e 7f63 583e 5f34 cb3d 3a0c 38be
000001e0: f5f1 6a3e 365c a0bd db04 f5bd 4ef6 913d
000001f0: f7c9 d6bd faea 96be 1043 05be 0ecc c6be
00000200: 25a0 2d3e 2dc0 9ebe 937c 433e c2d6 123e
00000210: 15c0 b3be bb2d 09be 9034 963d 37ff b3be
00000220: 5479 81be e829 34be 58ef 523e 9d02 c63d
00000230: b324 153c 57bd 853d 31b6 2ebe f240 0d3e
00000240: c675 0fbe f13a 513e b305 563e bd0a 0a3e
00000250: 2a7e 4bb9 3c7c 10be 611f 093b 9726 883e
00000260: e595 f7be c2c9 9fbd 7411 dc3d 8bdd 4e3e
00000270: 5c4f 6bbe 7ad9 aabe 4ae2 15be 7a03 3f3e
00000280: 698a b73d 4c7d 04be ec89 8ebd db13 f8bd
00000290: 417e bcbe 1729 bf3e 31b8 64bd d840 79be
000002a0: 2235 6bbd 8cfa 9fbe e7c0 01be 8db7 3b3e
000002b0: 6452 22be 9a61 1ebe 0208 2ebe 2495 3cbe
000002c0: c3ed 4c3e 4dd1 8cbd e48b 02be c3be 1c3e
000002d0: 4ebe 86be 1beb 6abe 801d 8ebe 075a 3abe
000002e0: 6219 99bb e921 10be e346 86be d9f7 2bbd
000002f0: 38b3 873e 0094 40bd b279 5b3e bc1c b33c
00000300: a4cd 0b3c b249 d3bd 946d 8ebe 92f5 673d
00000310: 66d9 80be b1c0 603e 999b 15be 8dc7 9dbd
00000320: 1a50 cb3d 66c8 363e 246a 9b3e 8634 6fbe
00000330: e5e1 923e e07b d5be b4a6 f4bd 21d2 88be
00000340: b8d7 0fbe f66e 703c 7219 17be 2967 d03e
00000350: 368c d33d 214c 00be 8c5a a43d 6a3a aabe
00000360: 1f27 073e 8496 9ebe fb16 30be 3439 4fbe
00000370: 6c9e 67be 1c7f 493e 97c8 763e dd3d 6a3e
00000380: 9bc1 3e3e b9a7 68be a027 1bbe 528d 81bc
00000390: fae6 a53e 08f7 b7be c3c7 5dbe 0c1e 6a3e
000003a0: 81f9 913e 8fe8 90bd e8fe 42bc 9fea 423e
000003b0: 9aec 5c3e 6fa1 da3d a43a 2dbc 1a33 08bc
000003c0: 0a57 e6bd 9980 a1be 36dd a5bc 63dc b13e
000003d0: bc04 f0bc c88e da3d 6a0d 33be 4be2 ee3d
000003e0: 3ddb b2bd d6eb b9be 1f32 1bbe 1b9f 81be
000003f0: 8a35 a53e 15e9 bc3c a5c2 8f3d 4cb6 6c3e
0.12265362 -0.45887566 0.08087394 0.2941018 0.08902888 0.2688856 -0.3143461 -0.1607938
-0.08346727 -0.0637324 -0.112374194 -0.38319403 0.19226503 0.22970387 0.23594637 -0.30571738
0.22498426 -0.14270268 0.3235634 -0.22835103 -0.029073425 -0.14652579 0.08843413 0.21682777
-0.10777482 0.23004708 -0.25286433 0.028175762 -0.30015624 0.32420787 -0.39289266 -0.022589538
0.20997952 -0.13791345 0.2765548 -0.082372405 -0.1449204 -0.26575744 0.02119019 0.28242463
0.2518846 -0.3282987 -0.26472017 -0.073634885 0.27547953 0.09859188 -0.4095027 -0.28004715
0.29886243 -0.13076164 0.21807487 0.093851365 0.22586192 -0.08230471 -0.2049374 -0.0022547215
0.32747987 0.29532698 -0.28215274 0.31837898 -0.0019094793 0.2951352 -0.07219129 -0.35380086
-0.30462787 -0.13958988 -0.08944186 0.04924421 0.2616729 -0.044312846 0.3300415 0.02119345
0.073085554 -0.2204636 -0.17608067 -0.29150012 0.10645736 -0.11985565 0.26342693 0.30724838
-0.31224486 0.28322008 -0.01587863 0.15448758 -0.3175233 -0.11425665 -0.36895204 -0.24368535
-0.24948639 0.30967182 -0.012129083 -0.1807585 0.22003196 0.28373528 -0.03986865 0.33825526
-0.22059359 -0.3636385 -0.2796304 -0.08516465 0.04149493 0.4306729 -0.20663807 -0.3251365
-0.15125708 -0.084285595 -0.09609348 0.061267275 0.43994308 -0.15010607 0.23199293 0.11416216
0.10210547 -0.2460425 0.066685304 0.30802038 0.31050295 0.21131705 0.09922098 -0.17973414
0.22943862 -0.07830088 -0.11963817 0.07127057 -0.104877405 -0.29476148 -0.13013864 -0.38827556
0.16955622 -0.31005993 0.1909049 0.14339736 -0.35107484 -0.13396351 0.07334244 -0.3515565
-0.2528788 -0.17594111 0.20599115 0.09668467 0.009102988 0.06530254 -0.17061688 0.13794306
-0.14009771 0.2043264 0.20900612 0.13480659 -0.00019406588 -0.14109892 0.0020923244 0.26591942
-0.48356548 -0.07802154 0.107455164 0.202017 -0.22979492 -0.33369046 -0.14637104 0.1865367
0.089619465 -0.12938422 -0.069599 -0.12113162 -0.36815074 0.37336037 -0.05583972 -0.24341142
-0.05742372 -0.3124584 -0.12671243 0.18331738 -0.15851742 -0.1546692 -0.16995242 -0.18416268
0.20012574 -0.068758585 -0.12748677 0.15307145 -0.26317066 -0.22941248 -0.27756882 -0.18198405
-0.0046722153 -0.14075436 -0.26225957 -0.041984413 0.2650392 -0.047016144 0.21433142 0.021864288
0.008532915 -0.10316791 -0.27817976 0.05663068 -0.25165862 0.21948506 -0.14610137 -0.07704077
0.099273875 0.17849883 0.30354416 -0.2335988 0.2868797 -0.41696072 -0.119458586 -0.26722816
-0.14047134 0.014674893 -0.147558 0.40703705 0.103294775 -0.12529041 0.08025083 -0.3324769
0.13198517 -0.3097421 -0.17196266 -0.20236665 -0.22619027 0.19677395 0.24099956 0.22875161
0.18628542 -0.22720231 -0.15151834 -0.015814457 0.32402784 -0.35930657 -0.21658234 0.22863024
0.2851067 -0.07075607 -0.011901595 0.19034813 0.21574631 0.10675322 -0.010573063 -0.008312965
-0.1124707 -0.31543425 -0.020247083 0.34738454 -0.029299133 0.106717646 -0.17485586 0.11664256
-0.08733223 -0.3631274 -0.15155838 -0.253167 0.3226741 0.02306036 0.070195474 0.23116416

conv1.bias f4 [32]
00000000: 62e7 f2bc f474 873d 1709 093d 6a7e 3e3e
00000010: 98bb 7c3e 6119 703e 2b01 793e 66ae e43d
00000020: 172b 2f3d 3c91 73be 5172 8bbe 6f6e 95be
00000030: c592 353e 902b 29be 1306 b4be 4e7c f4bd
00000040: 0929 83be f124 8f3d 59d9 273e 6166 c7bd
00000050: 0ab8 a8bd 2884 19bd 6ece 8bbd edea 633e
00000060: e796 913e b5be 4d3e 6105 783e a984 84be
00000070: 51d4 4a3e 104b 563b c295 a3be b372 7a3e
-0.029651348 0.06614104 0.033455934 0.1860291 0.24680936 0.23447181 0.24316852 0.11166076
0.042765703 -0.23785871 -0.27235654 -0.29185817 0.1773177 -0.16520524 -0.35160884 -0.11937772
-0.25617245 0.06989468 0.16391505 -0.09736324 -0.08238228 -0.03747955 -0.06826483 0.22257586
0.28435442 0.2009228 0.24220802 -0.25882462 0.19807555 0.003269855 -0.31950194 0.24457817

bn1.weight f4 [32]
00000000: bbdb 753f 917c 673f 6349 483f 017f 7f3f
00000010: 5c15 673f e231 843f 1729 ef3e c9a2 803f
00000020: 1440 903f 2307 833f 1dad 823f 7d2e 813f
00000030: cb55 ab3e 88a2 853f 0548 903f 7b47 533f
00000040: e67e 313f 6744 b53f a6b8 9c3f 9c75 a03f
00000050: 6a9e a33f 7cdd 8f3f a288 673f 0f30 a03f
00000060: 2c92 753f 5429 953f 5e69 8f3f c1b2 973f
00000070: ddab b63e a1f7 913f d938 9c3f 1ee6 d53e
0.9603841 0.9042445 0.7823698 0.9980317 0.90266967 1.0327723 0.46711037 1.0049678
1.1269555 1.0236553 1.020908 1.0092312 0.33463892 1.0440226 1.1271979 0.82530946
0.69334257 1.41615 1.224385 1.2535892 1.2782719 1.1239467 0.9044286 1.2514666
0.95926166 1.1653237 1.120403 1.1851426 0.35677996 1.1403695 1.2204849 0.41777128

bn1.bias f4 [32]
00000000: b8e6 093e 5b99 313d 4561 d9bd aa5f 1dbe
00000010: cb9a fdbd 9c35 6fbd 24c9 aabe ada7 3b3e
00000020: 426e babd 3d44 28be e7c1 293d bd83 56bd
00000030: d7b9 bfbe 5afc 5abe 6483 65be bdd2 d33c
00000040: 883e 88be 7681 e5bc 84b7 c5bd a132 29bd
00000050: 73ac ffbd 7255 c13d 8772 79be 40d1 f8bd
00000060: 0719 95bd 2be8 e53d 9b7e febc 7614 a13c
00000070: 507a 07bf ecb7 37be c068 c9bd f09b babe
0.13466918 0.04335914 -0.10614256 -0.15368524 -0.1238304 -0.058400735 -0.33356583 0.18325682
-0.09103061 -0.16432281 0.041444685 -0.05237173 -0.37446472 -0.21385327 -0.22413403 0.025857324
-0.26610208 -0.028015833 -0.096541435 -0.04130805 -0.12484064 0.094401255 -0.24360095 -0.12149286
-0.07280164 0.11225923 -0.03106623 0.019663077 -0.5292101 -0.17941254 -0.098344326 -0.36447096

bn1.running_mean f4 [32]
00000000: 0de1 10bd a802 403d c418 083d d702 403e
00000010: cd35 743e 2ebb 6f3e 2a17 843e 6123 cc3d
00000020: adc7 0a3d 2aaa 72be 1aa6 8fbe cb2d 94be
00000030: 08b5 553e a0e4 2ebe e746 bdbe 862d 08be
00000040: 9c1e 86be b8e7 963d fce7 103e 5ca9 c7bd
00000050: 30f9 dabd 607b 12bd f92b 92bd b570 4d3e
00000060: 44db 963e 8f53 4f3e 8707 783e 7f41 8bbe
00000070: e8c4 503e 0476 32bb 8202 aabe 727b 893e
-0.035370875 0.046877533 0.033226743 0.18751083 0.23848648 0.23411247 0.25798923 0.099676855
0.033881832 -0.23697725 -0.28056413 -0.28941187 0.20869839 -0.17079401 -0.36968157 -0.13298616
-0.26195228 0.073684156 0.14150995 -0.097490996 -0.1069206 -0.03576219 -0.07137293 0.20062526
0.2946416 0.20246719 0.24221621 -0.27198407 0.20387614 -0.0027230987 -0.33205038 0.26851994

bn1.running_var f4 [32]
00000000: 8aa6 d13d fe84 ae3d 30a4 233d a912 733e
00000010: 86ae b63d 4753 483e 557a cb3e e8f9 ce3e
00000020: bb90 5c3e a2f1 e93e eb3a 5e3e b937 993e
00000030: b63d 5d3f be35 9e3e 644b 223f 340e 6f3e
00000040: a894 2c3e 3a46 073e 3cee 5a3f 4419 2e3e
00000050: 2b91 893f 2a21 923d 7baf 133e dea0 1d3e
00000060: e9e3 6f3e 4332 673e e8b6 0b3e 1f90 c43e
00000070: 7929 203f 5f8b 803e cfac ab3e 3bd7 8b3f
0.10236843 0.0852146 0.039951503 0.23737587 0.089200065 0.19563018 0.3974177 0.40425038
0.21539585 0.45692164 0.21702163 0.29925326 0.8642229 0.30900377 0.63396287 0.23345262
0.16853583 0.13210383 0.85519767 0.17001826 1.0747427 0.07135232 0.14422409 0.15393397
0.23426785 0.22577767 0.13643992 0.38391206 0.6256328 0.25106332 0.3353028 1.0925058

conv2.weight f4 [64, 32, 3, 3]
00000000: 666c 9b3d bc23 a83d 1305 113d 7b8b 033e
00000010: 914a 1cbe 50e8 9abc fb01 92be e487 a83c
00000020: 506d 4ebd 5369 1cbd e625 5e3d 7e74 88be
00000030: 64e8 a9bd 8167 5b3b 430b 9f3d 6fdc aa3d
00000040: fd44 333e 259b 99bd 132a b43d af6e 2c3e
00000050: 7fda 14bd cf61 bfbc 3722 813d 6d39 14bd
00000060: 8fd0 263d ca9f 293d 7667 41bd 2ea2 a33d
00000070: 2a0b 17bd 4957 69bd 0a00 5cbd 80f0 633d
00000080: a249 873d 23a7 653e f3e0 9a3d ae97 05bb
00000090: 3440 0f3c 17e5 073d 43d9 70bb 548d 1b3e
000000a0: 4043 1bbd b464 003e 8933 f4bd 8641 ffbc
000000b0: 4f7e 8b3d 9cdb 813d a3af 24bc e545 6ebe
000000c0: 1039 93bd 112c 083e 31af 373e 8db4 acbb
000000d0: aec2 e23d ee8a 93bd 487e f93d f17a 73bd
000000e0: 7756 8fbd d8c3 5ebd 5392 febd 14fc 8dbd
000000f0: 43f0 543d e48c f63b b4a2 443c 694e b23c
00000100: 33a0 d1bd a2d3 20be 6624 4ebe 23a4 16bd
00000110: 08d2 cf3d 5cb6 c13d 47a7 203c 5096 3c3c
00000120: f215 21be b564 0cbe f42b d2bd b2ff b23d
00000130: c4d9 293e ff5f c13d 83e5 153c 81d4 9d3d
00000140: 64dc 92bc 25c5 55be 7a74 f0bd 401d 6a3d
00000150: 5743 fe3d a5b5 0f3e b539 5c3d 7c11 a5bd
00000160: 3a43 1cbe 3434 5a3d 51c8 0bbe 93e1 9cbc
00000170: 7f96 afbc f854 213e a8a8 f9bd 728a ca3b
00000180: f508 52be c415 ab3d 5075 973b 6fff 90bd
00000190: 749b 76bd acd2 2cbe 2928 523e e048 d43c
000001a0: 8400 553d 1d1f 243c 6e1f 653c 2ce2 2cbd
000001b0: a231 633d dc47 4ebd 786d 86bd 2a4d bfbc
000001c0: 5d27 0fbd 0385 7e3d d546 72bb f1c6 d9bd
000001d0: a8a1 40bc f67e febc b001 5c3d 4fef 32bc
000001e0: 23b2 9dbc 132a 543d 5012 c7bd 990f 17be
000001f0: f03e 4e3d 83b4 a43d 5c89 a73d c9ef 11be
00000200: a11e 9fbc 86ab cfba 8b2c 32bd e16a bbbc
00000210: d842 4c3d 6832 1dbd 7b53 dfbc 02a4 89bd
00000220: f37f ddbd e54f 19be 235d 3bbe f250 0cbe
00000230: 5249 2f3e 49dc 1cbc 6fa2 283d a11c 7b3d
00000240: 39c0 b53d c754 133e 9cb0 0e3b 4d66 283d
00000250: 87e7 153d 5f76 0dbe 95b8 e73d 2b7e b2bd
00000260: 0dec d03b fc64 cabd 4eb6 a9bd 5cb6 58bd
00000270: 7772 3e3e ed11 2f3e 50da 193e 9b3c 95bd
00000280: acf6 a8bc c8b1 1b3d bb67 343d 3024 af3b
00000290: cc2b fbbc 4bd7 10be 6ed4 823b d359 54bd
000002a0: 5e15 d2bd 838e b0bc 02cf c33d 9680 ab3d
000002b0: 6454 b0bd 1cc0 1bbc a381 2abd 9880 2f3e
000002c0: 37df f53d 6c8e cd3d aacc da3c f215 863d
000002d0: 7a86 8f3d 1771 ebbc db13 c6ba 3070 33bc
000002e0: f67a 71bc bf56 d73d 8f80 f7bb cfd5 1bbe
000002f0: 3d09 5fbd 8dd4 6c3c 6f17 adbd 1ccc f43a
00000300: 4edd 513d dd53 5e3e d6fc 70bc 34db acbd
00000310: 0d7d 3c3c 50c2 dfbd f48e 453b a76f 133c
00000320: cb5f 933d 9d03 f8bc cdd7 b73d 1be9 e5bc
00000330: c44e ea3d caef 113e 8808 913d a55d ee3c
00000340: 87da 7d3d f53f b0bd a005 d1bd 14c1 493c
00000350: cbe4 803c 1a51 4b3e 36e2 843c c0bf 9bbd
00000360: fdbc febc 2846 08be 875f a5bd cf12 b3bd
00000370: 3130 523e 9610 9c3e dfa0 b83d e6cf 70bd
00000380: 3fea abbd 52ef 2dbd a6e4 39be 432a 6a3d
00000390: f979 3dbc 72c9 343e 1c31 b93d 18a9 81bd
000003a0: 26d5 113c b02d 8f3d 7495 2ebe 8c64 913d
000003b0: d98d b53d ba2b c1bb bd64 893d c99b 22bc
000003c0: 63a8 0fbe e796 233c e015 873d 1828 81be
000003d0: fd7d ec3d b6a2 1a3e 68db c5bc 4aac c6bd
000003e0: 600d 75bb 0a87 39be 3993 85bd 4c5a b3bc
000003f0: dd26 7ebd 30ad 993d 9c3c 13bd 8b2e 2dbd
0.07589035 0.08209941 0.03540523 0.12846176 -0.1526282 -0.018909603 -0.28517136 0.02057261
-0.050397217 -0.038186383 0.05423536 -0.26651376 -0.08296278 0.0033478441 0.0776582 0.083428256
0.17506786 -0.075002946 0.087970875 0.16839097 -0.036341187 -0.023362068 0.06305354 -0.036187578
0.04072624 0.041412152 -0.04721781 0.07989918 -0.03687588 -0.056968007 -0.053710975 0.05564928
0.06605841 0.22427039 0.07562437 -0.0020384598 0.008743335 0.03317746 -0.0036750592 0.15190631
-0.03790593 0.12538415 -0.11923892 -0.031159174 0.06811201 0.06340715 -0.010051641 -0.2326885
-0.07188618 0.1329806 0.17937924 -0.005270547 0.110722885 -0.07204233 0.12182289 -0.059443418
-0.06998914 -0.05438599 -0.12430253 -0.06932846 0.051986944 0.0075241197 0.012001682 0.021765905
-0.10235634 -0.15705732 -0.20131072 -0.036777627 0.10147482 0.094586104 0.009805507 0.011510447
-0.15731028 -0.13710292 -0.1026229 0.08740176 0.16586977 0.09442138 0.009148958 0.077065475
-0.017927356 -0.20875986 -0.11740966 0.0571568 0.12415188 0.14034136 0.05376597 -0.080599755
-0.1526002 0.05327244 -0.13650633 -0.01915053 -0.021434067 0.1575507 -0.12190372 0.0061810547
-0.2051123 0.08353761 0.004622139 -0.0707997 -0.060206845 -0.1687724 0.20523132 0.025913656
0.052002445 0.010017184 0.013984544 -0.04220788 0.055467255 -0.0503615 -0.06563848 -0.023352224
-0.03494965 0.06213857 -0.0036968489 -0.10633648 -0.011757292 -0.031066399 0.053712547 -0.010921313
-0.019249981 0.051797938 -0.0972029 -0.14752044 0.05035299 0.080422424 0.08180496 -0.14251627
-0.019423785 -0.0015843965 -0.04349951 -0.022878112 0.049868435 -0.03837815 -0.027261486 -0.06720735
-0.1081542 -0.14971884 -0.18297248 -0.13702753 0.17117813 -0.009574004 0.041170534 0.0613066
0.08874554 0.14387809 0.0021772748 0.041113187 0.036597755 -0.13814686 0.11314503 -0.08715471
0.0063757957 -0.098825425 -0.08286725 -0.052908286 0.18598352 0.17096682 0.15024686 -0.0728695
-0.020625435 0.038011342 0.044044238 0.00534489 -0.030660532 -0.14144628 0.0039926087 -0.051843476
-0.10257982 -0.02155233 0.09560968 0.08374135 -0.08609846 -0.009506252 -0.041627537 0.17138898
0.120054655 0.100369304 0.02670892 0.065471545 0.07008071 -0.028740449 -0.0015112119 -0.010952041
-0.014738789 0.105145924 -0.007553167 -0.1521828 -0.05445217 0.014454973 -0.08451735 0.0018676552
0.051236443 0.21711679 -0.014708718 -0.08440247 0.011504424 -0.10925734 0.003014502 0.008998788
0.071960054 -0.03027516 0.089767076 -0.028065255 0.114408046 0.14251629 0.07081705 0.029097388
0.061975982 -0.08605949 -0.10206151 0.0123141 0.015734097 0.19855157 0.016221147 -0.07604933
-0.031095976 -0.13308012 -0.08074861 -0.08743822 0.20526196 0.30481404 0.09015059 -0.058792017
-0.08394288 -0.04246456 -0.18153629 0.05716921 -0.011564725 0.1765497 0.0904257 -0.0633108
0.008900916 0.06991136 -0.170492 0.07099256 0.08864946 -0.005895105 0.067086674 -0.009924837
-0.14029078 0.009984708 0.06595969 -0.25225902 0.11547468 0.15101132 -0.024152473 -0.0970083
-0.0037392005 -0.1811792 -0.06522221 -0.021893643 -0.06204878 0.07503736 -0.035946473 -0.042280715

conv2.bias f4 [64]
00000000: 5a29 aabc 2905 ce3a 8d1e 8fbc 6a3a 2d3d
00000010: 46b1 50bc 19cd 13bd 81ae 24bd d32e 23bd
00000020: 31a1 a33c 63d1 083d 9830 b5bc c18f 3a3d
00000030: 5cab f73c ff56 5b3d 2d11 14bd 8e02 04bd
00000040: 8f1a d33c 12b8 653b f308 3e3d a22a 58bd
00000050: 2ac4 b5bc ea69 80bc 1faf fabc de32 05bd
00000060: a760 67bd cf88 7dbd dedb 2fbb dcd3 683d
00000070: 831f 8abd cbbb 1cbd e496 2abc 83ba 29bd
00000080: 34a8 35bd 9700 28bd 1969 68bc 4a5b d3bb
00000090: 3ecf 773c abb0 af3b c148 15bd 3e55 183d
000000a0: f504 23bc 9941 5ebd 42c7 0d3d 8afe 98bc
000000b0: 263d 19bd 1872 f4bc 9271 09bd 9d05 303d
000000c0: c7a6 623d ac4d 533c 199e 1d3d fc78 3c3d
000000d0: b34e 61bc 868b 043d c1e1 463d 1217 1a3d
000000e0: dc6c d5bb 0458 5f3d 6a86 3a3d ceda bf3c
000000f0: 001e 403c ae45 a13c e920 4b3d 9ccb d3bc
-0.020771671 0.001571809 -0.017470622 0.042292036 -0.012737578 -0.03608427 -0.040205482 -0.039839577
0.019974323 0.03340281 -0.022117898 0.04554725 0.030233078 0.053549763 -0.036149193 -0.032229
0.0257695 0.0035052341 0.046395253 -0.052775033 -0.022188265 -0.015675504 -0.030601082 -0.032519214
-0.05648866 -0.06189805 -0.0026833932 0.05684267 -0.06744292 -0.03826503 -0.010411952 -0.041437637
-0.044349864 -0.041016188 -0.0141852135 -0.0064500915 0.015125094 0.0053616366 -0.036446337 0.03719067
-0.009949912 -0.054261778 0.034613855 -0.018676061 -0.03741183 -0.02983956 -0.033555575 0.042974103
0.055334833 0.012896936 0.03848085 0.046013817 -0.0137516735 0.032359622 0.04855514 0.037619658
-0.006513221 0.054527298 0.045538343 0.023419764 0.011725903 0.019686546 0.049591932 -0.025853924

bn2.weight f4 [64]
00000000: 1613 613f ce1a 8e3f f96e 803f 2cbf 433f
00000010: d643 683f 5d18 813f b87a 6d3f 3173 793f
00000020: c9fd 683f 2915 943f 3e1a 763f 04b1 8b3f
00000030: 999c 873f 9bb4 903f 89a4 853f 0f7a 723f
00000040: 7df0 723f c4f1 8a3f 5c50 2a3f 076f 7c3f
00000050: 73b4 473f d181 813f 710b 883f 90be 933f
00000060: 069b 843f 9235 5a3f c282 9a3f 1cc8 813f
00000070: 4d4d 843f 9930 8e3f 8a0c 893f f6e4 973f
00000080: 2be8 803f 8e4a 6e3f f249 9f3f 2f03 303f
00000090: 7150 8b3f 2da0 6b3f 1966 743f bc42 883f
000000a0: db95 833f c643 843f 7367 623f bb65 813f
000000b0: f1e9 763f 04db 6e3f 4876 8e3f c4f3 6f3f
000000c0: d282 213f 0ae5 773f 090c 653f a9fa 843f
000000d0: 19ae 8c3f 9bc9 8c3f cd92 8f3f 6bb8 983f
000000e0: 857d 6b3f 9cf3 863f 4750 3d3f fced 8c3f
000000f0: 7acd 8e3f c007 943f 00e7 653f 3684 673f
0.8791975 1.110193 1.0033866 0.7646358 0.9072851 1.008556 0.9276538 0.97441393
0.91012245 1.1568958 0.9613379 1.0913396 1.0594665 1.1305116 1.0440837 0.94717497
0.94898206 1.0855031 0.6652887 0.98606914 0.7800972 1.0117742 1.0628492 1.154253
1.0359809 0.8523799 1.2071154 1.0139194 1.033609 1.1108581 1.0706952 1.1866748
1.0070852 0.9308251 1.2444441 0.6875486 1.0883924 0.92041284 0.9546829 1.0645366
1.0280107 1.0333183 0.884391 1.0109171 0.96450716 0.9330294 1.1129847 0.9373133
0.6309024 0.9683386 0.8947149 1.0388995 1.099063 1.0999025 1.1216675 1.193128
0.919884 1.0543094 0.7395062 1.1010127 1.1156456 1.1564865 0.89805603 0.9043611

bn2.bias f4 [64]
00000000: 10ff 75be 3ab2 5ebe 781f 09be 2abe bebe
00000010: 2c0b 53be f3cf 84be cd46 003b fbd7 b43d
00000020: 32db 68be 572f e9b9 5f93 02be 0600 6fbe
00000030: 1c5f 3ebd 6b7f 04be d503 3fbe e249 27be
00000040: d5bf b939 1241 4f3d da78 b3be c800 98bd
00000050: 55a4 e9be 9722 b1bd f280 8bbe fccb 1abe
00000060: 9774 78be e3cc 16be 5f7e 0fbe 61d9 b6be
00000070: a6f1 2e3e 6ff9 9bbd 1273 45bc 3a15 abbd
00000080: 1fec 5abe 8955 5fbe 28fa b9bd 0ad0 1abf
00000090: d70d 8abd c2e7 5dbe c81a 78be c297 d23c
000000a0: b302 c5bd 1759 75be 891e 8ebe 7dcc eebd
000000b0: 0084 babc f177 70be 4213 d6bc 4df2 57be
000000c0: 52ac 9cbe ec0e 4dbe b6d2 28be ad34 17be
000000d0: 26a9 7cbe ce78 38be 25cd 30be 712e 50bd
000000e0: 9917 03be 0691 12bd 4a87 c3be 6093 37be
000000f0: 2045 03be 1b92 dbbd 479e a9be 91b9 b2be
-0.2402308 -0.21747676 -0.1339091 -0.3725446 -0.2060973 -0.25939903 0.001957345 0.088302575
-0.22739866 -0.00044476494 -0.1275153 -0.23339853 -0.046477422 -0.12939231 -0.18653806 -0.16336778
0.00035428876 0.050599165 -0.3505314 -0.07422024 -0.45633188 -0.086491756 -0.27246815 -0.15116876
-0.24263225 -0.14726596 -0.1401305 -0.35712722 0.17084369 -0.07615935 -0.012051361 -0.08353658
-0.21379136 -0.21809973 -0.09080917 -0.6047369 -0.06740921 -0.2167044 -0.24228966 0.02570713
-0.096196555 -0.23959766 -0.2775767 -0.11660097 -0.02276802 -0.23483254 -0.02613223 -0.21088524
-0.3060022 -0.20025223 -0.1648663 -0.14766188 -0.246739 -0.18014833 -0.17265756 -0.05082554
-0.1280197 -0.035782836 -0.38189155 -0.17927313 -0.12819338 -0.10721227 -0.3312857 -0.349072

bn2.running_mean f4 [64]
00000000: 9cf3 20bd 47a1 fcbf 3da5 94bf 9399 13c0
00000010: 1ec3 11c0 1c79 99bf a6a9 1dc0 7835 0bc0
00000020: b0ff 81bf 839e 03bf fc66 46c0 f391 3fbf
00000030: ff0c 02c0 8af8 333c 1f34 e8bf 8491 b4bf
00000040: 36ad 08c0 30d7 28c0 a0c1 753e 262e 31bf
00000050: a9ae ccbd 6dc5 bdbf ec7f efbf a2e3 3ec0
00000060: 306f ddbe bf2d 95bf 4063 f7bf 628c fcbf
00000070: 4553 79bf 119c 253f 1e34 f2bf 66cf 823f
00000080: 6a5e fcbf 1713 c9bf 5539 efbf 6d9d bbbe
00000090: 89a5 c6bf 2e14 5a3e 6a4e 17bf 6d9b c6be
000000a0: 9915 e5bf 98f4 4ac0 d675 05c0 db89 c4bf
000000b0: a24e 66bf 6e0a 7ac0 441e b2bf 9061 74bf
000000c0: e238 563e 9e73 02bf 5437 1ebb 1fc8 b8be
000000d0: 6c67 5ebf 0d0c 80be 1648 213c fc10 7abf
000000e0: e67c 96bf d96a 0cc0 b773 613e fcbd ddbf
000000f0: b195 e5bf c069 65bf 2c15 06bf 97bb 39bf
-0.039294824 -1.9736718 -1.1612927 -2.3062484 -2.277534 -1.1990085 -2.4634795 -2.1751385
-1.0156155 -0.51413745 -3.1000357 -0.74832076 -2.0320432 0.010984549 -1.8140906 -1.4106908
-2.135572 -2.638134 0.23999643 -0.6921104 -0.09994251 -1.4825875 -1.8710914 -2.9826436
-0.43248892 -1.1654586 -1.9327164 -1.9730341 -0.97392684 0.64691263 -1.8922155 1.0219543
-1.9716313 -1.5708951 -1.8689371 -0.36643544 -1.5519267 0.2129676 -0.59104025 -0.38790455
-1.7897216 -3.1711788 -2.0853171 -1.535457 -0.89963734 -3.9068866 -1.3915486 -0.9546137
0.20920137 -0.5095767 -0.0024141865 -0.3609018 -0.8687656 -0.25009194 0.009843847 -0.97682166
-1.1756866 -2.1940215 0.22016798 -1.7323604 -1.7936307 -0.89614487 -0.52376056 -0.72551864

bn2.running_var f4 [64]
00000000: 0369 5e40 7c91 f940 767f 8840 0997 6440
00000010: 5857 4040 2dd2 9d40 8e8a f440 72f9 e840
00000020: 2aa8 4440 27f5 9740 85b4 a240 25a3 9740
00000030: 9d65 b040 cbb7 a840 fe75 4840 cf73 be40
00000040: 1336 9940 6166 c240 0a50 b040 74c0 7e40
00000050: 2630 fd3f 482e 9040 1005 e040 88e5 6440
00000060: 1636 3a40 1251 1b40 4096 0141 7aec a740
00000070: d0fd 9b40 b126 6f40 55f6 a340 8595 2440
00000080: 9542 7d40 d552 9240 049a de40 ce68 4040
00000090: b72f ba40 a886 4740 8ca6 3e40 d70c 5540
000000a0: 4810 5140 cee5 2d41 07b2 3940 6002 0741
000000b0: 676f 9a40 077d f240 160d b940 d0d2 f240
000000c0: 6c55 a540 0983 7f40 1559 bd40 da90 8840
000000d0: 2a99 4440 94d6 df40 de08 b640 3ab1 c240
000000e0: 2781 2640 a56d e440 7f2e 8240 0332 8040
000000f0: 5b91 d340 0e37 c340 5632 3440 b02c c840
3.4751594 7.7990093 4.265559 3.5717185 3.005331 4.931906 7.6419134 7.28045
3.072764 4.748676 5.084536 4.738665 5.512404 5.2724357 3.1322017 5.951637
4.787851 6.0749974 5.5097704 3.9804964 1.9780319 4.5056496 7.000618 3.5765095
2.9095511 2.4268231 8.099182 5.247617 4.874733 3.7367365 5.12382 2.571626
3.9571888 4.5726113 6.9563007 3.0063968 5.8183246 3.1175938 2.9789152 3.3289087
3.2666187 10.868605 2.901491 8.43808 4.826099 7.577762 5.7828474 7.588234
5.1666775 3.9923728 5.9171243 4.267682 3.0718484 6.9949436 5.6885824 6.084134
2.6016328 7.1383843 4.068176 4.006105 6.6114936 6.1004705 2.8155723 6.255455

conv3.weight f4 [64, 64, 3, 3]
00000000: e93b 573d 9584 903c cebc bbbd d1a9 32bd
00000010: bc0c 90bc ccf2 1bbe 3b6a 16bc 9e90 1a3d
00000020: 7c0b ab3d d0af 273e 02e7 0b3d 3f21 763d
00000030: 0ba8 3a3d 3ef0 623e 5d6c 7c3d a1c7 03bd
00000040: 4f4d a23d 4e74 efbd 556b 0ebd c211 52bd
00000050: dcc8 c43c 4c36 813e c7fa b73c 07a4 c23c
00000060: 603f 833e 4ebf f9bc 0887 0ebc f438 863b
00000070: ca4d a1bc 6cd4 633c 1722 223d 5bee 2abe
00000080: 1463 093d 5002 293d ff06 083e 20b5 573d
00000090: 8425 0d3d 1751 5ebe f865 cb3d 4748 fe3c
000000a0: 31f6 a5bc d83d 9dbd 434a f6bc 7aa2 d5bd
000000b0: 4f13 f7bd d2f8 6d3d 4884 96bc d896 253e
000000c0: 8267 ddbd 4618 cfbd b9aa 033e 670d 44be
000000d0: 24f1 5fbd bc44 803d e589 623c ffaf 2ebd
000000e0: e1d8 e83c cfee c6bc 0670 3abd fb6e 37be
000000f0: 6a79 3c3d daca 12bd 3b43 4dbc 83d5 fb3c
00000100: 192c a1bb 6096 ddbc 58ef e23c 250c b03c
00000110: c9e9 41be 927d d93c abbc 81bd 9c8b a13d
00000120: 4223 cbbc be02 9ebc 6fc1 993c 9de9 883d
00000130: 4527 ddbd 2c95 dcba 9424 053e ba49 923c
00000140: 3405 f73d accd f93d cb61 14bd 4aba 2dbd
00000150: 5113 ca3c 9086 f0bc f01a b23d 545c 7ebc
00000160: c2fa e0bd 2600 8abc ee4a 8cbb 1c59 06be
00000170: 3cfd f2bc 9815 1c3e 0135 a9bd 2d41 6cba
00000180: 378b be3c 4a1c 93bc af18 80bd 17eb 463d
00000190: f3d4 05bd 2826 d0bc abae 753d b5fd 5c3e
000001a0: 70b8 d4bd 1df9 183e 606e db3b f923 593d
000001b0: edbf 763d b1c1 e63d 6ebc a4bd 7235 bcbd
000001c0: 5ccb c5bd 6812 b4bd ad7f 27bd 5c73 8dbe
000001d0: f96e b23c af3d ac3d a8f9 913c cd4b da3c
000001e0: c5f3 8a3d cf7c 3ebd c1b2 40be 4e3a bebd
000001f0: 54b5 743d c8ac 1fbe 5d3a 66be bc9b b8bb
00000200: 7759 8b3d 502a 383d 3bf0 72bd b4c8 63bd
00000210: 3b76 063d 85b9 bf3a c4e1 14be cb8e 183d
00000220: 5cd0 583c 6bdb b8bd 1dac 29bc 87de 82be
00000230: f275 50be e575 12bd 48e0 7cbe de77 18be
00000240: 831f 12bd 79b4 88bd 4188 3e3d 8094 92bd
00000250: 6ad8 993c 1cf7 f4bd 1ccf c43d 3796 d9bd
00000260: d3cb f7bd 6f3b fcbd bbe7 a53d 1eb2 cd3d
00000270: 8af7 83bd febd 36be 25d6 ed3c 6721 223d
00000280: c33f 98bd 3bc2 d7bd 0f4e 133d 98f2 bf3d
00000290: 8969 2fbb a461 113e 6031 bc3d 4205 5d3c
000002a0: 497c b63d 7b49 f63c 716f 0c3e 5b3e af3d
000002b0: 26be 8ebc d9d9 023c 8582 0b3d e180 20bc
000002c0: 54bc 16bd 16a5 91bd 7c4a b53d ac4a 1bbd
000002d0: 0c5c 3abc 1bf9 86bd 2746 1c3e 7ad4 933d
000002e0: e7fe 6cbd 6789 093d 9b5b 07bd 28ed 7a3d
000002f0: 4acf c63c 33b2 05bd bad8 1cbe ad33 183e
00000300: bf3b 38be 1841 06be 1ff4 053c 02a9 93bc
00000310: cfb7 a9bd bb00 87be 7d5e 33be ddc5 973d
00000320: 7a8a ad3d e135 1bbd 69ce e8bd f841 5ebe
00000330: cc61 2b3c 0ebe 093e 8f41 d63c 1525 503c
00000340: 8466 7c3d ea75 96bd ad49 8abd 5f71 2bbc
00000350: 33b6 e3bd 273f 9a3c be87 af3d be14 1b3d
00000360: be56 ad3d 3ca5 2b3e 2800 34bd e55c 473d
00000370: b582 323d a532 48bd 7523 15bc df13 81bd
00000380: e646 4abc fcd1 553d 3889 493d b256 16bd
00000390: a571 f73d 22e5 cebc 6c7a 72bc b916 e8bd
000003a0: 6e25 013e deee b7bd 161e 4dbe bd56 2a3e
000003b0: ae70 68bd 8bd9 023c 7a84 003e 0530 f7bd
000003c0: 7fad a13d 1908 b23b 6b41 03be 4058 833d
000003d0: 34f1 043d 2972 253e d47b 713c c388 47bd
000003e0: 091a 66bd ccf2 b13d 5b80 29bd a3e4 9bbd
000003f0: 416e 8d3c 1c4f 3abd 4f0c 1d3e 839b 4cbe
0.05254737 0.017641345 -0.09166871 -0.04361898 -0.017584197 -0.15229338 -0.009180601 0.037735574
0.083518 0.16375661 0.034155853 0.0600903 0.045570415 0.22161958 0.06162678 -0.032172803
0.07924902 -0.11692105 -0.03477033 -0.051286466 0.024021558 0.25236738 0.022458447 0.023759855
0.2563429 -0.030486729 -0.008699186 0.004096145 -0.019690413 0.013905626 0.03958329 -0.16692488
0.033541754 0.04126197 0.13283919 0.05266297 0.034459606 -0.21710621 0.09931558 0.031040324
-0.020258995 -0.076778114 -0.030064708 -0.104313806 -0.1206423 0.05809862 -0.018373623 0.16170824
-0.10810758 -0.10112052 0.12858094 -0.19145738 -0.05467333 0.0626311 0.013826822 -0.04264831
0.028423728 -0.024283795 -0.04551699 -0.1791343 0.046014227 -0.035837986 -0.012528236 0.030741459
-0.004918587 -0.027049243 0.027702019 0.021490166 -0.18936838 0.026549134 -0.06334814 0.078879565
-0.024797086 -0.019288417 0.018768994 0.06685183 -0.10798506 -0.0016829125 0.13002235 0.017857421
0.12061539 0.12197432 -0.036226075 -0.042413987 0.024667414 -0.02936104 0.08696544 -0.015524942
-0.10985328 -0.016845774 -0.0042813933 -0.1311993 -0.029661767 0.15242612 -0.08262063 -0.00090123975
0.023259742 -0.017957825 -0.06254708 0.048564043 -0.032673787 -0.02540882 0.05998103 0.21581157
-0.10386741 0.14938779 0.0066965073 0.05301282 0.06024163 0.112674125 -0.080437526 -0.091898814
-0.09657928 -0.08792573 -0.040893245 -0.27627075 0.021781432 0.08410203 0.01781924 0.026647473
0.067847766 -0.046505746 -0.18818189 -0.092884645 0.05974324 -0.15593255 -0.22483201 -0.0056337994
0.068041734 0.044962227 -0.059311133 -0.055611327 0.032827597 0.0014627433 -0.14539248 0.037245553
0.0132332705 -0.09026226 -0.010355976 -0.255604 -0.20357493 -0.035756964 -0.24694932 -0.14889476
-0.035674583 -0.066750474 0.04651666 -0.071572304 0.018779952 -0.11961195 0.096098155 -0.10624354
-0.12099423 -0.123160236 0.0810084 0.10043739 -0.06443699 -0.17845914 0.029032776 0.039582636
-0.074340366 -0.105350934 0.035963114 0.09372443 -0.0026765785 0.14197403 0.09189105 0.013490023
0.08910424 0.030064335 0.13714387 0.08556815 -0.017424654 0.007986509 0.03406002 -0.009796352
-0.036800697 -0.07111566 0.088520974 -0.03791301 -0.011374485 -0.06590482 0.15261136 0.07218261
-0.05786028 0.033578303 -0.033046346 0.061261326 0.024268765 -0.032640647 -0.1531705 0.14863463
-0.17991541 -0.13110769 0.008175879 -0.018024925 -0.08287012 -0.26367745 -0.17516513 0.07410786
0.08473678 -0.03789318 -0.113674946 -0.21704853 0.010460328 0.13451406 0.026154308 0.012704154
0.061621204 -0.07346709 -0.06752334 -0.0104640415 -0.11118736 0.018828942 0.08570813 0.03786158
0.084638104 0.1676225 -0.04394546 0.048672576 0.043581683 -0.048876423 -0.009102692 -0.06302618
-0.012346005 0.05220221 0.049203128 -0.036703773 0.12082223 -0.025255743 -0.014799695 -0.11332459
0.12611935 -0.08981107 -0.20031008 0.1663465 -0.056748085 0.007986437 0.12550536 -0.12069706
0.0789442 0.005433094 -0.12817924 0.06413317 0.03245659 0.1615683 0.014738996 -0.04871441
-0.056177173 0.08688888 -0.041382175 -0.07611968 0.017264487 -0.0454856 0.15336727 -0.19981198

conv3.bias f4 [64]
00000000: 13c0 d0bb e2c3 f539 35d9 a83c dce2 81bc
00000010: d6fc e3bc 4a7a 1dbc 143a 9fbc 4448 c3bc
00000020: 9ee0 54bb 310a 8cbc e1c2 8b3c 2490 27bd
00000030: b454 15bd 0ced cabc cda1 c83c f1c8 08bc
00000040: 06f4 05bd 8ec3 ed3c 9376 523b 6580 debc
00000050: 34bc 343d 566f e53c 4976 22bd 9c42 fcb8
00000060: 35f5 d33c c040 c9bc 3245 abbc 9149 21bc
00000070: 6691 d2bc a178 e0bb 005f 22bc a8cd a53b
00000080: 4219 04bc c81c 1b3d aaf8 25bd 7437 6dba
00000090: d0b9 43bb c45d 36bd 33e7 53bc 7149 b3bc
000000a0: 89c0 dbbc 49da 12bd d296 203d cc3d 0dbd
000000b0: fb4d 9d3c a2ee 8b3b acc3 253d 1d3f 50bc
000000c0: ffbe 24bd f7a8 7dbc cbf8 013c 47a2 8abc
000000d0: b8e1 5d3b 8c8c 67bc 3333 ffbc 7a2c e4bb
000000e0: b8f7 11bc f2ba 803c 958d 8ebc 5b61 3cbd
000000f0: 80e2 073d 2977 ff3c 3c68 0ebc 9c55 34bd
-0.0063705533 0.00046875986 0.020611385 -0.015855245 -0.027830523 -0.0096116755 -0.019436873 -0.02383817
-0.0032482515 -0.017094703 0.017060699 -0.040908948 -0.036457732 -0.024771236 0.024491215 -0.008348689
-0.032703422 0.029023912 0.0032114133 -0.027160833 0.044124797 0.02800719 -0.039663587 -0.00012028703
0.02587376 -0.024567008 -0.020907018 -0.0098442 -0.025704097 -0.0068503176 -0.009910345 0.0050599165
-0.008062663 0.037869245 -0.040520348 -0.00090490957 -0.0029865392 -0.044523016 -0.01293354 -0.021885606
-0.026825206 -0.035852704 0.039206333 -0.034482762 0.019202223 0.0042703906 0.04046981 -0.01271036
-0.04022121 -0.015482179 0.007932852 -0.016923083 0.0033856463 -0.01413263 -0.031152343 -0.00696331
-0.008909158 0.015714142 -0.017401496 -0.045991283 0.03317499 0.03118475 -0.008691844 -0.044026956

bn3.weight f4 [64]
00000000: d91e 8b3f 7dca 923f 0829 963f 796e 753f
00000010: 5b80 823f f6b3 803f edd2 613f 64b2 6d3f
00000020: 2952 493f c73a 923f 8d5c 6d3f 0381 903f
00000030: caea 8f3f a6a4 6b3f e357 813f 4096 863f
00000040: f364 853f 0262 813f a5ba 863f 6398 823f
00000050: b8a5 783f 552b 843f ec98 4a3f 065f 8f3f
00000060: 1a6b 853f d99a 893f b395 783f d08a 7a3f
00000070: b8d6 663f be7a 7f3f 3277 623f 4599 3b3f
00000080: d97a 5d3f 61e8 913f 4294 5d3f f530 963f
00000090: bcf3 793f d588 8c3f 14ce 713f d6fa 913f
000000a0: 0945 743f 9245 9b3f 5f0d 823f 2407 813f
000000b0: 09e8 8c3f c2c3 5b3f 1808 693f dc2f 5e3f
000000c0: 8442 7f3f 349e 883f 6ba2 843f b3b3 723f
000000d0: f073 4c3f 2375 7e3f f296 623f e6e5 793f
000000e0: a24f 7c3f 578f 513f 63fe 4d3f e8fa 7e3f
000000f0: 8100 3d3f 018e 923f 42e8 8b3f f33d 6c3f
1.0868789 1.1468045 1.1731272 0.9587169 1.0195421 1.005492 0.8821247 0.9285033
0.7864099 1.1424187 0.92719346 1.1289371 1.1243527 0.9204811 1.0104946 1.0514603
1.0421432 1.0108035 1.0525709 1.0202755 0.97127867 1.0325724 0.7913959 1.1200874
1.042331 1.0750381 0.9710342 0.9786806 0.90171385 0.99796665 0.8846313 0.73280746
0.86515576 1.1399041 0.8655435 1.173369 0.97637534 1.0979258 0.94455075 1.1404674
0.9541784 1.2130606 1.016033 1.0080304 1.1008312 0.8584558 0.91027975 0.8679178
0.9971087 1.067328 1.0362066 0.9480545 0.79864407 0.99397486 0.88511574 0.9761642
0.9855901 0.81859344 0.8046629 0.996016 0.73828894 1.1449586 1.0930254 0.92282027

bn3.bias f4 [64]
00000000: 91b8 0fbe cd7b 8dbc a9cd b4bd 9a90 03be
00000010: b00d a5be 0624 b2bd abb4 8cbe f91f ffbd
00000020: 7d3a 93be 06f3 63be 464c aabe a4c9 81be
00000030: 1380 26be 496d 27be ae0e 6ebe d811 08be
00000040: 55e6 d0be d910 51bd 60d1 6cbe 883c 31be
00000050: f49b f8bd 0289 22bd 6f89 debd 0f5b 9dbd
00000060: 9e80 2fbe 8ff6 83be dc7a 48be fec8 d6bd
00000070: c188 7bbe d434 acbe 570e 6abe 746a f8bd
00000080: 24bb 0cbe 20c6 14be 91c4 73be 957e c1bd
00000090: 7342 66be 57e0 03be 14fc debd 3b86 09bd
000000a0: 7b07 27be 1d67 e7bd 1cd0 7abe 84d7 2ebe
000000b0: 1405 8cbe ae03 79be db67 95be 1c00 19be
000000c0: 37a0 a6be 8611 bfbb 703f 84be 8559 83be
000000d0: 51a4 45be f76c 843e cf14 1abe 045e 343e
000000e0: 1979 95bd b41a a8be bb9d ddbe f0c7 ccbd
000000f0: ef2e 86bd be3b 57be 2650 51be e9ad f6bd
-0.1403525 -0.017270947 -0.08828289 -0.1284813 -0.32237005 -0.08698277 -0.2748159 -0.1245727
-0.2875556 -0.22260675 -0.33261317 -0.25349152 -0.16259794 -0.16350283 -0.23247787 -0.13288057
-0.4080073 -0.051041458 -0.23126745 -0.17308247 -0.12139121 -0.039681442 -0.10866057 -0.07683384
-0.17138907 -0.25774047 -0.19578117 -0.10487555 -0.24563886 -0.33634055 -0.22857033 -0.12129679
-0.13743263 -0.14528704 -0.23805453 -0.09447972 -0.22486286 -0.12878548 -0.10887924 -0.033575278
-0.16311447 -0.11298964 -0.2449345 -0.170744 -0.27347624 -0.2431781 -0.29180798 -0.14941448
-0.3254411 -0.0058309464 -0.2582965 -0.25654235 -0.19300963 0.25864384 -0.15047 0.17613989
-0.07298488 -0.32832873 -0.432844 -0.099990726 -0.065519206 -0.21018884 -0.2044073 -0.120448895

bn3.running_mean f4 [64]
00000000: f33e 52be bb15 bfbf b7bb 03c1 4445 263e
00000010: c734 53c0 a448 8dbf d4ba 13c0 b48e 34bf
00000020: 83fc c0bf 806b fbbf 31d6 d9bf 0521 21c0
00000030: d069 30bf bece c0bf 5b9d 30c0 4f4b 34c0
00000040: 3d5b 75c0 b61c a4c0 d295 6fc0 e907 e13e
00000050: 364b f53d f17c 5640 40f2 76bf 6ee3 d1bf
00000060: c084 3bbf 1e1d 35c0 e9b8 12c0 6591 d2c0
00000070: 3253 25c0 9728 5ac0 5e51 b6bf 2882 1740
00000080: 11b8 a6be c9e5 20c0 bedc 8fc0 6ae8 fcbf
00000090: 0f18 3bc0 9a93 dfbf 99bd fd3e c766 bdc0
000000a0: eef9 69bf 6bcc c8be f2dd 6ec0 e697 99c0
000000b0: b182 2bbf 4af4 6f3e fa15 8dc0 3aa3 10c0
000000c0: c953 d6bf ff46 a1bf 2e5c 85bf 92c9 06bf
000000d0: c2f0 0bbf ad89 ba3f bd31 8dc0 c299 37bf
000000e0: ecbe 93bd 41e8 a43f 132d 9dbf aae5 d7bf
000000f0: 3eae c9bf 5b5c f1bf f959 8abf 6553 b3c0
-0.20531826 -1.4928507 -8.233329 0.1623736 -3.3000963 -1.1037793 -2.308278 -0.7053025
-1.507706 -1.9642181 -1.7018491 -2.5176404 -0.6891146 -1.5063093 -2.7596042 -2.8170965
-3.8336937 -5.1285048 -3.7435193 0.43951347 0.11977236 3.3513758 -0.96463394 -1.6397531
-0.73249435 -2.8299022 -2.292536 -6.5802484 -2.5832028 -3.4087274 -1.4243581 2.367319
-0.32562307 -2.514025 -4.495696 -1.9758427 -2.9233434 -1.746692 0.49558714 -5.918796
-0.9139699 -0.3921846 -3.7322965 -4.7997923 -0.66996294 0.23433033 -4.4089327 -2.2599626
-1.6744319 -1.2599791 -1.0418756 -0.5265132 -0.5466424 1.4573265 -4.4123216 -0.7171899
-0.0721415 1.2883378 -1.227938 -1.6866963 -1.57563 -1.885631 -1.0808707 -5.60393

bn3.running_var f4 [64]
00000000: 7191 5b41 06f6 6541 acdc d941 41e2 5641
00000010: baad ef40 8c3d 3341 c61b 0541 ac06 3441
00000020: 3f2c 1941 6811 0a41 17e1 2941 3a77 0b41
00000030: ef32 5041 8759 e640 12cb 2d41 3844 1941
00000040: c447 f440 f2e2 2d41 7565 9b41 250b 0541
00000050: 6d81 1241 c428 2d41 0a94 e740 f8fc 1541
00000060: d63a 5441 0098 3c41 e360 b341 e916 be41
00000070: 4a79 4141 55ff 3041 5330 2d41 cf2e 1c41
00000080: 0eac 1341 49dd 1041 c911 6141 1a5f 5341
00000090: bf92 1841 e81e 3b41 6c65 ef40 4405 ea41
000000a0: 1370 2641 8600 2a41 f3f3 6441 aef9 8e41
000000b0: db81 7a41 7743 5641 cf03 2941 58fa 0b41
000000c0: 682d f940 e5f6 7c41 7e73 5b41 620d 0b41
000000d0: c4d6 1a41 2a44 2341 b3bf 4f41 c10f 8241
000000e0: 4eef 0841 b777 1d41 3510 c840 4850 1041
000000f0: c0f5 1541 a999 1141 dec7 4e41 2300 9641
13.723008 14.372564 27.23275 13.430238 7.489957 11.202526 8.319281 11.251629
9.573302 8.62925 10.617454 8.716608 13.012435 7.1984286 10.862078 9.579155
7.6337605 10.867907 19.42454 8.315221 9.156598 10.822453 7.236821 9.37426
13.264364 11.787109 22.422308 23.761187 12.092112 11.062337 10.824298 9.761428
9.229506 9.054025 14.066842 13.210718 9.535827 11.695045 7.4811306 29.252571
10.402362 10.625128 14.309558 17.871914 15.656703 13.391471 10.56343 8.748619
7.7867928 15.810277 13.715696 8.690767 9.677433 10.204142 12.984302 16.257692
8.558424 9.841727 6.2519784 9.0196 9.372498 9.100015 12.923796 18.750067

fc1.weight f4 [128, 576]
00000000: 3914 eabd ccff 18bb e565 553d b0c3 0ebd
00000010: e020 e6bb 031f d0bd d7ed 10bd d104 a23d
00000020: 2b99 da3d fc8b 5a3c af93 4ebc 5cf5 14be
00000030: 0234 e1bc a707 2cbe 44fb 63be 88a7 c53d
00000040: 7595 30ba 5075 89bd 8d43 8b3d 1cda 3f3d
00000050: 81ff 90bd 720b 3dbc f2cc b13e 3515 293d
00000060: 6566 a0bd f249 c9bd e6c2 e33c 46d7 dd3d
00000070: 2b8a e13d 4bac 333c d968 82bd 0551 953d
00000080: 2916 06bd 7bb2 09be 1e6e 29be 1f53 abbd
00000090: 7d14 c93c 769d c7bd 0196 abbd 2a79 01be
000000a0: af3d edbd dd99 f53c ba5f e83d 9922 cdbd
000000b0: 1386 18be 4196 f13d d612 2d3d 5d23 86bb
000000c0: a6db d73d 1d26 d43b 966a 793d e29f 9cbd
000000d0: 6337 32bd 4cb9 ec3c 89c9 233e 1ea1 e93d
000000e0: 4a41 cebc 1680 813d 96a2 f73c 5ae1 0ebe
000000f0: 85c4 2a3e bb58 603e 9e95 3a3e c397 b93d
00000100: 5508 733d 379e f83d 0f91 cfbc abe8 a2bc
00000110: 8283 b8bd 7001 803d c299 073e fa33 463d
00000120: d409 573d 4468 733d ce89 4ebc 5d9c 14bc
00000130: ec44 4bbd 5abb d9bb 1b8a 853d db07 79bd
00000140: 6283 b03d 47ad f03c 846b 6cbd 12a9 4dbd
00000150: c0fd 9dbd a6ed debd 5141 b7bd 828b 163e
00000160: 8ac6 99bc 0da6 d7bb da83 153d b8ca 933d
00000170: a2ab 5a3d 4933 32bd 94a1 59bd 9f08 b83d
00000180: f955 453e 5de9 813e 906b 603e 1fae d8b9
00000190: 65b0 5f3b 4e91 a4bd 09fa 00be 3a81 a3bb
000001a0: 228f 8d3c 9460 95bd 40f3 9cbd 0962 ac3d
000001b0: 5b92 e7bc 8056 eb3d 0021 103e bab6 9f3e
000001c0: afaf c03d 52e9 93bd ce56 10be 35ba 1f3e
000001d0: 9135 d0bc 3991 dc3b 208f d53d c731 89bd
000001e0: dfd7 a6bd a888 ef3c 5476 62bd b0a7 66be
000001f0: ccc4 c0bc ecf3 d03d bbe9 043d e8b2 84bd
00000200: d525 5b3c 4784 18bd f8b2 f73c 2f4b 813d
00000210: 5ca4 3abe cf31 65bd eb93 aabd 38e3 88bd
00000220: 32be 1a3d acb5 073d ceb4 96bc 7029 cabd
00000230: d11f 3e3d 8733 f63c 8295 02be aab8 7ebd
00000240: c871 d9bd a271 4b3d 778a 64bc 546b 2d3c
00000250: 6b35 dfbd f064 6fbe 84f5 06bd 8fb8 ecbc
00000260: 1224 a03c 4951 b4bd 4550 18bd b149 33be
00000270: 2e31 7fbd 40c2 103e ed63 763d 19ce 7fbe
00000280: aba4 6cbe 26cd 8ebc a1d1 ed3c d6f9 5a3c
00000290: f70f f2bd 2b3e e4bd 09de 1b3e 2678 c63c
000002a0: 42da 2a3d f6b6 b83d 687c b5bd 5d4c 53bc
000002b0: 8876 f03a 1772 243d 8fbc 3cbd 9560 00be
000002c0: 9224 2dbe d4b7 803d 99f5 023d 1407 a63d
000002d0: 11f2 203e 3c75 36bc e9a1 1abc 0003 8f3d
000002e0: b65b aabc fc68 01bd 1d09 9c3c d713 a9bc
000002f0: 25fa e93d 75ec 0d3c 6631 2a3d 690f b7bd
00000300: e53d 123d 0bb9 a7bd 3d07 9dbd 959c 393e
00000310: ab17 b53d 3fad a2bd 2599 52bc a35b 10be
00000320: c4a3 dc3d 8e2e 8a3c 8adf c8bd 255c 0fbd
00000330: 8370 b9bd a232 7c3e 9690 d33d 9493 5b3d
00000340: 69d1 aabd 2b5b 69bc 1519 783c 0f86 53bd
00000350: 6fc4 01bd c253 a8bd e757 423d b00d a53d
00000360: 2683 28be 32e9 b7bd 3576 faba 6d90 44bd
00000370: 0da2 5a3d d195 35bd 0117 cabd 14f3 9a3c
00000380: 4b32 c03d c00b 733c cd56 21bd a5df 19bb
00000390: 531d 0abe 7e50 b3bd 1b41 9fbd e7ca d5bc
000003a0: 6bf7 0e3d f6e2 013e 458c df3c 5faa 0dbd
000003b0: 5107 913d 1e49 09be e38b b73d 34c7 623c
000003c0: 09c8 823d 6996 323e a37e 4abc b3e0 863c
000003d0: 2230 503d fbf3 ce3d 13af fdbd 4819 f53d
000003e0: 0617 be3b de31 67bc cfbe dbbd aaf3 75ba
000003f0: c16f b43d 30bb 75bc 4e36 f8bb 513f c9bd
-0.114296384 -0.0023345826 0.052099127 -0.03485459 -0.007022962 -0.10162165 -0.03538307 0.07911075
0.10673746 0.013339039 -0.012608453 -0.14546722 -0.02749062 -0.16799794 -0.22263819 0.09651095
-0.0006736138 -0.06711829 0.06799994 0.046838865 -0.070799835 -0.011538373 0.34726673 0.04127999
-0.0783203 -0.09828557 0.027802896 0.10832076 0.110126816 0.010966371 -0.06367654 0.07290844
-0.032735977 -0.13446991 -0.16545913 -0.083654635 0.024545902 -0.0974683 -0.0837822 -0.12643877
-0.11584031 0.029980594 0.113463834 -0.100163646 -0.14894895 0.11796237 0.04225429 -0.004093571
0.105399415 0.00647427 0.060892664 -0.07647683 -0.043509852 0.02889695 0.15994848 0.11407684
-0.025177617 0.063232586 0.030228894 -0.13953152 0.16676529 0.21908848 0.18221137 0.090621494
0.059334118 0.12139552 -0.025337724 -0.019886335 -0.09009458 0.06250274 0.13242248 0.048389412
0.052499607 0.059425607 -0.012606097 -0.009070483 -0.049626276 -0.0066446485 0.06520482 -0.060798507
0.08618809 0.0293795 -0.057719722 -0.050210066 -0.077144146 -0.108851716 -0.08948005 0.14701656
-0.018771429 -0.006581074 0.036502697 0.072164 0.053386338 -0.04350594 -0.05313261 0.08986019
0.19271077 0.25373355 0.21916032 -0.0004132846 0.003413224 -0.08035527 -0.12595381 -0.0049897702
0.017280165 -0.072938114 -0.07663584 0.08417136 -0.02826803 0.11491108 0.14075089 0.31194097
0.09408509 -0.07222237 -0.14095613 0.15598376 -0.025416167 0.006731179 0.104276896 -0.066989474
-0.08146643 0.029239967 -0.055288628 -0.22524905 -0.02353134 0.102027744 0.032449465 -0.06479436
0.013375719 -0.037235525 0.030236706 0.06313168 -0.1822676 -0.055955704 -0.08328994 -0.066839635
0.03777904 0.03313224 -0.018396761 -0.09871185 0.04641706 0.030053867 -0.12752345 -0.062187828
-0.10617405 0.049668916 -0.013949028 0.010584671 -0.108988605 -0.23378348 -0.032948986 -0.028896598
0.01954845 -0.088045664 -0.037185926 -0.1750858 -0.06230276 0.141366 0.06015389 -0.24980964
-0.23109691 -0.017431807 0.029030623 0.01336523 -0.11819451 -0.1114467 0.15221418 0.024227213
0.041712053 0.09019272 -0.08861619 -0.012896624 0.0018345872 0.040147867 -0.04607826 -0.12536843
-0.16908482 0.062850624 0.0319725 0.08106819 0.15717341 -0.011136349 -0.009438016 0.06982994
-0.020795684 -0.03159426 0.019047314 -0.020639343 0.114246644 0.008662333 0.041551016 -0.08938486
0.03570356 -0.08189591 -0.07667396 0.18126138 0.08842405 -0.079432 -0.012853895 -0.14097457
0.10773423 0.016867902 -0.09808262 -0.034999985 -0.09054663 0.2462869 0.10330312 0.05360754
-0.08340723 -0.014242928 0.015142699 -0.05164152 -0.031681474 -0.082191005 0.04744711 0.08059251
-0.16456279 -0.08980025 -0.0019108715 -0.047989298 0.0533772 -0.04433233 -0.09867669 0.018914737
0.093845926 0.014834344 -0.03938942 -0.002347925 -0.13487749 -0.08755587 -0.0777609 -0.026097728
0.034903925 0.12684235 0.027288565 -0.034586307 0.070814736 -0.13406798 0.08962228 0.013841439
0.0638581 0.1744019 -0.012359294 0.016464567 0.050827153 0.10105129 -0.123869084 0.11967713
0.0058010845 -0.01411101 -0.10729753 -0.0009382317 0.08810378 -0.014998242 -0.007574833 -0.0982653

fc1.bias f4 [128]
00000000: bd01 1a3d e9df ce3b ca8a 4c3c 2614 b43b
00000010: 4626 fdbc 4820 9ab9 08cc d2bc 04b1 cb3c
00000020: e54c 1b3d c4ba 9dbb 323a 94bc baa4 b63c
00000030: f50b 8cbc a9ef 0abc 995f 143c da73 143d
00000040: 5a8e 99bc 99be cd3c 0ca1 0bbc 2425 f7bb
00000050: 6941 08bd c3f9 fb3c 0dc4 93bb 37e4 62bc
00000060: ffca 013d 4ace 803a 29eb 2dbb a988 19bd
00000070: 6c05 1f3c b555 03bd d119 23bd f5b3 623c
00000080: 960e 193d accf 8fbc 6921 bc3c 90a8 05bb
00000090: d11c 4a3c 08f8 a8bb 1305 79bc da1c c139
000000a0: 3000 893c 2674 91bc 85ae 893c 12ce 5d3c
000000b0: fdac 80bc a63e d5bc c62e 0a3a b4da 823c
000000c0: 5509 83bb 931b 333c 4a27 1abd 5198 013d
000000d0: 2ec4 e23c f783 5a3c 7cb9 a03c 7a8c 6ebc
000000e0: 8157 9a3c 09e4 2eba 336c 69bc 4210 1e3d
000000f0: b89d 0e3b 56ad 24bd 3a6e 83bc 7d8b e7bc
00000100: 18bd c63c a498 23bd 368a bcbc f83c 17bb
00000110: 84e3 5abc 504f 8bbc f1cd ed3c 38bb 733c
00000120: 4b99 a63c 7517 223d 98cd 73bc 2574 94bc
00000130: 5e58 89bc fc0b 9239 f6ed 8a3c 722c 0ebb
00000140: 4de3 273d 1db3 2abd bea6 4fbc 76a2 e4bc
00000150: 3f4d fcbb 598e 8fbc 836d a7bb 4a96 2f3d
00000160: d9bf 67bb a903 13bd d1a6 8abc ee69 01bd
00000170: b1da f0bb 838b 203a 1a01 33bb 76ff 50bc
00000180: c09e e3bc 65d8 53ba 04a5 8fbb d274 eb3c
00000190: e546 5b3c 9d66 d53b 9016 cbbc 1780 d1bb
000001a0: b748 9cbc 7c0b b2bb ca3b d03c e4af 18bc
000001b0: ea91 303d 379c 6b3c 8829 413b 2b9e 913b
000001c0: 12b0 923c 55af 863c 85d4 f53c 4b5e b93c
000001d0: ee08 a33c 68b3 173d 253d e1bc 78f6 ce3c
000001e0: 8a20 ccbc 189f d8bb 0891 30ba 0a86 623c
000001f0: 5255 86bc 5914 59b9 5085 ab3c 4606 d6ba
0.037599314 0.0063133133 0.012484262 0.005495566 -0.03090204 -0.0002939722 -0.025732055 0.024864681
0.03791513 -0.004813524 -0.018094156 0.022295345 -0.017095545 -0.008479991 0.009055995 0.036243297
-0.018744636 0.025115298 -0.008522283 -0.0075422693 -0.033265505 0.030758744 -0.004509455 -0.013848356
0.031687733 0.0009827104 -0.0026537871 -0.037483845 0.0097058825 -0.03206416 -0.039819542 0.01383685
0.037367426 -0.01755508 0.02296515 -0.002039466 0.012335972 -0.0051565208 -0.015198964 0.00036833325
0.016723722 -0.01775558 0.01680685 0.0135379005 -0.015707487 -0.02603085 0.0005271252 0.015973426
-0.003998915 0.010931867 -0.037635125 0.0316394 0.027681436 0.013337127 0.019619696 -0.014559859
0.018840553 -0.0006671553 -0.014246988 0.038589723 0.0021761488 -0.04020437 -0.016043771 -0.028264755
0.024260089 -0.03994049 -0.023015123 -0.0023077112 -0.013359908 -0.017005593 0.029028865 0.014876179
0.020336768 0.03957315 -0.01488056 -0.018121788 -0.01676577 0.0002785622 0.016959172 -0.0021693972
0.040988255 -0.041674722 -0.012674032 -0.027909499 -0.007699638 -0.017523931 -0.0051094904 0.042867936
-0.0035362153 -0.035892162 -0.016925247 -0.031595163 -0.007350289 0.00061243045 -0.002731389 -0.012756219
-0.027785659 -0.00080812565 -0.004383685 0.028742228 0.013383602 0.0065124766 -0.024791032 -0.0063934433
-0.019077642 -0.005433498 0.025419135 -0.009319279 0.043107904 0.014380506 0.0029474217 0.004443904
0.017906222 0.016441027 0.030008564 0.02262797 0.019901719 0.03703633 -0.027494976 0.02526401
-0.02491786 -0.0066107623 -0.00067354785 0.013825903 -0.016398106 -0.00020702313 0.020937592 -0.0016328774

bn4.weight f4 [128]
00000000: bde0 b13f 8fc7 a33f 0b3f ad3f ec4c b33f
00000010: f4f9 ad3f 079b b03f 3ff4 aa3f a686 b23f
00000020: d56e bb3f f431 bb3f 5b13 a83f 865b ab3f
00000030: 2897 be3f 7d7c c13f 563a b33f 7d7e b93f
00000040: a2d9 a43f 1326 b53f 686f b43f d8f3 c33f
00000050: 1136 9e3f 05d9 c33f a637 a53f 80c6 b23f
00000060: 2f20 b63f 133d a13f 85f1 a63f e66d bc3f
00000070: 031b a93f b426 bf3f c2b3 b93f a6ea d13f
00000080: 884e a33f 759c b33f 5a0c a23f 3730 b23f
00000090: bba1 b53f 1ce0 9d3f dda6 b03f e1bf af3f
000000a0: cb74 b43f ea7d aa3f f9ce ba3f 02a3 af3f
000000b0: e3e3 b03f 50dc b63f d34e a73f fcd4 a33f
000000c0: 6984 a13f dc7c bb3f cd4b b93f 2c3b a43f
000000d0: 76ec ab3f 08eb b03f 24fa 9d3f 6270 ae3f
000000e0: ff7c bb3f 6854 ab3f 2d7d b13f 1667 bf3f
000000f0: 4c29 ac3f 0499 c43f e1d3 af3f 6d2b b03f
00000100: 15c4 b03f 3ba6 b23f be7c b33f 2edb b53f
00000110: 928f b23f 2ac8 af3f 453c b93f 5b3e b33f
00000120: bff7 b63f ea2a bc3f 912c 9e3f 83fc 993f
00000130: 6a57 a53f bbb2 ae3f 2fb6 b13f ee8f ad3f
00000140: b011 b63f afb7 ab3f 55ff b03f 4848 c83f
00000150: 1b22 c33f 1f3d a63f d1e4 b83f 14b9 a63f
00000160: 99e7 b83f 5918 b33f ce49 ac3f d21f a53f
00000170: 02ca b73f dd71 ac3f 47df b53f 1e15 bf3f
00000180: e138 b83f 730e ae3f e654 c63f db57 9f3f
00000190: ec28 af3f 642b d03f 88e6 b33f 333f ad3f
000001a0: a9f9 9f3f dd69 b93f 9db8 af3f d99a a93f
000001b0: d5d9 af3f 9192 983f 73ff c13f 2073 d13f
000001c0: c1cd 9f3f 5e50 be3f 64d5 a23f b48d a83f
000001d0: 0963 c23f 95be af3f 1dfc a53f 7b5e b53f
000001e0: 6505 bb3f 0cea ab3f b23c a83f 57bb af3f
000001f0: 6119 b53f 84e8 b53f 557b ab3f 8437 c43f
1.389671 1.2795275 1.3534864 1.400785 1.3591905 1.379731 1.3355788 1.3947341
1.4643198 1.462462 1.3130907 1.3387306 1.4889879 1.5116116 1.4002178 1.4491726
1.2878916 1.4152244 1.4096498 1.530879 1.236025 1.5300604 1.2907608 1.3966827
1.4228572 1.2596763 1.3042456 1.4721038 1.3211368 1.4933686 1.4507983 1.6399734
1.2758341 1.4032122 1.2660019 1.3920964 1.4189981 1.2334018 1.3800923 1.3730432
1.4098142 1.3319676 1.4594413 1.3721621 1.3819546 1.4285984 1.307093 1.2799373
1.2618533 1.4647479 1.4476258 1.2830558 1.3431537 1.3821726 1.2341962 1.3628047
1.4647521 1.3385134 1.3866326 1.4953334 1.3450103 1.5359197 1.3736535 1.3763252
1.380984 1.395698 1.4022443 1.4207513 1.3950064 1.373296 1.4471518 1.4003404
1.4294356 1.4700596 1.235735 1.2030185 1.2917302 1.3648294 1.3883723 1.3559549
1.4224148 1.3415431 1.3827921 1.5647058 1.5244783 1.2987403 1.4444829 1.3025231
1.4445678 1.3991805 1.3460023 1.2900336 1.4358523 1.3472248 1.4208764 1.492832
1.4392358 1.359816 1.5494659 1.2448686 1.3684363 1.6263242 1.4054728 1.3534912
1.2498065 1.4485432 1.3728215 1.3250381 1.3738352 1.1919729 1.5156082 1.6363258
1.2484666 1.4868276 1.2721372 1.3168244 1.5186473 1.3730036 1.2967564 1.4169458
1.4611021 1.34308 1.3143523 1.3729047 1.414837 1.4211583 1.3397013 1.5329442
