saved_models/rotate+gan+10samples.pth (torch, 537960 bytes, 26 tensors)

conv1.weight f4 [32, 1, 3, 3]
00000000: f50c 98bd f32e 1abe f3d2 963d 0628 e8be
00000010: fc02 b03d 8a43 b13e f64e 753d 556d 623e
00000020: 644f 3d3b 09d3 45be 2cb7 8ebe eadb 41be
00000030: e2b4 8c3e 2bf1 91bd 105a af3e 3fce a63d
00000040: 310e 67be bd3f b6be 65e2 c53d da46 963e
00000050: f657 91be d159 d7bd bb84 b13e 3783 c2be
00000060: ac9d b43d b830 7abd 28e4 eabc 4552 cebd
00000070: 9a56 933e 6141 ebbe 5063 2b3e af91 963d
00000080: 0ea0 c1be cd06 e93a dd10 93be 2386 1dbe
00000090: 4afe f3bd 847f d2be e95d 42be 1d03 a63e
000000a0: d8b7 5abd 993f 69be c74c 303e 7e2f 8a3e
000000b0: c022 5d3e 1d5f 973e da4e d9be f7c7 5dbe
000000c0: 1c5a 29bd e84b 243e f9af b8be fca7 6a3e
000000d0: 435e 7f3e 9de4 853e 0a68 123d 9f69 4b3e
000000e0: 0761 c23d 1965 c2be b98c dfbd 7b02 86be
000000f0: d2a5 54be 0752 40be 30d4 663d 7246 8c3e
00000100: 4020 2e3e a55e 723e 7eb8 bfbd 4687 043e
00000110: c232 413e 61db 663e 9710 a9bd c7b0 863e
00000120: e3cf 5e3d b4ae 693e 4a56 77bd 5411 09be
00000130: d5bf 573e 0a83 a93d 2e4e adbe 1d65 89be
00000140: 7ea0 383e 951d 873e 00e3 84be 9ae3 a9be
00000150: 261a 4f3d eb4d 8f3e d944 963d f038 a3be
00000160: 11e6 adbe 2784 123e 5d7c 373e 0609 ae3e
00000170: c23e b73d 24b8 ab3d 7e6c 72bd 4398 cabc
00000180: a0a9 babe 0028 31be 9d3d cebe d3eb 62bd
00000190: a474 03be 7753 3e3e ff0e 3ebe acb9 83be
000001a0: 686a 943e aa17 6b3e 098b b4be c9ce 723d
000001b0: 0ec8 dcbe 72a6 2dbe 3904 abbd 2d40 503c
000001c0: ed3f 513d 5340 56be f3e2 1d3d e32f a7be
000001d0: 33b5 b93e 3c88 bd3d aa03 583e 2a4a c63c
000001e0: 8189 e33d f16a c6be 1aa0 bbbe e2ae 253e
000001f0: 2ce0 50be 5da4 a43e 65e8 afbe d525 83be
00000200: b222 cd3d 2cf0 b6be 31b6 623e d84e 8c3d
00000210: d2b9 98be 6238 f33d eae9 253e 551a c43d
00000220: a9df 843e 8835 5fbe 3348 4ebe df21 a7be
00000230: 1caa a6be f872 70be 3a56 a1bd d4de 6e3e
00000240: ebff 25be c158 893e 7c43 683e a61c b8be
00000250: b4b1 7ebd badf 3d3d 04c3 65be 4a00 9abe
00000260: 9364 45be f765 30bc 3119 9bbe 5baf 4d3d
00000270: 13f3 803e 16db aebe ac03 8f3e 2c59 1a3c
00000280: 468b ae3b 0e1b 6cbe 2bea 3abe 75a3 56be
00000290: 4607 81be 2f2c 89be b6af 68bd c436 0c3d
000002a0: 85e7 82bc 1159 0d3e ddb8 823e 147b fc3c
000002b0: b7e0 66be 224f b13e bb44 9f3d 0fa3 013e
000002c0: 9f4f af3c 78fd b23c 4628 c2be 8f5c c3bc
000002d0: 6f91 aebe 8df9 333c 1a14 f4bc 53a9 f2bc
000002e0: 4a72 973e 9a46 5dbc 2c2b c33b 14e8 243e
000002f0: 8bd9 68be 1230 79bd 0594 223e 95e5 ef3d
00000300: 6cc2 863e 1276 17be 8749 c3bc a077 383e
00000310: 266f 0fbc bc24 b4be 72bd 6e3d 876a 68be
00000320: b211 833e 0f3b 4abe e6e1 973e e014 303e
00000330: be8e 243c 4086 26be 4de7 9dbe b9db b13e
00000340: 5d2f 77be 3eaf b4be f1ed 5dbb 950b 2bbe
00000350: dc7e 39be 21f0 803e 07be e6be b641 3abe
00000360: 508c b6bd 10b0 4cbe e707 333e 5204 b6bd
00000370: 39bd 95be 71fe 4dbe 2f2b 5e3e 7447 e93a
00000380: 1fc8 05be 7d9b 2d3e 1a4b 5c3e 9c02 83bd
00000390: 435c cf3d 2804 d43d 2d16 b13e 11cc aebe
000003a0: 8d36 1ebe d32f 733e 6b7b 54be 5f93 0a3e
000003b0: a8f0 d63e 0790 0bbe b368 86bd 16c9 16be
000003c0: 2b41 babd a098 f0bd 54f6 583e 6748 aebd
000003d0: 9f58 dcbc 7fc7 adbe a0a9 803e 1d4b 0f3d
000003e0: af85 a6be 57c6 283e 3b2f 003e 4923 65be
000003f0: a0ed 4abe 8d99 b0be a4b8 f9bd e62b 163e
-0.07424346 -0.15056972 0.07364454 -0.45343035 0.08594319 0.3462184 0.059889756 0.2211202
0.0028886432 -0.19318785 -0.27874124 -0.18931547 0.27481753 -0.07126077 0.342484 0.08144807
-0.22564007 -0.35595503 0.09662322 0.2935093 -0.2838742 -0.10515178 0.34671578 -0.37990734
0.08819136 -0.061081618 -0.028673247 -0.100742854 0.2877701 -0.45948318 0.16737103 0.07352006
-0.37817425 0.0017778516 -0.28723803 -0.153832 -0.11913736 -0.41112912 -0.18981136 0.3242425
-0.053397983 -0.22778167 0.17216788 0.2698936 0.21595287 0.29564753 -0.4244297 -0.21658312
-0.0413457 0.16044581 -0.36071756 0.22915643 0.24938302 0.2615098 0.03574375 0.1986451
0.09491163 -0.37967756 -0.109155126 -0.26173767 -0.2076638 -0.18781291 0.0563547 0.27397496
0.1700449 0.23668917 -0.09361361 0.12942228 0.18867019 0.22544624 -0.082551174 0.26306745
0.054397475 0.2282055 -0.060385026 -0.13385516 0.21069272 0.08276947 -0.3384871 -0.26834956
0.18029973 0.26389757 -0.25954437 -0.3318146 0.050562046 0.27989134 0.073373504 -0.31879377
-0.3396459 0.14308225 0.17918535 0.3399126 0.08947517 0.083847314 -0.059185497 -0.024730807
-0.3645754 -0.17300415 -0.40281382 -0.05540068 -0.12837464 0.18586527 -0.18560408 -0.25727594
0.28987432 0.22958246 -0.35262325 0.059279237 -0.4312138 -0.16958025 -0.08350415 0.012710613
0.051086355 -0.20922975 0.038546514 -0.32653722 0.36271057 0.092545 0.21095148 0.024205286
0.11110211 -0.38753465 -0.36645585 0.16179994 -0.20398015 0.3215665 -0.3435699 -0.256148
0.10016383 -0.35730112 0.22139813 0.06850976 -0.2982927 0.118759885 0.16202512 0.09575335
0.2595189 -0.21797764 -0.2014473 -0.3264303 -0.32551658 -0.23481357 -0.078777745 0.2332719
-0.16210906 0.26825526 0.22681993 -0.35959357 -0.06218119 0.04635594 -0.22437674 -0.30078346
-0.19276647 -0.010766498 -0.30292657 0.05021606 0.2518545 -0.34151524 0.2793249 0.009420674
0.0053266613 -0.23057196 -0.1825339 -0.20960791 -0.25200862 -0.26791522 -0.056808196 0.034231916
-0.015979538 0.13803507 0.25531664 0.030820407 -0.2254666 0.34630686 0.07776781 0.12659858
0.021400271 0.021849379 -0.3792135 -0.023847846 -0.34095332 0.0109847905 -0.029794741 -0.029621756
0.29579383 -0.013505602 0.005956074 0.16104156 -0.22739236 -0.06083686 0.15876777 0.11713711
0.26320207 -0.14791134 -0.023838772 0.18014383 -0.008754527 -0.35184276 0.058286138 -0.22696887
0.25599438 -0.19749092 0.29664534 0.17195463 0.010043798 -0.1626215 -0.3084053 0.34737948
-0.24139161 -0.3528995 -0.0033863748 -0.16703637 -0.181148 0.25183204 -0.45066854 -0.18189129
-0.08913481 -0.19989038 0.17483483 -0.08887543 -0.29245928 -0.20116593 0.2169616 0.0017797784
-0.13064621 0.16953845 0.21513024 -0.06396982 0.101250194 0.10352355 0.3458723 -0.34140065
-0.15450497 0.23748712 -0.20750205 0.1353278 0.4198048 -0.13629161 -0.065629385 -0.14725146
-0.09094461 -0.11747861 0.21187717 -0.085099034 -0.026897727 -0.33941266 0.25129414 0.034983743
-0.32523867 0.1648191 0.12518017 -0.22376741 -0.19817209 -0.3449215 -0.121934205 0.14665183

conv1.bias f4 [32]
00000000: 4516 86bd df31 0b3e 4721 5cbe 19e4 ac3d
00000010: b160 2cbe d29a 9b3d d3f2 7bbe a898 a7be
00000020: ee60 83bd 0a24 173e 692d 5fbe 8609 913e
00000030: 4aa4 84be 7f97 233e 1427 703e c886 f3bd
00000040: e198 933d 6dbf 9cbc 83d1 92be 3464 8abd
00000050: 738d 85bd 196d 7ebe 00f4 4a3e 258f 70be
00000060: 3383 2bbe ec6a 29be 639b 3cbe c363 773e
00000070: 2f1a 8ebe 68c5 c13d fa86 3ebd 9bd0 f9bd
-0.06547216 0.13593243 -0.2149707 0.08441944 -0.1683376 0.07597889 -0.24604349 -0.32733655
-0.06414972 0.14759842 -0.21794666 0.28327578 -0.25906593 0.1597576 0.23452407 -0.11890942
0.07206894 -0.019134248 -0.2867547 -0.067573935 -0.0652112 -0.24846305 0.19819641 -0.23492105
-0.16749267 -0.16544694 -0.1841865 0.2415915 -0.27754351 0.094614804 -0.046515442 -0.121979915

bn1.weight f4 [32]
00000000: be85 3e3f d9df 8a3f 9d9a 673f befb a33f
00000010: 5dbb 8d3f c4d1 443f a7cb 9b3f 25d6 ec3e
00000020: 8b29 6d3f 3d32 8b3f 6c59 9f3f 3166 8d3f
00000030: 58bf 843f aeef 703f 3e31 a03f 008e b73f
00000040: a95b c43f 8022 633f f4fb a43f 7463 3f3f
00000050: f484 6e3f d30c 483f 0390 5c3f 05e7 a83f
00000060: bfee c13f 90c4 253f 83e1 6b3f 6323 943f
00000070: 8acc 473f 822f d13e 012c 633f f794 2c3f
0.74422824 1.0849563 0.90470296 1.2811201 1.1072804 0.76882577 1.2171525 0.4625713
0.92641515 1.0874707 1.2449164 1.1046811 1.0370893 0.9411572 1.2515028 1.434021
1.5340472 0.8872452 1.288939 0.7476113 0.9317162 0.7814457 0.86157244 1.3195502
1.5150985 0.64753056 0.9214098 1.1573299 0.78046477 0.40856558 0.8873902 0.674148

bn1.bias f4 [32]
00000000: 9660 40be d841 76be a415 6ebd 5b76 d4bd
00000010: 03f2 12bd 0ab9 6bbd c783 3e3c 5f76 8ebe
00000020: 500e 88be 11ee 7dbe 170d 4d3d 7dfd 12be
00000030: 0460 45be 529c 5b3e 46a1 cebd 9734 36bd
00000040: 1282 39bd 4baa 37bd a690 5b3c a41e e73c
00000050: aa08 73bd a928 b3be f8c3 2f3d 2b2e 17bd
00000060: fb6c 33bd 1a8b bebe e5f9 6e3c 7c4a bb3d
00000070: 3840 eebd f1bf f2be a1ed 643c 3b1a adbe
-0.18786845 -0.24048555 -0.058126107 -0.10374137 -0.03587533 -0.057549514 0.011628098 -0.27824685
-0.2657342 -0.24797846 0.05006131 -0.1435451 -0.19274908 0.2144635 -0.10089354 -0.044483747
-0.04529006 -0.04484014 0.013401186 0.028212853 -0.059334435 -0.3499196 0.0429115 -0.036909264
-0.043805104 -0.372155 0.014585947 0.09145066 -0.116333425 -0.47412065 0.013972671 -0.33809075

bn1.running_mean f4 [32]
00000000: d5a4 82bd 3c84 f23d 6214 64be 7a68 763d
00000010: 2ec0 2abe 0bca ac3d ed1c 83be 01fe 96be
00000020: 0c55 91bd 24c8 073e cae2 6abe e638 943e
00000030: 4d8b 8bbe 646a 313e d042 5f3e 3dcd 01be
00000040: e09d 673d 0663 b1bc edaf 97be 8246 82bd
00000050: ff96 a4bd b0bd 7bbe cc78 453e e3f9 7cbe
00000060: a47d 2dbe 2c37 21be f20e 37be 5e0f 693e
00000070: 5763 92be 80c8 ee3d c310 3abd a1d3 bcbd
-0.063790955 0.11841628 -0.222734 0.06015823 -0.16674873 0.08436974 -0.25608006 -0.29490665
-0.070962995 0.13259941 -0.22938076 0.2894966 -0.27254716 0.17325741 0.2180283 -0.12675948
0.056547046 -0.021653663 -0.29626408 -0.063611045 -0.08036613 -0.24584079 0.19284362 -0.24704699
-0.1694246 -0.15743703 -0.17876795 0.22759768 -0.28591415 0.11659336 -0.04542614 -0.092200525

bn1.running_var f4 [32]
00000000: eaf2 893e ee23 9d3e 7f7e 2d3e e9f1 2c3f
00000010: 8534 bb3e 4ba7 a73e a05c 0a3f a2b5 873f
00000020: 0b30 273e 9c4f 7e3e b2fb fa3e 4ad1 283e
00000030: f234 053f a2b3 123e 4476 123f 9a02 163f
00000040: 1338 213f 57d0 f53d 9117 f03e 039d ba3d
00000050: c820 b23d 188c 2f3e 5424 dc3d dcd5 853f
00000060: b34a a43e 5210 d23e c723 2c3e c38a c13e
00000070: 2854 f73d 6683 203f 5d93 993e 77d9 a23f
0.2694314 0.30691475 0.16942786 0.67556626 0.36563507 0.32744822 0.54047585 1.0602305
0.1632692 0.24835056 0.49020153 0.16486087 0.52033913 0.14326337 0.5721171 0.5859772
0.6297619 0.12002628 0.4689298 0.09111979 0.08697659 0.17143285 0.107491165 1.045589
0.3208824 0.41028076 0.16810523 0.3780118 0.120765984 0.627005 0.29995242 1.2722615

conv2.weight f4 [64, 32, 3, 3]
00000000: 8a26 3ebd 075e 9abd 858e a0bd 3cb8 c2bd
00000010: d082 04bc 5fe8 fabd 0175 bcbd 3f3b 8d3d
00000020: 5aef 923b 10e9 10bc bf13 353b 7b72 fe3d
00000030: 184f dabd 13a4 87bd 59d1 373e 9ee6 1e3e
00000040: 775d da3c 0253 e33d b025 9b3d aa1f 813d
00000050: 9d9f 04bd 2d12 ebbc ad5c 15bc 1de8 ab3c
00000060: fa3b 3a3d 7b95 27bd 6f45 42bd 8441 d13d
00000070: 71ef 4f3e c96f 0f3e fde6 bdbd 3495 b2bc
00000080: 743e 553d 0c6e 233e 53cf 283c 9452 f63d
00000090: bad7 d1bd 7942 73bd 4d6e a93c b583 98bd
000000a0: c385 af3d cc33 0e3d 9394 9d3c 84f9 90bd
000000b0: 4e82 4abd 5f28 fcbd 21dd 5c3d 2ceb a23c
000000c0: 5dea cabc 0fe1 913d 4239 df3c 6727 553d
000000d0: b43c dbbd b613 47bc 555c 373e 9c31 0b3e
000000e0: fa91 db3d 99d3 0b3d 120d 973d aff6 dc3d
000000f0: d265 983a c4d9 033e 4b97 dfbc 695e 013e
00000100: dfb7 3dbd ae1d 75bc 586f f03c 6316 1fbd
00000110: 0a1d 89bd ecaf 86bd 6fe3 4a3b f13e 623d
00000120: 8ade 433e b3ba d93b 1c46 29bd 4575 0b3e
00000130: 2637 f33d 0982 48be 1d18 0abe a1cd d13d
00000140: 4690 b2bd 773b f93d ea52 113d 8d73 8cbd
00000150: 238a dbbd ca4c 1bbd 91be 5dbd f159 34be
00000160: a474 e0bc 5136 e73c 14ee 6f3d 08da c33d
00000170: 2195 d23d fe85 fdbd b3c8 79bd f409 2bbd
00000180: 7bce 47be b80e 03be 6e1d c2bd 8047 3b3c
00000190: 418e 75be da43 1f3e 7a90 fd3b 99c6 58be
000001a0: f9a3 633e 7783 8a3e d68d 1d3c 3743 9dbd
000001b0: 8337 88be 9f87 c7bb 8e4d 59bd 1c87 e7bd
000001c0: ac3d 3b3d 9311 a73c e0f3 7bbd a658 a1bb
000001d0: 443e 57bb c965 8a3d 888f b43d 0787 4ebd
000001e0: c048 6abd 9dae d33a f73e eb3c 9743 e53d
000001f0: 7f9d 21be 4092 83bb bd0f 58bd 87ae f8bd
00000200: 729e 9ebc 83aa 7dbd e7d2 e2bc 55f9 28bd
00000210: 5357 cf3c fc35 d03d 9dac 49bd e0e6 d33d
00000220: 3430 ba3d 6323 303d 43a0 14bd 921a da3d
00000230: 6630 1f3e cd92 d7bd dff9 dd3d 0aea 01bd
00000240: f7ee 693e 8ffd 86bd 2b6b f73d aa4a 2a3e
00000250: e69d eb3d 2817 963d 9c58 aa3c 4b7e 773d
00000260: acb8 03be 3884 843d 1cd3 313c 9b33 b73d
00000270: 63c9 f43d c50d 3bbe 5f5a 433c 0cee b33d
00000280: d775 4ebe ebe2 57bc 2980 97be 4b80 a1bd
00000290: a868 e03c 255d 8c3c bbb7 f13d 59d3 463d
000002a0: ae48 a03d 99f5 8d3c 85eb 38bd 8bd1 883d
000002b0: 3ec8 eebd 1b3c c0bb dced b33d aa0e 27be
000002c0: 5082 e4bd 69e8 80bc 044e 8bbd a75e 4bbe
000002d0: e25f 16bd 1eca 51be c0b2 6abe 5f37 5dbe
000002e0: bf7a cbbd 4b5e 483d 555b 42bd 3b96 153b
000002f0: 414e 5bbc 543b a13d 84f4 9abc a650 253a
00000300: db2d 5dbd f8cd 90bd 6723 3cbd 239e 6e3d
00000310: f8d7 b9bd 3ad1 84bc 0664 273d 6530 9dbd
00000320: 1e99 f4bb 203d 903d 48ee 2abe 70ca 73be
00000330: aba4 f13c 1642 9e3c 15ab 8dbe f524 bf3d
00000340: 711b b33c 9dd3 163e 2a92 03bd e64a b13c
00000350: 5fd4 dd3d 6f19 473e 5ee8 48bd 13c1 993d
00000360: fd2e be3c 214b e7bd bba2 483e e52c 433e
00000370: d4b3 5a3d ee2b 893e 47b2 8e3e 43c1 f83c
00000380: 0d12 bf3c 1d10 0b3e e5a6 d7ba 2078 3dbe
00000390: 265d 3abb bcc6 a5bc af86 d5bd 48c5 55be
000003a0: 4283 ac3d 5f1c 58bc ac0b 493d 9ca3 01be
000003b0: 6f58 a93d 034e e63d 5f2b 7b3d 541d 0abe
000003c0: a748 e03c 46ea 853d ca49 46be df71 593c
000003d0: 97c7 963d e6fe de3d 2d1d 963c fbdf 27bd
000003e0: d28a 143e f26b 2d3e b824 ab3c 3c08 553c
000003f0: b49d 42bd aee0 c7bd d87c 84bd 5136 52be
-0.046423472 -0.075374655 -0.078396834 -0.09507796 -0.008087829 -0.122513525 -0.09202004 0.06896066
0.0044840993 -0.008844629 0.0027630178 0.12424179 -0.10659617 -0.066230915 0.17950954 0.15517661
0.026655896 0.11099817 0.07575548 0.063048676 -0.03237878 -0.02869519 -0.009116334 0.020984704
0.045467354 -0.04091404 -0.0474295 0.10217574 0.20306183 0.14007486 -0.09272573 -0.021799661
0.052061513 0.15959948 0.010303336 0.12027469 -0.10246225 -0.059389565 0.020682478 -0.07446996
0.08570435 0.034717366 0.019235885 -0.07078841 -0.049440674 -0.12312388 0.053921822 0.01988753
-0.024769956 0.07123005 0.027248982 0.05203953 -0.107049376 -0.012150696 0.17906316 0.13593143
0.10721202 0.034137342 0.0737554 0.10789239 0.0011627025 0.1287604 -0.027293822 0.12633671
-0.04631793 -0.0149606895 0.029349968 -0.03883971 -0.06694992 -0.06576523 0.0030958315 0.055235807
0.1912786 0.0066445707 -0.041326627 0.13618954 0.11875753 -0.19580854 -0.13485761 0.10244299
-0.08718924 0.12169545 0.035479464 -0.06857977 -0.10719707 -0.03791503 -0.054136816 -0.17612435
-0.027399369 0.028224142 0.05857666 0.095630705 0.1028235 -0.123790726 -0.060982417 -0.04175754
-0.1951236 -0.12798584 -0.094782695 0.011430621 -0.23980047 0.15553227 0.00773817 -0.21169509
0.2223052 0.27053425 0.009616336 -0.07678836 -0.26604852 -0.0060891653 -0.053052478 -0.11305067
0.04571311 0.020394122 -0.061511874 -0.004923898 -0.003284351 0.06757695 0.08816439 -0.05042174
-0.057198286 0.0016150061 0.028716547 0.11194532 -0.15782736 -0.004015237 -0.052749384 -0.121426634
-0.019362662 -0.06193019 -0.027688457 -0.041253407 0.025310194 0.10166547 -0.049236882 0.1034677
0.09091225 0.043002497 -0.03628565 0.10649599 0.15545806 -0.10526047 0.10838675 -0.031717338
0.22845064 -0.06591331 0.120809875 0.16630045 0.11504726 0.073286355 0.020794205 0.060423177
-0.12863415 0.06470531 0.010853555 0.0894539 0.11952474 -0.18266971 0.011923402 0.08785638
-0.2016214 -0.01317666 -0.29589966 -0.07885798 0.027393654 0.017134259 0.11802622 0.0485414
0.078263626 0.017329024 -0.045146484 0.06680592 -0.11659287 -0.00586654 0.087856025 -0.16314188
-0.11157668 -0.015735822 -0.0680199 -0.19860326 -0.036712535 -0.20487258 -0.2291975 -0.21603154
-0.09935521 0.04891805 -0.047450382 0.002282514 -0.013385356 0.07872644 -0.018915422 0.0006306268
-0.05399881 -0.070705354 -0.0459322 0.05825628 -0.09074396 -0.016213048 0.040866874 -0.07675246
-0.007464542 0.07042909 -0.1669246 -0.23807693 0.029497465 0.019318622 -0.27669588 0.09333221
0.021863671 0.14729162 -0.032121815 0.02164216 0.10831522 0.19443296 -0.049049728 0.07507529
0.023215765 -0.112936266 0.19593327 0.19060095 0.053394154 0.26791328 0.2787039 0.030365592
0.023324037 0.13580365 -0.0016452937 -0.18502855 -0.0028436868 -0.020236365 -0.104260795 -0.20876038
0.08423473 -0.013190358 0.049083397 -0.12660068 0.082688205 0.11245348 0.06132066 -0.1348775
0.027378393 0.06538825 -0.19364086 0.013271778 0.073622875 0.10888462 0.018324459 -0.04098509
0.14506081 0.16935709 0.020891532 0.0130024515 -0.04751368 -0.09759651 -0.064691246 -0.20528533

conv2.bias f4 [64]
00000000: 37b5 ffbc e113 c6bc 2652 4bbd 004b 03bd
00000010: 3ea8 00bc 62ae f53c e834 88ba 0755 0cbd
00000020: 236d 313d f973 6a3c 0048 683d 0102 aa3c
00000030: 8257 643b 054f 263a 0f44 ebbc 3e24 ef3c
00000040: 438a ea3c 1265 153d c8bc 1f3d 07de febc
00000050: 2675 03bd fb51 53bd 55ab 023d 5b0c 17bd
00000060: b318 efbc 8833 3e3d db15 57bd 050c fa3c
00000070: e9c1 223d ca5f e3bc 4f85 4abd 4d04 f33b
00000080: 297e 05bd 6242 e63c efaa a7bc 93e5 1d3d
00000090: 220a 6fbd 549b 60bd d77c 35bb b825 bfbc
000000a0: 769c 3bbc 6f28 5a3d 4558 7abc a6c7 0ebc
000000b0: c49e 2cbd 4122 2bbb 7ddf 3cbd 7a5e 703d
000000c0: 6e39 7b3c e462 1c3d 47b0 813d 993d 76ba
000000d0: 23dd 713d 9363 67bd 2dce f1bc ba48 5fbd
000000e0: 32b8 773d d40b 80bd 8fc8 903c 4caf 3b3d
000000f0: 2b22 44bd c036 453c 0045 503c 69f8 b13c
-0.03121434 -0.0241794 -0.04963889 -0.032053947 -0.007852612 0.029990379 -0.0010391744 -0.034260776
0.04331697 0.014309877 0.05670929 0.020752909 0.0034842198 0.0006344172 -0.028718976 0.029192086
0.028630381 0.03647334 0.038998395 -0.03111173 -0.032094143 -0.051591855 0.031901676 -0.036877017
-0.029186582 0.046435863 -0.052511077 0.03052331 0.03973571 -0.027755637 -0.04944354 0.007416284
-0.03259102 0.028107826 -0.02046725 0.038549017 -0.058359273 -0.054835632 -0.0027692819 -0.023333415
-0.011450877 0.053261217 -0.015279834 -0.008714592 -0.0421436 -0.0026112946 -0.046111573 0.05868385
0.0153335165 0.038180247 0.0633245 -0.0009393334 0.059048783 -0.056491446 -0.029517258 -0.054512717
0.060478397 -0.06252256 0.017673759 0.045821473 -0.047884148 0.012036979 0.012711763 0.021724897

bn2.weight f4 [64]
00000000: 00a2 7a3f 36ca 783f f54b 1d3f db54 903f
00000010: 9ac3 8e3f 42f8 703f 2278 8c3f 38a4 5c3f
00000020: 243d 7d3f 51dc 493f 283a 863f 02ce 753f
00000030: bc0f 923f 1b01 533f ba00 6e3f 5362 583f
00000040: 1333 953f a8a9 813f f793 9c3f f442 833f
00000050: 883f 973f 5292 8f3f 8da9 6f3f 78cf 393f
00000060: 9e81 6b3f 0d6c a53f dcfd 703f 0a65 813f
00000070: 05b3 853f 7e3f 8c3f a3d9 7f3f c335 853f
00000080: 5868 833f 9854 f33e c97a 8e3f 99f9 633f
00000090: 2e80 773f 5d8a 733f 177b 903f 1631 6d3f
000000a0: 2a60 9f3f 580b 9c3f dc6d 4d3f 6ef3 643f
000000b0: 2c3a 6b3f d1b5 833f a463 773f 1dd4 4d3f
000000c0: 4bd5 523f 8313 aa3f 13a0 943f 0107 503f
000000d0: a4b3 833f 769e 833f 82c0 5a3f ec5d 433f
000000e0: 30de 683f c317 823f 184f 4a3f 40e4 7d3f
000000f0: 7057 893f c8b3 453f 9c47 8d3f de44 703f
0.9790344 0.9718355 0.61444026 1.1275896 1.1153443 0.9412881 1.0974162 0.8618808
0.9892142 0.788518 1.0486498 0.9601747 1.1411052 0.8242356 0.9296986 0.8452503
1.1656212 1.01299 1.2232655 1.0254807 1.1816263 1.1216528 0.9361809 0.725822
0.91994655 1.29236 0.9413736 1.010896 1.0445257 1.0956876 0.9994146 1.0407032
1.0266218 0.47525477 1.1131221 0.8905273 0.9667996 0.95133 1.1287564 0.92653024
1.2451222 1.2190962 0.8024576 0.89433944 0.9188564 1.0289861 0.96636415 0.80401784
0.8235671 1.3287205 1.1611351 0.8126069 1.0289197 1.0282733 0.85449994 0.7631519
0.9096403 1.0163502 0.7902694 0.99176407 1.0729809 0.7722745 1.1037478 0.93855083

bn2.bias f4 [64]
00000000: 00a3 41be 8def 9abd 92f0 03bf 7a6e 40be
00000010: 3c47 85be 2e07 96be 85d2 9bbe 6a0a e0bd
00000020: a996 25be ff2f 9cbe 9e4c 29be 827e 83be
00000030: 21d4 4cbe 130a 0ebe 5b2f 4fbe 71c2 9cbe
00000040: 879f 89be da81 bebd 4872 59be f4d0 d1bd
00000050: d3c4 92bd d67f 15bd 6eb0 00bf d7fd b5be
00000060: 6a66 77be 4fef 86be 0c6a 5dbe 083c 52bd
00000070: e628 6abe 13fc a4bd 3635 89be f15f 85be
00000080: 959f 28be 775a e0be 00bd 3a3b ba7d 8dbd
00000090: 3a3c 06bf 00e4 1fbd d7ae 95be f81d 2dbe
000000a0: f507 3cbe e6b7 88be 2799 5bbe 2390 6dbe
000000b0: 495e e2be 2783 a3be 407d 5dbe a915 b8be
000000c0: b1c8 b3be 7fbb 89be 7543 79be 87a4 d9be
000000d0: 18d2 0bbe b079 21be bebc 8fbe 28af 11bf
000000e0: 0b14 dbbd 6d52 c5be 40d5 99be 6a75 a8be
000000f0: b0a4 54be 583c 07bf 75f9 95be f7bf c3be
-0.18909836 -0.07565222 -0.51538956 -0.18792143 -0.2603091 -0.29302353 -0.3043405 -0.10939486
-0.16170754 -0.30505368 -0.16533133 -0.25682455 -0.20002796 -0.1387103 -0.20232908 -0.30617097
-0.26879522 -0.09302111 -0.21235001 -0.10244933 -0.071664475 -0.036498867 -0.5026921 -0.35545227
-0.24160162 -0.26354453 -0.21622485 -0.05132678 -0.22867164 -0.08055892 -0.2679841 -0.2604976
-0.16467126 -0.4381902 0.0028494 -0.06908746 -0.5243565 -0.039035797 -0.29234955 -0.16905963
-0.1836241 -0.26702803 -0.21445142 -0.23199515 -0.4421256 -0.31936 -0.2162981 -0.35954025
-0.35114053 -0.2690086 -0.24342139 -0.42508337 -0.13654363 -0.15769076 -0.28073686 -0.5690789
-0.10697182 -0.38539448 -0.3004551 -0.3290208 -0.20765948 -0.5282645 -0.29291883 -0.38232395

bn2.running_mean f4 [64]
00000000: 3e48 8a3e 5976 bdbe 0b21 8940 6136 46bf
00000010: acba 16bf d182 1fc0 0114 17c0 432d fabf
00000020: 8663 703f be79 e3bf ca61 cebe eef6 cabf
00000030: 243b aebf 87fd 03c0 91d9 e7bf f551 46bf
00000040: 7070 74bf 166f 8cbf d00e 743e 8a78 0ec0
00000050: 1381 d5bd 9a16 7bbf be43 46c0 08cf 32c0
00000060: 6566 72c0 aa3b a7bc af94 e0bf 447d cabf
00000070: c552 a7bf 9f45 6dbf 1b61 1bc0 bc69 c3bf
00000080: d493 43c0 2a2b 0d40 1844 f23e 32ec 1dc0
00000090: 70bb 833e 9df1 a0bf 2553 aabf aa1b 53c0
000000a0: 7e5d 0cbf e972 263e e9d8 89bf 240e b7bf
000000b0: b26c 27c0 22ea 79bf 2155 ebbe 2970 74bf
000000c0: 4408 26c0 1919 2bbf 1e5e 983d c423 9dbf
000000d0: 2890 3bc0 a981 69c0 6203 1cc0 d4b1 aa3f
000000e0: 5a13 35c0 d8ce 17bf 9ec9 0ac0 13a9 8c3f
000000f0: ebb5 4dc0 a9f0 203f 45b9 97bd d8bc 0fbf
0.2700824 -0.37004355 4.2852836 -0.77426726 -0.5887859 -2.4923594 -2.360596 -1.9545063
0.9390186 -1.7771528 -0.40308982 -1.5856607 -1.3611798 -2.062349 -1.8113271 -0.77468807
-0.95484066 -1.0971401 0.23833776 -2.2261071 -0.104250096 -0.9808136 -3.0978847 -2.7938862
-3.7874997 -0.020414192 -1.7545375 -1.5819478 -1.3072134 -0.9268436 -2.4278018 -1.5266643
-3.0558977 2.2057595 0.47317576 -2.4675412 0.2572894 -1.2573735 -1.3306624 -3.2985635
-0.5483016 0.16254772 -1.0769321 -1.430119 -2.6160092 -0.97622883 -0.45963386 -0.9548364
-2.5942545 -0.6683517 0.074398264 -1.227654 -2.9306736 -3.6485388 -2.4377065 1.3335519
-2.8293061 -0.59299994 -2.1685557 1.0989097 -3.2142284 0.6286722 -0.07408384 -0.5614753

bn2.running_var f4 [64]
00000000: f743 1041 baaf db40 281e 2241 4738 0241
00000010: 52bb 1541 ca31 2940 5ff7 6040 3827 3940
00000020: 8819 9b40 4847 5240 b84a b740 9226 bb40
00000030: 0e21 ac40 dda8 a340 3cbe 0141 6abb aa40
00000040: 6801 e040 ce3e a440 e755 1041 e097 9c40
00000050: 0278 0b41 d7b3 eb40 9ab5 e53f adfb aa40
00000060: 0720 c540 ce75 bd40 a8ee 9440 d4ee c340
00000070: ffde b240 7877 c040 3942 4d41 5db8 2c40
00000080: d409 8140 5692 8c40 6d12 8e40 dae8 cf40
00000090: 3761 8440 6758 ad40 7616 b940 66f7 bc40
000000a0: 8c81 b440 bc26 d640 0218 9440 8c56 f240
000000b0: 334a 4a40 8d70 e63f a00e a840 d1a6 8240
000000c0: e265 eb3f 584c d140 ea21 7e40 c988 9840
000000d0: 9867 9641 3d56 6d41 925c af40 b01c dc40
000000e0: 534a 4740 62c0 bd40 f604 5d40 aec6 b240
000000f0: 274e 6a41 88b6 8c40 edba d140 6c07 ed40
9.016593 6.865201 10.132362 8.13874 9.3582325 2.643664 3.5150983 2.8930187
4.8468666 3.2856007 5.727871 5.8484583 5.379035 5.114363 8.108944 5.3353777
7.0001717 5.1326666 9.020972 4.8935394 8.716799 7.365703 1.7946045 5.343222
6.1601596 5.9206305 4.654133 6.122904 5.589721 6.0145836 12.828668 2.6987526
4.0324497 4.3928633 4.4397492 6.4971743 4.136867 5.4170413 5.783992 5.9052
5.640814 6.6922283 4.6279306 7.573065 3.1607788 1.8003098 5.2517853 4.0828633
1.8390467 6.5405693 3.97082 4.7666974 18.800583 14.833554 5.48005 6.878502
3.1139114 5.929734 3.4534278 5.586753 14.64408 4.3972816 6.554068 7.407156

conv3.weight f4 [64, 64, 3, 3]
00000000: daa4 123e 9bb6 1d3e 0a31 7cbe 98a8 d73d
00000010: 5678 32be d630 dbbd 7efc 6fbd 03f4 683b
00000020: 1609 3e3d f62c 533b 8532 25be 4b9d 27be
00000030: 5b21 68be 722f 1cbd 8946 3b3e d424 e5bd
00000040: c8cf 643d 3bd5 443c 56b9 c9bd e9a4 3f3d
00000050: f365 92bd f440 e73c 01f4 25bd a85a 833d
00000060: 0d35 703d 8f86 1b3d 3c80 ccbd 7c28 0ebd
00000070: 1cbd bcbc 3e82 7cbd f5bb 123d ffe8 513d
00000080: 9e92 b43b a52e b5bd 07e1 2b3c aea8 19bd
00000090: 0c0b 6dbd ed57 dd3c ccfc ba3d a6c1 d9bd
000000a0: cc6b 753d 1207 1ebe d08e cebd 5b08 7c3d
000000b0: c578 4b3a 73ff a13d 9a09 a33d 9180 26bd
000000c0: a79d cebd ae86 8c3b d923 22bd 6605 263d
000000d0: d364 3cbd 2ab8 9d3d f5b3 39bd ed75 2e3d
000000e0: 0cd8 e73d e7ae c33d 7faf ed3d 63a8 b43d
000000f0: 2361 32be a6c6 8c3b 1263 a7bd a2f5 2fbd
00000100: f130 39bb fc97 b23d 11ce 973b d940 073d
00000110: 1a98 1f3c eaf1 7b3d 4456 f53d e04b 593d
00000120: b0a5 23bd 1d16 e2bc c21d 8d3d f713 303c
00000130: f0f1 263d e507 b73d 38a0 16be 970d 7fbb
00000140: 23e4 073e 936d 3d3b d6e5 e63d 3ea8 5e3b
00000150: ff92 563e a790 943c 8627 4a3d ccc1 8f3e
00000160: 8b8d b73b 68b4 943d 0af1 913d 195f 53bc
00000170: 2d45 853d 8f56 57bd 2d52 c43c ca89 edbd
00000180: 7b9d d73c f13f 2f3e 2c8c 0e3e ad7b 21bc
00000190: 20ba 913c f871 e13d a06c 363c 4135 953d
000001a0: eba5 cf3d 66b4 a8bc c0e7 3f3d d58f 23be
000001b0: 668d 783e 5416 9abd 291f 0dbe b32d 2dbe
000001c0: afa9 6ebe b34d afbc 6630 bfbd d9c9 a1bd
000001d0: 8a42 dfbb bd08 a73d 5b1f 4abc 45e1 13be
000001e0: 9f0a 88bd 3f5c 8abc cdbb 593d a59c f43c
000001f0: f03d 853d 3a09 f1bd 02b7 40bd c54c c3bd
00000200: ea30 38bd 6e4c b3bd 9fe6 c63c f82d 223d
00000210: 823b 8bbd f6f1 2f3d 5f7a 76bd 53ca 0bbe
00000220: c32e debc 08ae 003d b2e0 bbbd 06cf d5bc
00000230: 9192 adbd 5152 183e 3ded bfba ddc0 66bd
00000240: 1ada a4bd 5e86 373e 3a6e f23d 7fee c7bd
00000250: 9a70 bd3b 8260 cebd a5d0 46bd ab1c aa3d
00000260: efa3 50b8 40af eebc ad14 df3c 6676 88bd
00000270: 42d6 72bd 3dff 99bc 8077 18bc 238b 0f3d
00000280: 0977 273b 4cfb 7a3d 9c43 863d cf45 be3d
00000290: d439 a73c 29ef f23c 5edc a7bd 346b 503c
000002a0: ec4c 02be 6823 1f3e 83fd 153e 7795 1bbe
000002b0: 6ef9 4cbd 5ed5 a1bc a449 2ebe 539d bbbd
000002c0: dc92 b63d 8771 593e 2f1f 9fbc 0d90 cf3c
000002d0: c23d cabd 2f69 21bd 7c66 aabd fced debd
000002e0: 976f d0bd 2915 5a3d f451 27be a1c2 b43d
000002f0: 1b08 0dbd 45da d23d 00f8 10be 6508 59be
00000300: 9c10 a93c 76cd 08be c217 3b3e 5de1 2abe
00000310: 9551 02bd e148 4b3d 0e35 a8bd d718 8bbd
00000320: 1dd7 833d 8858 163d f89e 543d 28ae bc3d
00000330: 9a00 363e 775c 533d 13cd b7bd f756 21bd
00000340: 413f 51be ab6c 6abb d0af 4dbc 2a1a e0bc
00000350: 97aa 9a3d 4fae e73d 2373 9b3d c00c 9dbd
00000360: ee7e 8e3c 6691 94bd 58e7 2c3e 5230 073d
00000370: 1fab 913d 4e98 cfbc b388 183d 4c80 e43d
00000380: f999 c7bd 0225 0a3c 41e6 ba3d f3f1 823d
00000390: 9d3a 803e 1a15 883d 92f3 f63d 8cd6 a3bd
000003a0: b2f8 7fbe 4b7c 0dbd 9205 8abd fa26 513d
000003b0: 6871 7b3d 275f 823d 71f3 49bd 4eda d03d
000003c0: 97bd 8cbd fc1e 6a3d d89a ff3c a111 c5bb
000003d0: b08c fabd 0038 44be e395 07be b683 0abe
000003e0: a3e1 453e 9ade 90bc e06d 2dbd 685a 47bd
000003f0: aa92 a13d 2863 673d d48f 833d 96dd 833d
0.14320698 0.1540169 -0.24628082 0.105302036 -0.17428717 -0.10702674 -0.058590405 0.0035545833
0.046395384 0.0032222844 -0.16132553 -0.16368596 -0.22668974 -0.038131185 0.18288626 -0.11188665
0.05586222 0.012013729 -0.09849803 0.04678813 -0.071483515 0.028229214 -0.040515903 0.06413776
0.058644343 0.037970122 -0.09985396 -0.034706578 -0.023039393 -0.061647646 0.03582378 0.051247593
0.005510642 -0.08846787 0.010490662 -0.03751438 -0.057871863 0.027019465 0.091302484 -0.10632639
0.059917256 -0.15432385 -0.10085833 0.061531406 0.00077618315 0.07910051 0.07960816 -0.040649954
-0.100886635 0.004288516 -0.03958497 0.040532492 -0.04599459 0.07701142 -0.045337636 0.04259293
0.113205045 0.09554844 0.11605739 0.0882118 -0.17419867 0.0042961417 -0.08173193 -0.042958863
-0.002825793 0.08720395 0.0046327193 0.033020828 0.009740854 0.061510004 0.119793445 0.053050876
-0.039952934 -0.027598435 0.068904415 0.0107469475 0.040758073 0.08937053 -0.14709556 -0.0038918012
0.13270621 0.0028904423 0.112743065 0.0033974792 0.20954512 0.018135382 0.0493541 0.28077543
0.00560159 0.07260972 0.07126053 -0.012901091 0.06507335 -0.052572783 0.023964966 -0.11598547
0.02632021 0.17114235 0.13920659 -0.009856147 0.017788947 0.11008066 0.011134297 0.07285548
0.10139068 -0.020593833 0.046851873 -0.15972836 0.24272689 -0.0752379 -0.13781418 -0.16911964
-0.23306917 -0.021399355 -0.09335403 -0.078998275 -0.006813352 0.081559636 -0.012336577 -0.14441402
-0.06642651 -0.01688969 0.053157616 0.02985985 0.06505954 -0.11769338 -0.04704953 -0.09536127
-0.044968523 -0.08754812 0.02427989 0.03959462 -0.067984596 0.04295536 -0.060175296 -0.136514
-0.027121907 0.03141597 -0.091737166 -0.026099693 -0.08475221 0.14875151 -0.0014642846 -0.056336273
-0.08049412 0.17922351 0.1183743 -0.097622864 0.0057812454 -0.10077001 -0.048538823 0.08306249
-4.974374e-05 -0.0291363 0.027231539 -0.06663208 -0.059286363 -0.018798465 -0.009305835 0.0350448
0.0025553128 0.06127481 0.06555864 0.09290659 0.020413317 0.029655056 -0.081963286 0.012720872
-0.12724656 0.1554085 0.14647488 -0.15193735 -0.050042562 -0.019755062 -0.17020279 -0.091608666
0.0891473 0.21234713 -0.01942405 0.025337243 -0.098750606 -0.03940695 -0.083203286 -0.10885236
-0.10177534 0.053242836 -0.16339856 0.08826185 -0.034431558 0.10295538 -0.14157104 -0.21194609
0.020637803 -0.13359627 0.18270782 -0.16687532 -0.031816084 0.04963005 -0.082132444 -0.06791847
0.06437514 0.036705524 0.051909417 0.09212905 0.17773667 0.051601853 -0.08974662 -0.039389577
-0.20434286 -0.0035770338 -0.012554124 -0.027356226 0.07552069 0.113125436 0.0759032 -0.076684475
0.01739451 -0.07254295 0.16885126 0.033005066 0.07112717 -0.02534118 0.03723974 0.11157283
-0.09746165 0.008431675 0.09125949 0.063938044 0.25044718 0.0664465 0.12058176 -0.07999906
-0.24997213 -0.034542363 -0.06739344 0.05106256 0.06138745 0.06365805 -0.04930443 0.10197888
-0.06872099 0.057158455 0.031201765 -0.0060140644 -0.12233865 -0.19161987 -0.13240771 -0.13526806
0.19324355 -0.01768427 -0.042341113 -0.048670202 0.07889302 0.056491047 0.064239174 0.064387485

conv3.bias f4 [64]
00000000: 5449 2d3d 39e4 693c 2f20 50bc 8ab4 573b
00000010: 1142 09bd 1be4 8c3c 8d14 fd3c 3e37 783c
00000020: f9f1 20bc d9d3 cdbc 1384 0ebc d33b 0abd
00000030: 0353 7ebc 7d9e ba3c e000 bbbc c5fd 07bc
00000040: cb00 103d a8d0 d43c 31c6 26bc fa2c bebc
00000050: 19dd 0ebd a48c f13b 97da 64bc 7e8b 93bb
00000060: 58c7 1a3d a208 febc 9bc1 073c c65f ebbc
00000070: 5689 8cbc e801 6ebc e391 68bc 5204 a03c
00000080: ce7b ef3c 3cd5 1ebd c975 7f3c 59d7 14bc
00000090: b40a f1bb 14b6 76bc 9da5 9b3c 9f90 d2bc
000000a0: 90c8 943c e0a5 243d da84 32bc 9a5d b8bb
000000b0: 06ad 99bc a54f 09bb 529d 1dbd fbe8 483c
000000c0: f9cf 083b ede7 0ebd 0ff8 9b3b 0af4 30bd
000000d0: 5c51 1abd a5d8 29bd 823f 8e3c 0234 d33c
000000e0: ceb0 ae3c 400c b1bb 3a11 96bb 3058 e33c
000000f0: 0f46 e6bc 6d81 c63c f9c4 8ebc c626 a9bc
0.04230626 0.014275604 -0.012702986 0.0032914006 -0.03351027 0.017198613 0.030893588 0.0151498895
-0.009823316 -0.02512543 -0.008698481 -0.03374846 -0.015522721 0.022780651 -0.022827566 -0.008300249
0.035157006 0.025978401 -0.010179088 -0.023214806 -0.034878824 0.007371502 -0.0139681315 -0.0045027127
0.037787765 -0.031009976 0.008285905 -0.028732192 -0.01715533 -0.014526822 -0.014194938 0.01953331
0.02923384 -0.038777575 0.015592047 -0.009084546 -0.0073560122 -0.015058059 0.018999869 -0.025703726
0.018162042 0.040197253 -0.010895932 -0.0056263926 -0.018759262 -0.0020952013 -0.03848011 0.012262578
0.0020875914 -0.03488915 0.0047597955 -0.043201484 -0.037675247 -0.041466374 0.017364267 0.025781635
0.021324541 -0.0054030716 -0.0045796903 0.027752012 -0.028109578 0.024231637 -0.017427908 -0.020648371

bn3.weight f4 [64]
00000000: 6def 743f 025d 853f 140e 7e3f 3ac3 853f
00000010: bd1e 513f d34a 8d3f d833 813f 4410 8b3f
00000020: 48f4 743f d7b2 643f a81a 943f 92eb a43f
00000030: 438f 813f 24d4 903f f2e9 683f b927 783f
00000040: 1e47 743f 8a17 823f a6a6 4b3f 1b10 863f
00000050: d9f1 673f 4411 6e3f a52c 5b3f 8755 833f
00000060: 53cb 8e3f 8994 733f 9962 7e3f 0e99 693f
00000070: 58ec 473f 70a0 8a3f 8515 813f 6d17 593f
00000080: ab24 8e3f 7524 823f 1517 893f 736c 773f
00000090: c870 8a3f 3efa 703f 0c91 703f 1ae3 6f3f
000000a0: 21ed 8f3f 2e38 5e3f 08c4 773f bce0 8c3f
000000b0: 7407 7b3f ef8a 833f 3306 5b3f 06aa 833f
000000c0: 51a0 9b3f 7ade 773f 98bd 8b3f 7e5c 803f
000000d0: 20ba 603f 1c20 5b3f 3f63 753f 4740 7a3f
000000e0: cbbd 6e3f 5694 8c3f f2cb 7d3f 8c44 753f
000000f0: 00f1 853f 9b40 7f3f e34d 5d3f 9c42 6d3f
0.95677835 1.0419009 0.9924023 1.0450203 0.8168753 1.103846 1.0093946 1.0864339
0.95685244 0.8933539 1.1570635 1.288439 1.0121845 1.131474 0.9098197 0.9693561
0.95421016 1.0163434 0.7955116 1.0473665 0.90603405 0.92995095 0.85615 1.0260476
1.11558 0.9514852 0.993692 0.9124917 0.78095007 1.0830212 1.0084692 0.8480137
1.110494 1.0167376 1.0710169 0.96649855 1.0815668 0.9413184 0.93971324 0.93705904
1.1244241 0.86804473 0.96783495 1.1006083 0.9805825 1.0276774 0.85556334 1.0286262
1.21583 0.9682385 1.0917234 1.0028226 0.87784004 0.8559587 0.9585456 0.9775433
0.9325835 1.0982769 0.9913932 0.9580772 1.0464172 0.99707955 0.8644697 0.9267976

bn3.bias f4 [64]
00000000: b104 2dbe 65b5 bcbd 6f4b 1fbe 4b82 bdbd
00000010: 13f3 95be 889d 8abe 8cc9 d7bd 45b4 47be
00000020: 9ae8 8fbe b726 27be 47b2 55bd e107 03be
00000030: a555 1ebd 3231 c6be f7da d7bd 5542 a2be
00000040: db11 cebd 96a8 8cbe 7507 b6be fefa 7dbe
00000050: 50be eebd 0b23 1cbe e218 4cbe 5563 97be
00000060: e3f8 d9bd da96 53be 1a42 1bbe 35ef 8cbe
00000070: d2f4 23be 8a7b 90be 3e9b c1bc cd4b d3bd
00000080: b9c5 aebe 4003 07bf aa85 41be 8fea 19be
00000090: 4a67 5cbe c8ce 96be 5574 5cbe 5d1a 0ebe
000000a0: 7d1c 373d 59a5 6cbe 0b48 72be b07a 80be
000000b0: 5eaf 35be a557 2cbd 7980 54be a475 68be
000000c0: 27f2 8ebe 6f2c a8be 671b 79be 2630 81be
000000d0: fc26 38be 1147 b2be 9dd0 babe c44b 87be
000000e0: 52bd 78be a924 63be d28c a0be c8a7 6bbe
000000f0: 2e87 6abe 8839 01be 2620 6ebe e53a 88be
-0.16896321 -0.09214286 -0.1555612 -0.09253367 -0.29287013 -0.27073312 -0.10536489 -0.19502361
-0.28107148 -0.16323362 -0.05217197 -0.12795974 -0.038655896 -0.38709408 -0.10539811 -0.31691232
-0.100619994 -0.2747237 -0.35552564 -0.24802777 -0.11657393 -0.15247743 -0.19931367 -0.29567972
-0.106431745 -0.20663014 -0.15161934 -0.2752625 -0.1601136 -0.28219253 -0.023633596 -0.10317192
-0.34135225 -0.52739334 -0.18898645 -0.15030883 -0.21523777 -0.29454637 -0.21528752 -0.13877244
0.044704903 -0.2310995 -0.23660295 -0.25093603 -0.17742679 -0.04207577 -0.20752133 -0.22701126
-0.27919123 -0.328464 -0.2432686 -0.25232047 -0.17983621 -0.34819844 -0.36487284 -0.26424992
-0.2429097 -0.22181953 -0.31357437 -0.23013222 -0.2290313 -0.12619603 -0.23254451 -0.26607433

bn3.running_mean f4 [64]
00000000: 2a11 92bf fec3 35c0 df28 8cc0 ca14 91bf
00000010: ddbe 6fbc ac85 0abe 5e36 b0c0 e497 eabf
00000020: 1619 1ec0 38af bc3c 554a ee3e bf10 cfc0
00000030: 3090 acc0 fd29 3ac0 322b 56bf 2296 10c0
00000040: b6d3 94c0 5039 fabe 86d9 89bf 7f29 233d
00000050: 39fa a43e 74fc 8c3f 0ca3 94c0 b240 8ebf
00000060: 9902 37c0 7a53 943f f49c 2f40 e6bf 84bf
00000070: ce42 f0bf f2b4 a23d 8de0 f2bf db45 8cbe
00000080: 2e50 9b3f 317c c9bf b264 63bf 3f1f 80bf
00000090: 04d6 b4c0 3fb9 3ec0 e4ed 1640 3a7a fabe
000000a0: 78da 4fbf ad41 76bf 0ef8 50c0 90f4 79bf
000000b0: 8e04 d2c0 8758 26be 7363 1bbf 321f 34bf
000000c0: e480 8ac0 79ed 963f e513 02c0 c39c 833f
000000d0: 0932 943e 0478 29c0 1a0f d2bf ccfe abbe
000000e0: 3fc9 2940 5cff 13c0 6b0d 2fc0 98ac 1ac0
000000f0: e447 513f 6c98 35c0 a422 1bbf f4bf b5bf
-1.1411488 -2.8400874 -4.379989 -1.1334469 -0.014632908 -0.13527554 -5.5066366 -1.8327603
-2.4702811 0.02303277 0.46541086 -6.470794 -5.392601 -2.9088128 -0.8365966 -2.2591634
-4.6508436 -0.4887185 -1.0769508 0.039834496 0.32222155 1.1014543 -4.644903 -1.1113493
-2.8595335 1.1587975 2.7439547 -1.0371063 -1.8770387 0.07944669 -1.8974777 -0.27397045
1.2133844 -1.5741025 -0.88825524 -1.0009536 -5.651125 -2.9800565 2.3582697 -0.48921376
-0.8119273 -0.96193963 -3.26514 -0.976388 -6.563056 -0.16244708 -0.6069862 -0.703601
-4.3282337 1.1791221 -2.0324643 1.0282215 0.28944424 -2.6479502 -1.6410859 -0.33592832
2.652908 -2.312461 -2.735194 -2.4167843 0.8175032 -2.837428 -0.6059973 -1.4199204

bn3.running_var f4 [64]
00000000: a5d0 2841 c954 3d41 4144 b541 0354 9341
00000010: bd37 3c41 86a1 3541 c7d8 b541 e4ab b041
00000020: a653 6641 2447 2141 ac80 3441 fa9c db41
00000030: 0436 8041 f67e 2241 0856 8341 e168 7041
00000040: f600 3a41 458e 3541 75a8 2841 a8da 8741
00000050: d057 7741 ba17 2641 090d a141 b0a1 1441
00000060: 8fd2 8741 d059 2e41 72f9 2541 3bd7 6641
00000070: 993d 4a41 a429 1b41 734d 2541 58ef 1a41
00000080: 4c7e 5041 dbcf 2741 dc5f 3a41 393f 0d41
00000090: 24d0 e341 4836 4441 bf6b 2041 0da2 1641
000000a0: 43eb 1d41 0573 a941 15a1 4a41 1f2e 1641
000000b0: 4ef7 b541 c828 0841 8e0b 1641 5166 8b41
000000c0: 0913 2e41 b4e9 3e41 4c9e 9041 6aae 8041
000000d0: 98dc 8141 83d8 5341 5e21 3b41 ec17 1141
000000e0: eb5a 3641 43ee a841 9471 4441 81ac a641
000000f0: e93b 9641 4d53 8241 4743 4a41 b5b1 3541
10.550939 11.8331995 22.658327 18.416021 11.763608 11.351934 22.730848 22.083931
14.395422 10.079868 11.281414 27.451649 16.026375 10.155996 16.417007 15.025605
11.625235 11.347234 10.541127 16.981766 15.458939 10.380793 20.131365 9.2894745
16.977812 10.896927 10.3734 14.4275465 12.6400385 9.697666 10.3314085 9.683434
13.030834 10.488246 11.648403 8.827935 28.476631 12.263252 10.026305 9.414563
9.869937 21.181162 12.664327 9.38626 22.745754 8.509956 9.377821 17.42496
10.879647 11.932056 18.077293 16.085163 16.232712 13.240359 11.695646 9.06834
11.397197 21.116339 12.277729 20.83423 18.779253 16.290674 12.641425 11.3558855

fc1.weight f4 [128, 576]
00000000: 663d d4bd 7ded c2bd a151 983d dcbc 20be
00000010: edfa b43c 375b d03d 6605 483c 3b13 4f3c
00000020: eecf 4c3c b057 773d 838b 39be dc10 483a
00000030: 9bad 2bbd 6c1d c43d 8c97 8fbd fe99 223e
00000040: b20d 19bd 87a0 653c 232b 67bd 1359 b1bd
00000050: 4fa8 c93d 92af cebc 63ee 2cbe 5f43 64bd
00000060: 58c1 d8bd 274e 4cbd cd58 e43d 5a61 d63c
00000070: 20cd 5dbe 515c dbbc 0704 843d ff1d fc3c
00000080: e69b 42bd 902f e63c 376d 933c b6df bebc
00000090: c5a4 013e 46bb 333d 0495 29bd e2ee 763d
000000a0: bc34 2fbd eb2c 923d b197 5bbd c77e 163d
000000b0: 4cee 82bd cb1d a23d 254d 3abc 6a82 d4bc
000000c0: 300b bdbd 12ae 9abc 15e3 a5bd aa6f d13c
000000d0: 66ed 91bd 683f 163e 2c7f c63d 407a 483d
000000e0: ee38 52be ec41 05be 8e1b f43c d057 2cbc
000000f0: 338d 433d b495 6d3d 81d2 05bc 4cb6 1cbd
00000100: e1ad c3bc 98ac 233d 8d7a f63b c6d1 cb3d
00000110: 6dc8 e93c 864b 3abd 3af9 93bc a54c 163e
00000120: a256 0c3d 0838 27be 4d8a 3a3d 2e3a a1bd
00000130: 1dd2 aa3c da3e f23d 2caa 34bc ee37 aebd
00000140: 29eb e63d ea24 15bd 1393 1abd c4af 08be
00000150: 6578 63bd e1e6 12be 5df5 043d ccbb bcbd
00000160: 5416 c9bd 8e3c 2dbd 9a95 9f3d 2527 dd3a
00000170: 193e c1bc 7b99 a63d d886 81bd 52af 8739
00000180: 33d4 88bc 8d78 de3d 36b0 74ba 211e 4d3e
00000190: 4bdb fc3c 1f0f 3a3d 43a1 1cbd c178 073e
000001a0: 30f3 19be c521 0d3e 7404 ba3d 4058 dc3c
000001b0: 53f2 c5bc 81fe d1bd 8708 06be be85 5dbe
000001c0: 0da6 c63c 829b a93d d2ec 61bd ee85 8b3d
000001d0: 58b6 63bc f614 273c d6f6 483c d0b9 92bd
000001e0: 4a5d e8bd 5552 a7bd 9e96 4f3d b464 c63c
000001f0: 6248 083d 4fab fbbc 1138 31be 9526 783e
00000200: e68c 6e3e 3072 27bb a959 66bd d9ab fbbd
00000210: df27 b9bc 6250 693d 3f2e abbd 47a1 abbd
00000220: ff17 c13d a781 3b3d 9dd3 103d c254 23bc
00000230: 6efd 2fbd e349 91bd 522e 883d d760 193d
00000240: 4f7e 59bc f7d8 3dbe 3ebc 11bd 485d adbd
00000250: b6cd 0abd 1a27 b93d a4d1 303d f459 3fbc
00000260: 42e2 4dbe c6b6 963d 40ae 1fbe d1be 25be
00000270: a90b 12be 0727 a63c 5546 1bbe 22c7 73bc
00000280: 897a b1bc 8614 e23d 5198 9fbd ed9a 8cbd
00000290: 6d61 0dbe 54b3 0c3e 68e0 bd3d 5e9c 113e
000002a0: cc08 543d dae4 e83d 88d7 753d a510 3e3d
000002b0: 0cd3 bbbd b0be a2bd 6dbc ccbc 2aa7 b4bc
000002c0: 07d5 e9bd 3cf1 993d ebb6 903d 38a0 183e
000002d0: fec4 943d eb12 12be 5e44 3fbe aa84 0e3c
000002e0: 5ce1 23bd 07e6 c03d 8070 98bd c314 4a3b
000002f0: d242 073e d1eb 23bd 8582 c1bd 599c d2bc
00000300: 4df7 c43c 86e1 493e 3ccd 65bd 943c 293d
00000310: 5c40 0e3e 967e ce3d 572b c93d 9b1b 40be
00000320: 2de8 9c3d 9f1c b7bd 2a02 a13d 0b4e 233d
00000330: 8b6b 373d cd79 043e 68cc 3abe 3850 293e
00000340: 751b 8e3d 09c5 6dbd 6ef4 1a3e f484 803c
00000350: 6a91 c33d 8d62 61bd b817 eebd 7132 0dbc
00000360: 9e82 2ebd 1868 613e 0fb4 dd3d 3925 ca3d
00000370: fbe8 973e e9ed 8bbd 345a 03bd a3ab 5dbd
00000380: c829 f7bb 4e5f ab3d 9294 d43d 528c 6cbd
00000390: ba60 ed3b 9c59 89bd e470 3d3d bcb2 8fbd
000003a0: b822 25bb fb34 533e 0841 353e eeed 6a3d
000003b0: 2578 133d 9caa 993e 58e0 38be 0227 abbd
000003c0: 43c5 eabd 297c bebb afd6 ba3b 7de4 df3d
000003d0: c924 a7bc b901 ee3d c082 01be 99f2 7abd
000003e0: 7256 3c3e ba06 edbc 8f71 713d da51 6a3d
000003f0: e38f 3b3c db23 9fbc d57b bdbd dadf 29be
-0.10363273 -0.095179535 0.074374445 -0.15697044 0.022092307 0.10173648 0.012208318 0.012638862
0.012500746 0.06038636 -0.18119626 0.0007631907 -0.04191361 0.09575924 -0.07011327 0.15879056
-0.037366576 0.0140153235 -0.056437623 -0.08659568 0.098465554 -0.025230203 -0.16887812 -0.055728313
-0.105837524 -0.04987922 0.1114975 0.026169468 -0.2166028 -0.026777418 0.06446081 0.030776022
-0.047511958 0.028098851 0.017996414 -0.023300033 0.12660511 0.04387977 -0.041401878 0.06028641
-0.0427749 0.07137474 -0.05361146 0.036741998 -0.06393108 0.07915839 -0.011370932 -0.025941093
-0.092306495 -0.018881831 -0.08099953 0.02556594 -0.07125358 0.14672625 0.09692225 0.04894471
-0.2052953 -0.13013428 0.029798295 -0.010518983 0.04774208 0.058004096 -0.008167864 -0.03825979
-0.023886623 0.03995952 0.0075219334 0.099521205 0.028537953 -0.04548218 -0.018063176 0.14677675
0.034262307 -0.16329968 0.04554205 -0.07872425 0.020852143 0.11828394 -0.0110269 -0.085067615
0.11275322 -0.036412157 -0.037737917 -0.133483 -0.05553474 -0.14345886 0.03246056 -0.09215507
-0.09818712 -0.042294078 0.07792206 0.0016872628 -0.02358918 0.08134743 -0.063245475 0.0002587983
-0.016702747 0.10862837 -0.0009334119 0.20031025 0.030866286 0.045424577 -0.03823973 0.13229658
-0.15034175 0.13782413 0.090828806 0.02689755 -0.0241634 -0.10253621 -0.1308919 -0.2163305
0.024249101 0.08281614 -0.05515749 0.068126544 -0.013898455 0.010197869 0.0122658815 -0.07164347
-0.113459185 -0.081700005 0.05068075 0.02421794 0.033272155 -0.030721335 -0.17306544 0.24233468
0.23295936 -0.0025550239 -0.05623785 -0.12288637 -0.02260202 0.056961425 -0.0835843 -0.083803706
0.09428405 0.045777943 0.03535806 -0.009968938 -0.0429663 -0.07094171 0.0664946 0.03744587
-0.013274743 -0.18539797 -0.035579912 -0.084650576 -0.033887587 0.09040661 0.04316868 -0.011679161
-0.20105842 0.0735908 -0.15593815 -0.16186072 -0.1426226 0.020282282 -0.15163548 -0.01487902
-0.021664875 0.11039071 -0.07792724 -0.06865487 -0.13806696 0.13740283 0.09271318 0.14219806
0.0517662 0.11371775 0.06002 0.046402592 -0.09171113 -0.07946527 -0.024992192 -0.022052366
-0.11417585 0.07516715 0.07066139 0.14904869 0.07264136 -0.14265029 -0.18678424 0.008698622
-0.04000984 0.09418874 -0.07443333 0.003083513 0.13209084 -0.040019814 -0.09448723 -0.025709318
0.024043703 0.19714937 -0.05610393 0.041317537 0.13891739 0.10082738 0.098227195 -0.1876053
0.076614715 -0.08941006 0.07861741 0.03986935 0.044780295 0.12937088 -0.18242037 0.16534507
0.06938831 -0.058049235 0.15132305 0.015688397 0.0954922 -0.055025626 -0.11625618 -0.008617983
-0.042605035 0.22012365 0.10825359 0.09870381 0.29669937 -0.06832487 -0.032068446 -0.054118764
-0.0075428225 0.08367787 0.103799 -0.057751007 0.0072441967 -0.06706545 0.04625024 -0.07016513
-0.0025197696 0.20625679 0.17700589 0.057355814 0.03600325 0.30012977 -0.1805433 -0.083570495
-0.11463406 -0.005813141 0.005701862 0.109322526 -0.020403283 0.11621422 -0.12647533 -0.061266515
0.18392351 -0.028933872 0.05894619 0.057206966 0.0114478795 -0.019426277 -0.09252135 -0.16589299

fc1.bias f4 [128]
00000000: 11f6 0d3d 88d9 da3c 5900 e63c 8f37 a1bb
00000010: 288b 4fbc 4356 2e3d eaa5 2cbb bcaf a03b
00000020: 0e39 8539 5635 663c d006 45bc a962 0ebd
00000030: f959 c53b fd11 17bc 28a8 8dbc 34ed d8bc
00000040: 2a78 0fbd 5f3a e23b 46fb c9bc fb13 853c
00000050: 983b 2e3d f35f 98bc 0545 9ebc 71cf 10bb
00000060: 5bf2 be3a 7db9 b7bb 08f4 c0bc 92a1 68bc
00000070: bdee b63b 13cf a63c 0b42 21bd f37f 2a3c
00000080: d4ec c8bc d223 c4bc edab c539 b363 e93b
00000090: 2531 183d f355 03bd b886 d4bc 7f84 e9bc
000000a0: a864 a33c f37b 163d f8e5 143d 2af8 a43c
000000b0: 2a9b 5d3c 8bb7 393c 76c7 c0bc b04d f83c
000000c0: 3532 00bd 6b54 183d f671 0ebc 1ea0 76ba
000000d0: 233e 403c 452d 1c3d 31ca e83b c4a6 003d
000000e0: 1f7e 793c e738 d63c a2c1 03bc 21d5 473c
000000f0: 6e7b 033d c517 bfbb 331f 0a3d 4510 6dbc
00000100: fcce 71bb 8681 0e3d fcb8 0cbd 3f11 22bd
00000110: 437b c7bc 161c 983c a246 3dbc acd6 b13c
00000120: edf5 09bd aca0 9cbc 3a6e a93c 5379 7b3c
00000130: c8d3 2e3c a83e cc3c 7964 1b3d e9c2 1dbc
00000140: ec97 8dbb fca6 323d 2b34 9bb9 15b7 c1bc
00000150: d874 eabc aa21 bfbc 07e9 17bb 5063 f33a
00000160: c1d6 16bd a595 493b 8612 0fbd 4067 16bd
00000170: b371 c5bc d197 de3c f39d 083d 244f cb3c
00000180: ddc6 21bd b161 92b9 ffbd 203d f5ba 89bc
00000190: fd78 933c 7cf7 1fbd e8c8 6bbc 273e ef3c
000001a0: 5ad6 433c 6176 bc3c 2d74 1bbd d1d3 ad3c
000001b0: 4da1 f6bc ed53 2b3c 221e febc 4f58 8f3b
000001c0: c0f0 323c 3d29 b5bc 11ff 1f3d 33d4 dd3a
000001d0: 09d9 1b3c 14ee ffbc 00df 83bb ad42 bc3c
000001e0: 9cfd 263d 0319 0dbd fd98 883b 0717 d0bc
000001f0: 9d23 fc3c 6f31 a7bc 82fb 333d e925 763c
0.034658495 0.026715055 0.028076338 -0.004919953 -0.012667455 0.042562734 -0.002634401 0.0049037617
0.00025410246 0.014050802 -0.01202555 -0.03476206 0.0060226885 -0.009220597 -0.017292097 -0.026480295
-0.035026707 0.006903931 -0.02465595 0.016244879 0.0425373 -0.01860044 -0.01932002 -0.00220963
0.0014568077 -0.0056068287 -0.023553863 -0.014198678 0.005582659 0.020362413 -0.039369624 0.010406482
-0.024526991 -0.023942862 0.00037702863 0.007122481 0.037156243 -0.03206439 -0.025943145 -0.028505562
0.019945458 0.0367393 0.036352128 0.020137865 0.0135257635 0.011335264 -0.02353261 0.030310482
-0.03129788 0.037189882 -0.008694163 -0.00094080146 0.011733565 0.03812911 0.007104181 0.03140904
0.0152278235 0.02615018 -0.008041771 0.01219681 0.032100134 -0.005831691 0.03372116 -0.014469211
-0.0036897054 0.034791492 -0.034356102 -0.03956723 -0.024350768 0.01856808 -0.011552485 0.021708809
-0.0336818 -0.019119583 0.020682443 0.01534875 0.01067061 0.02493222 0.037937615 -0.00962899
-0.004321089 0.04361628 -0.00029602772 -0.02364687 -0.028620169 -0.023331482 -0.0023179667 0.0018569026
-0.0368259 0.003075936 -0.034929775 -0.03671956 -0.024102068 0.027172001 0.033353757 0.02481801
-0.03949629 -0.00027920076 0.039243694 -0.01681278 0.018002028 -0.03905438 -0.0143911615 0.029204441
0.011952961 0.023005666 -0.03795259 0.021219166 -0.030106211 0.010457021 -0.031020228 0.004374541
0.010921657 -0.02211439 0.03906161 0.0016924202 0.009512194 -0.031241454 -0.0040243864 0.022981012
0.040769204 -0.03444768 0.0041686282 -0.025401605 0.0307787 -0.020409314 0.04394103 0.015023687

bn4.weight f4 [128]
00000000: 81f7 a53f e277 b33f 4155 b13f b08c a13f
00000010: bec2 a93f 7da2 b03f 79c1 a83f f114 a83f
00000020: 9aaa a73f 0ba5 a33f 3dc5 ac3f 105e b53f
00000030: 2491 b03f 66d2 aa3f b64e b23f 455f a63f
00000040: d5ec a63f 0cf4 9b3f 76aa a83f ece8 a83f
00000050: 9c5c a93f 163c b33f aa40 a33f 24c4 a93f
00000060: 7c44 b03f 325c a63f 7ae9 ab3f 8a22 a23f
00000070: e4da c93f 9347 ab3f 6b48 b33f 372d a93f
00000080: 4f6e a33f d386 ab3f fba7 a93f 176e c83f
00000090: 48ce a43f cfff ac3f 5779 b53f 044c a53f
000000a0: 0259 a83f 5bbd a73f fd19 af3f 3d2d a43f
000000b0: 3f7a a33f 31ba b63f 56fa b63f 5f93 9e3f
000000c0: 7566 a13f 423f a53f 6bf8 a03f e6b9 b23f
000000d0: 4919 9e3f 5335 a73f e1db b13f 003b a83f
000000e0: 138f b03f d593 9e3f 7173 ba3f 8e42 a63f
000000f0: ce16 b23f a68a 9e3f 5699 aa3f a0d8 ac3f
00000100: 828e a53f 8901 a43f 600e ad3f f99a b43f
00000110: beac a13f a869 bd3f a7a5 aa3f d3f3 ac3f
00000120: 76a6 9f3f 9df1 a13f 695b b03f 8575 a53f
00000130: 1110 bd3f 32a3 a93f f0be a53f 04bc ab3f
00000140: f4e7 b93f 6244 a03f 54d7 ad3f d5e9 ad3f
00000150: e0d3 9d3f e3fe ad3f bffd 9e3f ceaf ab3f
00000160: a803 a63f 32eb b53f 0216 b23f e9f6 a93f
00000170: 5fdc a73f 0bdd a93f b5a6 ac3f 56cc ad3f
00000180: 59c1 a73f 92cf 9b3f aedc b63f 55c4 ab3f
00000190: 9f30 a23f 18f8 af3f 52d5 b43f 3dca b63f
000001a0: 2620 a53f 1739 aa3f ba85 ac3f 14c2 a23f
000001b0: af38 a03f 8f44 a53f aef5 ac3f a9ae a73f
000001c0: 73a9 bd3f 7d72 a93f 5929 a43f 025d a83f
000001d0: 6e3f b33f 3045 b43f 4031 b93f 85f3 a23f
000001e0: d9f6 a63f 2608 c83f 1bfa af3f 0764 a23f
000001f0: 57dd 9f3f 5b32 a83f dffe ac3f f0c1 c03f
1.2966157 1.402096 1.3854142 1.262106 1.3262556 1.3799587 1.3184043 1.3131391
1.3098938 1.2784742 1.3497692 1.4169331 1.3794293 1.3345459 1.3930271 1.2997824
1.3041025 1.2183852 1.317702 1.3196082 1.3231387 1.4002712 1.2754109 1.3262982
1.37709 1.2996886 1.3430626 1.266679 1.5769925 1.3381218 1.4006475 1.3216923
1.2768039 1.340052 1.3254389 1.5658597 1.2875452 1.3515567 1.4177655 1.2913823
1.3152163 1.3104662 1.3679806 1.2826306 1.2771682 1.4275571 1.4295146 1.2388724
1.2609392 1.290993 1.2575811 1.3962982 1.2351466 1.3063148 1.3895227 1.3143005
1.3793663 1.2388865 1.456648 1.2989061 1.391321 1.2386062 1.3328044 1.3503609
1.2934115 1.2812968 1.3520012 1.4109794 1.2630842 1.4797869 1.3331803 1.3511909
1.2472675 1.265186 1.3777896 1.2926489 1.4770528 1.3252928 1.2948895 1.3416753
1.4523911 1.2520869 1.3581338 1.3586985 1.2330284 1.359341 1.2421187 1.3413026
1.2969866 1.4212401 1.3912966 1.3278476 1.3114127 1.3270582 1.3488375 1.3577983
1.310588 1.217272 1.4286096 1.3419291 1.2671088 1.3747587 1.41276 1.4280468
1.2900436 1.3298672 1.347831 1.2715478 1.2517298 1.2911547 1.3512475 1.3100177
1.4817337 1.3238064 1.2825118 1.3153384 1.4003732 1.4083614 1.4468155 1.2730566
1.3044082 1.5627487 1.3748201 1.2686776 1.2489423 1.3140367 1.351528 1.5059185
