saved_models/rotate+gan+2samples.pth (torch, 537926 bytes, 26 tensors)

conv1.weight f4 [32, 1, 3, 3]
0.16681577 0.10861226 0.09853072 -0.30898127 -0.3427899 0.09925482 -0.12574017 0.07845194
-0.42273778 0.0072289114 -0.058424063 -0.09089858 -0.2507741 0.28550005 0.14089544 -0.24394305
0.3814305 -0.32925975 -0.0051723984 0.15181884 -0.092766635 -0.37970996 0.089056246 0.2847042
-0.20997903 -0.462735 -0.3739626 0.0031451634 -0.30102623 -0.21613744 -0.16243985 0.21293439
0.03237599 0.09541367 0.1976379 -0.30347493 -0.15396139 0.29095396 0.14763549 0.12549251
0.26065865 0.27873802 -0.23555622 0.14490888 0.21903843 -0.35482845 -0.31243464 -0.021634934
-0.2509307 0.12120451 0.18284908 0.019784685 0.009159256 0.108942464 -0.08941145 -0.0898217
0.0044296337 0.18748032 -0.25925785 -0.32209554 0.2112462 0.25789958 0.0073210103 -0.010310565
0.15997694 0.33383104 0.21090582 0.0006535048 -0.15697141 -0.36426494 -0.16461256 -0.32634157
0.13024622 -0.20037435 0.2339701 0.24150813 -0.05754458 0.3088384 -0.14159669 -0.42897078
-0.035166766 -0.049226295 -0.36426365 0.24898316 0.23138085 -0.2184178 -0.16792594 0.1317912
-0.13897946 0.03476315 -0.16139443 -0.3191122 -0.15952374 0.008291704 -0.26437098 0.12221146
0.24624941 0.18447092 0.18015382 -0.30799386 -0.044586457 0.18806703 -0.15635698 -0.27211875
0.23187946 -0.21819341 -0.15102005 -0.12927893 -0.2731831 -0.28781462 -0.20110945 0.12910654
-0.17654441 -0.27896053 0.17617269 -0.04988685 0.0905122 0.14160565 -0.29887503 -0.100943536
0.29399392 0.10565823 -0.47050014 -0.04024491 -0.04702739 -0.22839381 0.22836985 -0.42667788
-0.2279262 0.12952253 -0.07017262 0.33604908 -0.07518306 0.20048171 -0.16439824 0.02407763
-0.18316846 0.023543073 0.15291767 0.27506322 -0.40240228 0.29686612 -0.23719364 -0.36700642
0.10155375 0.060087454 -0.3311263 0.33476654 -0.18845682 -0.19274992 0.039907794 -0.29079437
-0.011200658 0.11235496 0.30647254 0.04568735 0.12506631 -0.13692734 0.003550188 0.1416221
-0.26856974 -0.33765456 -0.024301229 -0.26216373 0.09313276 -0.23012973 -0.12055423 0.28730708
0.15835194 0.052020423 0.13057467 -0.01669056 0.25107387 -0.019679883 -0.4984122 -0.28362998
-0.20696035 0.028167302 -0.18416557 -0.14615107 -0.011055112 0.022080962 -0.40871248 0.27086985
0.024168644 -0.14510046 -0.01561952 0.0688443 0.29358178 0.017745238 0.15326838 0.23086014
-0.24675766 0.05986562 0.04174093 -0.2964872 -0.07896929 0.009510219 0.027433977 0.15311608
-0.19772099 0.22861223 -0.38172516 -0.044476494 -0.24603812 0.005424302 0.26734 0.19875361
-0.112557575 -0.2136964 -0.024569312 0.25600567 -0.25635445 -0.13431847 0.11945704 -0.004784217
-0.13852355 0.12775414 0.17616227 -0.17807129 -0.35990334 0.14644541 0.1657861 -0.028680075
-0.2700362 -0.04758961 0.16102575 0.21346149 -0.09150757 0.013191986 -0.035919636 -0.20235595
-0.41783005 -0.13995126 -0.12848888 -0.3452549 0.1435866 -0.11569906 0.20941095 0.11819754
-0.04504415 -0.34564346 0.24239877 0.36061266 -0.15165919 -0.044298764 -0.06770979 -0.09674155
-0.17221643 -0.3217672 -0.2582619 0.22665206 -0.3080591 0.096929766 0.29952294 0.03390784
00000000: c1d1 2a3e 1b70 de3d 79ca c93d cb32 9ebe
00000010: 2882 afbe 1c46 cb3d 08c2 00be 69ab a03d
00000020: 1671 d8be 81e0 ec3b 124e 6fbd 0929 babd
00000030: 7665 80be 102d 923e e546 103e 35cc 79be
00000040: dc4a c33e bc94 a8be 397d a9bb 6676 1b3e
00000050: 6ffc bdbd 5869 c2be 1f63 b63d c0c4 913e
00000060: be04 57be 9aeb ecbe 0778 bfbe 161f 4e3b
00000070: 1c20 9abe 2253 5dbe a256 26be 790b 5a3e
00000080: b09c 043d 3e68 c33d 9761 4a3e 1161 9bbe
00000090: 0ea8 1dbe ebf7 943e c22d 173e 1c81 003e
000000a0: 0d75 853e c0b6 8e3e a635 71be fe62 143e
000000b0: 9c4b 603e 13ac b5be 6ff7 9fbe bf3b b1bc
000000c0: fd79 80be 123a f83d ca3c 3b3e 7e13 a23c
000000d0: b410 163c 3a1d df3d 5a1d b7bd 70f4 b7bd
000000e0: 7626 913b d7fa 3f3e 72bd 84be b5e9 a4be
000000f0: ed50 583e 6a0b 843e 16e5 ef3b a5ed 28bc
00000100: ffd0 233e e7eb aa3e b2f7 573e f74f 2b3a
00000110: 1dbd 20be ef80 babe 3290 28be 3e16 a7be
00000120: 445f 053e ef2e 4dbe dc95 6f3e e84d 773e
00000130: deb3 6bbd 1120 9e3e b9fe 10be 0fa2 dbbe
00000140: 070b 10bd 83a1 49bd c480 babe 71f5 7e3e
00000150: 1aef 6c3e eaa8 5fbe c7f4 2bbe 46f4 063e
00000160: a250 0ebe ce63 0e3d 9544 25be ad62 a3be
00000170: 315a 23be edd9 073c a25b 87be 004a fa3d
00000180: ce28 7c3e f2e5 3c3e 3e7a 383e 5fb1 9dbe
00000190: 4aa0 36bd a594 403e 0b1c 20be 2653 8bbe
000001a0: cf71 6d3e 186e 5fbe 00a5 1abe b261 04be
000001b0: a8de 8bbe 705c 93be a3ef 4dbe 8134 043e
000001c0: 0fc8 34be ead3 8ebe 9d66 343e 2756 4cbd
000001d0: 765e b93d 1201 113e 2606 99be 7cbb cebd
000001e0: 5f86 963e 5863 d83d 65e5 f0be d9d7 24bd
000001f0: cb9f 40bd 11e0 69be c9d9 693e 8675 dabe
00000200: 7c65 69be 8ea1 043e aab6 8fbd a00e ac3e
00000210: 93f9 99bd 144b 4d3e 0358 28be 733e c53c
00000220: 8390 3bbe 67dd c03c 7396 1c3e 16d5 8c3e
00000230: ac07 cebe d6fe 973e e4e2 72be 44e8 bbbe
00000240: 6afb cf3d 431e 763d 6389 a9be 8566 ab3e
00000250: d3fa 40be 3c60 45be 5b76 233d 00e3 94be
00000260: f782 37bc 5b1a e63d f8e9 9c3e a922 3b3d
00000270: 6211 003e ae36 0cbe 45aa 683b 6205 113e
00000280: f981 89be 0fe1 acbe 5f13 c7bc 533a 86be
00000290: 63bc be3d 21a7 6bbe 23e5 f6bd ea19 933e
000002a0: 0327 223e 5e13 553d 5eb5 053e a4ba 88bc
000002b0: c18c 803e b537 a1bc e22f ffbe f337 91be
000002c0: 6aed 53be 1dbf e63c e695 3cbe a0a8 15be
000002d0: 8020 35bc 22e3 b43c c342 d1be 74af 8a3e
000002e0: 52fd c53c 3795 14be 04e9 7fbc 3efe 8c3d
000002f0: 5a50 963e 765e 913c 63f2 1c3e 9a66 6c3e
00000300: 0aae 7cbe a735 753d 8af8 2a3d 2ccd 97be
00000310: a7ba a1bd c0d0 1b3c 38bd e03c 76ca 1c3e
00000320: 5f77 4abe 5319 6a3e 7b71 c3be fc2c 36bd
00000330: 6bf1 7bbe 58be b13b cae0 883e 1186 4b3e
00000340: 9684 e6bd 3bd3 5abe 9545 c9bc 2d13 833e
00000350: e440 83be c88a 09be e5a5 f43d ecc4 9cbb
00000360: 1ed9 0dbe fbd1 023e e263 343e 5258 36be
00000370: 4045 b8be c9f5 153e d5c3 293e 7af2 eabc
00000380: 2f42 8abe 53ed 42bd efe3 243e a695 5a3e
00000390: 5268 bbbd 3323 583c 7820 13bd 6636 4fbe
000003a0: d2ed d5be 624f 0fbe 9792 03be 40c5 b0be
000003b0: 5e08 133e a1f3 ecbd d36f 563e 8d11 f23d
000003c0: 3780 38bd 2ef8 b0be 6237 783e 39a2 b83e
000003d0: 8c4c 1bbe 9f72 35bd 6eab 8abd 6f20 c6bd
000003e0: 8159 30be acbe a4be e73a 84be 7a17 683e
000003f0: ecb9 9dbe 1d83 c63d 125b 993e f2e2 0a3d

conv1.bias f4 [32]
0.09372097 0.22316569 0.23342837 -0.2205825 0.23300801 -0.30953345 0.098983526 0.20202741
0.09890593 -0.079038374 0.14459871 0.07460294 -0.29532844 -0.012140337 -0.112470366 0.2963427
0.0042535644 -0.31686687 0.21799858 0.09577131 -0.003986413 -0.047368005 0.40056014 0.28791994
0.09283456 -0.16329987 -0.005735098 0.084555 -0.010031873 -0.23356889 0.32087916 -0.1457646
00000000: c8f0 bf3d 8c85 643e d907 6f3e 61e0 61be
00000010: a799 6e3e 2b7b 9ebe e0b7 ca3d 46e0 4e3e
00000020: 318f ca3d dfde a1bd af11 143e 6dc9 983d
00000030: 4a35 97be 44e8 46bc dd56 e6bd 3bba 973e
00000040: 7c61 8b3b 603c a2be 053b 5f3e c023 c43d
00000050: 75a0 82bb f404 42bd 3816 cd3e 3e6a 933e
00000060: 0c20 be3d 1538 27be 7ded bbbb 2c2b ad3d
00000070: ba5c 24bc af2c 6fbe 464a a43e 5143 15be

bn1.weight f4 [32]
1.0208272 0.9869137 1.0605516 1.050972 0.63788617 1.1107037 1.1140511 0.9948197
0.9340699 1.1065766 0.999913 1.160091 1.1889129 1.0323703 0.94229585 0.92416465
1.2300893 0.9333689 0.8641566 1.2241989 0.7067487 0.8655849 1.2669263 0.8604567
1.3340565 1.145755 0.7897727 1.2265266 0.9277628 1.1745688 0.8304301 0.9957492
00000000: 77aa 823f 60a6 7c3f 28c0 873f 4086 863f
00000010: 824c 233f 8a2b 8e3f 3a99 8e3f 81ac 7e3f
00000020: 341f 6f3f 4da4 8d3f 4cfa 7f3f dd7d 943f
00000030: 4c2e 983f b624 843f 4d3a 713f 0e96 6c3f
00000040: 9173 9d3f 44f1 6e3f 5e39 5d3f 8db2 9c3f
00000050: 7ced 343f f996 5d3f a42a a23f e446 5c3f
00000060: 5dc2 aa3f 1aa8 923f 8b2e 4a3f d3fe 9c3f
00000070: dd81 6d3f 4558 963f 1197 543f 6be9 7e3f

bn1.bias f4 [32]
-0.24790257 -0.17354557 -0.20124713 -0.016710648 -0.41318357 -0.08353477 -0.021982271 -0.0634448
-0.0037907602 -0.047366295 0.25747743 -0.07455417 -0.089350425 -0.23406906 0.098896675 -0.17893286
-0.0853392 -0.16634049 -0.084000066 -0.114452004 -0.30614847 -0.0027175646 0.024000663 -0.19773147
-0.07708491 -0.045938518 -0.20820008 -0.09214037 -0.17575112 -0.21178453 0.11713688 -0.24904732
00000000: 2cda 7dbe eeb5 31be ba13 4ebe c5e4 88bc
00000010: cc8c d3be 4714 abbd 2a14 b4bc 59ef 81bd
00000020: 676e 78bb 2903 42bd 15d4 833e dbaf 98bd
00000030: 5bfd b6bd cdaf 6fbe 578a ca3d 2d3a 37be
00000040: 52c6 aebd 2955 2abe 3a08 acbd d065 eabd
00000050: 7ebf 9cbe 2b19 32bb 0a9d c43c 1e7a 4abe
00000060: b1de 9dbd 072a 3cbd 6732 55be 17b4 bcbd
00000070: 1af8 33be 0bde 58be 76e5 ef3d 4306 7fbe

bn1.running_mean f4 [32]
0.08821446 0.20629847 0.2123837 -0.23390245 0.23950341 -0.32011554 0.10420561 0.19333145
0.102096826 -0.07354128 0.14798218 0.06310215 -0.3042073 -0.022655632 -0.11578872 0.28796574
-0.00019543688 -0.31575316 0.22626469 0.086451694 -0.005311189 -0.05002396 0.4012826 0.28059945
0.09357828 -0.17111745 -0.008969696 0.08308652 -0.014405145 -0.2380656 0.31966594 -0.15936136
00000000: c8a9 b43d e83f 533e 1d7b 593e 2084 6fbe
00000010: 6240 753e 2fe6 a3be c069 d53d aef8 453e
00000020: 2418 d13d d09c 96bd a488 173e b33b 813d
00000030: 0fc1 9bbe 4e98 b9bc a322 edbd 3f70 933e
00000040: 30ee 4cb9 66aa a1be eeb1 673e 960d b13d
00000050: 7c09 aebb ede5 4cbd ea74 cd3e bbaa 8f3e
00000060: f8a5 bf3d 6a39 2fbe a2f5 12bc 4429 aa3d
00000070: 8f03 6cbc 78c7 73be 41ab a33e a02f 23be

bn1.running_var f4 [32]
0.4191336 0.07654294 0.82201266 0.17865737 0.9990599 0.46387824 0.14951722 0.36696565
0.15695108 0.13762277 0.31749994 0.6599271 0.6998305 0.5285782 0.09915392 0.42642635
0.41181412 0.29107907 0.17246021 0.9131952 0.15628265 0.1852206 0.11349121 0.08691706
0.14786299 0.40337497 0.20265748 0.3770228 0.2436763 0.083851755 0.44202772 0.86578166
00000000: ae98 d63e 8cc2 9c3d 6c6f 523f f5f1 363e
00000010: 64c2 7f3f 7381 ed3e 0b1b 193e ece2 bb3e
00000020: c9b7 203e fcec 0c3e 5a8f a23e fcf0 283f
00000030: 1728 333f e750 073f 3611 cb3d 8e54 da3e
00000040: 4dd9 d23e 5108 953e 6999 303e 29c7 693f
00000050: 8f08 203e 78aa 3d3e 146e e83d 9201 b23d
00000060: 6569 173e 2a87 ce3e 7185 4f3e 2209 c13e
00000070: 4886 793e 78ba ab3d 7551 e23e dea3 5d3f

conv2.weight f4 [64, 32, 3, 3]
0.13706493 -0.13061252 -0.072228745 0.04905535 -0.06938916 -0.11034803 0.005195402 0.026328444
-0.07313128 0.048339587 0.024781799 0.059620257 -0.012499856 0.06176491 0.11835424 0.09271279
0.041957777 0.10152202 0.124898165 0.0095386775 0.017299542 -0.08779786 -0.22323036 -0.12021723
-0.01782951 0.038070947 -0.056408606 0.1443368 0.0064202435 -0.026985044 0.03647845 -0.10243408
0.008489017 0.086025536 -0.1296427 -0.12429345 -0.069705114 0.061914045 0.17830075 -0.015777111
0.08423707 0.19131254 -0.05451273 0.14497876 0.061157428 0.08813938 0.05896872 0.07368072
0.07701088 0.14005673 0.13452458 0.08813999 0.15613696 0.010286162 0.23372215 -0.0067245685
-0.13017336 -0.16796358 -0.09790815 -0.031611856 -0.15489864 -0.05159351 0.0195527 0.034227382
-0.012170462 -0.12158433 0.18830568 -0.07736472 -0.024838421 -0.05398534 -0.03490594 -0.10376965
0.06734199 0.0034477664 -0.12384763 0.07565389 -0.039735965 -0.11338783 -0.10176171 -0.026515393
0.0054001287 0.10242392 -0.008086881 -0.031848338 -0.075432695 -0.025621476 0.06829454 -0.10578593
0.030105606 -0.10777051 0.23895532 0.036714237 -0.099038675 0.06438185 -0.058124587 -0.07060149
0.15134457 -0.07843988 -0.15105565 0.037854385 -0.050141346 0.12030277 -0.073987946 -0.016237017
-0.048897944 0.01580439 0.027559875 0.09897811 0.36127347 0.06409962 -0.020298272 0.07251337
0.07032149 0.03071562 0.043223154 -0.24165091 -0.15386824 -0.043109007 -0.20066868 -0.09073024
0.025260665 0.11424677 -0.044928323 -0.07974479 0.1082309 -0.02308743 0.09997496 -0.056663226
-0.14757274 0.030346204 -0.06509292 -0.13838919 0.017696379 -0.19477887 -0.04481807 -0.01925061
-0.055948813 -0.01566931 0.0051132482 0.1994756 0.0965069 0.09538296 0.13715807 -0.07180544
-0.030427413 -0.12463254 -0.040566374 0.008551369 0.14592963 0.0149980355 0.05290675 0.17574932
0.01685782 -0.07073529 -0.061582524 -0.16152637 0.05985258 -0.024070948 -0.06162296 -0.042140298
0.030619275 0.009358694 0.074895054 0.085772 0.0657826 0.0023450796 0.11067951 0.10106002
0.15604603 0.09301487 -0.05179293 0.059612118 -0.022946296 -0.04849805 0.13693018 -0.06985468
-0.12832569 0.030019287 -0.15225033 -0.15461391 -0.017904513 -0.09645166 -0.046385445 -0.012587664
-0.09047744 -0.017118901 -0.07078074 -0.009947426 -0.06486859 0.086056024 0.06013517 0.00819664
0.09254465 -0.041733347 0.04349102 -0.0979687 0.09526305 0.11076014 -0.083499245 -0.032821808
-0.09874866 0.07144772 0.05793526 -0.036562487 0.12025022 0.07782215 0.033344507 -0.109197624
-0.18653691 -0.01417344 -0.11641365 -0.12351 0.034662295 -0.22194892 -0.11388917 0.0531658
0.16689791 0.19786496 0.06662413 0.0027986856 -0.18000528 -0.20906521 -0.029486112 -0.06559105
0.015221358 0.008398513 0.16171084 -0.10644436 0.09858824 -0.123870686 -0.16123295 -0.032038584
-0.11048885 -0.089654915 0.027640121 0.08168606 0.10746085 -0.030067485 0.084765755 -0.014594701
0.13716097 0.10187822 0.006570397 0.006348146 -0.1823844 -0.30942783 0.27451918 0.04483324
0.07115802 0.0107376855 0.16443186 0.18700595 0.09133313 0.13680787 -0.005830436 0.05047243
00000000: c05a 0c3e 4abf 05be aaec 93bd 43ee 483d
00000010: e71b 8ebd 26fe e1bd 313e aa3b c0ae d73c
00000020: dac5 95bd bbff 453d 3303 cb3c 5f34 743d
00000030: 32cc 4cbc 34fd 7c3d b563 f23d 34e0 bd3d
00000040: ebdb 2b3d c7ea cf3d 9cca ff3d 1d48 1c3c
00000050: c5b7 8d3c 5dcf b3bd 8096 64be 7334 f6bd
00000060: 310f 92bc 48f0 1b3d b60c 67bd 07cd 133e
00000070: e860 d23b bd0f ddbc 6d6a 153d f5c8 d1bd
00000080: 8515 0b3c 282e b03d 0ec1 04be 908d febd
00000090: 8ec1 8ebd 9599 7d3d 7994 363e 003f 81bc
000000a0: 7c84 ac3d 6fe7 433e be48 5fbd 5075 143e
000000b0: 3680 7a3d 6b82 b43d 2f89 713d ebe5 963d
000000c0: e1b7 9d3d 086b 0f3e d0c0 093e bd82 b43d
000000d0: 5ee2 1f3e 4a87 283c dc54 6f3e c559 dcbb
000000e0: 2a4c 05be a5fe 2bbe 1184 c8bd 6f7b 01bd
000000f0: c09d 1ebe b753 53bd fc2c a03c 0332 0c3d
00000100: 9e66 47bc 3501 f9bd 34d3 403e 6571 9ebd
00000110: f279 cbbc bb1f 5dbd 88f9 0ebd 2f85 d4bd
00000120: 99ea 893d ecf3 613b d4a3 fdbd 6df0 9a3d
00000130: 2ec2 22bd e137 e8bd 7268 d0bd cf36 d9bc
00000140: 90f3 b03b a2c3 d13d d67e 04bc 6773 02bd
00000150: 757c 9abd 21e4 d1bc 02de 8b3d 4ba6 d8bd
00000160: 08a0 f63c c9b6 dcbd b4b0 743e ab61 163d
00000170: cad4 cabd a2da 833d 0c14 6ebd 8497 90bd
00000180: 12fa 1a3e 16a5 a0bd 55ae 1abe 330d 1b3d
00000190: 0361 4dbd 4c61 f63d fe86 97bd 7e03 85bc
000001a0: 3649 48bd 3578 813c 3fc5 e13c 09b5 ca3d
000001b0: d6f8 b83e a946 833d 9048 a6bc e481 943d
000001c0: b704 903d 539f fb3c c30a 313d 5673 77be
000001d0: a38f 1dbe 1293 30bd 177c 4dbe c7d0 b9bd
000001e0: 74ef ce3c 36fa e93d c306 38bd 3d51 a3bd
000001f0: 29a8 dd3d da21 bdbc acbf cc3d b317 68bd
00000200: 4f1d 17be 9a98 f83c 704f 85bd e5b5 0dbe
00000210: fff7 903c 1d74 47be 2793 37bd 75b3 9dbc
00000220: 952a 65bd ed5c 80bc 098d a73b 5543 4c3e
00000230: 69a5 c53d 2458 c33d 2a73 0c3e bb0e 93bd
00000240: e942 f9bc 583f ffbd ed28 26bd 0b1b 0c3c
00000250: 946e 153e 52ba 753c c0b4 583d a1f7 333e
00000260: 6919 8a3c aadd 90bd f53d 7cbd 2b67 25be
00000270: fb27 753d 7030 c5bc 5b68 7cbd 4e9b 2cbd
00000280: 46d5 fa3c 3555 193c 9462 993d 3ba9 af3d
00000290: 07b9 863d e8af 193b f0ab e23d 8ef8 ce3d
000002a0: 88ca 1f3e 957e be3d d324 54bd d62b 743d
000002b0: dff9 bbbc e4a5 46bd 6d37 0c3e f80f 8fbd
000002c0: cf67 03be 02eb f53c 83e7 1bbe 1c53 1ebe
000002d0: 7cac 92bc 7388 c5bd aafe 3dbd 7d3c 4ebc
000002e0: 3c4c b9bd f03c 8cbc 7ef5 90bd 87fa 22bc
000002f0: d3d9 84bd 243e b03d 4c50 763d 334b 063c
00000300: 0d88 bd3d 96f0 2abd a423 323d d0a3 c8bd
00000310: 4619 c33d 36d6 e23d a701 abbd 2970 06bd
00000320: bd3c cabd 2f53 923d 864d 6d3d 8cc2 15bd
00000330: bf45 f63d 3861 9f3d 4094 083d 01a3 dfbd
00000340: 8803 3fbe b737 68bc 486a eebd d0f2 fcbd
00000350: 0dfa 0d3d 9446 63be ba3e e9bd 62c4 593d
00000360: 49e7 2a3e 1d9d 4a3e 3b72 883d 276a 373b
00000370: 4e53 38be 3115 56be dc8c f1bc 9a54 86bd
00000380: 0163 793c eb99 093c 8797 253e 80ff d9bd
00000390: a2e8 c93d eaaf fdbd 401a 25be e43a 03bd
000003a0: fa47 e2bd ff9c b7bd 896d e23c 054b a73d
000003b0: 6f14 dc3d 1650 f6bc ab99 ad3d 9d1e 6fbc
000003c0: ed73 0c3e 87a5 d03d 7c4c d73b 1c04 d03b
000003d0: fac2 3abe 536d 9ebe c78d 8c3e 0fa3 373d
000003e0: 4cbb 913d 1eed 2f3c d360 283e 7d7e 3f3e
000003f0: dd0c bb3d 5d17 0c3e 3e0d bfbb 2ebc 4e3d

conv2.bias f4 [64]
0.017387047 -8.73363e-05 0.01503655 -0.042283397 -0.027871482 0.03461439 0.046550736 0.0153065985
0.008744579 -0.043986183 0.0062038777 0.0075707007 0.0009639439 -0.0056876484 0.018774452 -0.03604374
0.020359812 -0.0016263041 0.0104140295 -0.019121636 -0.04193511 0.025744118 0.046975665 -0.034448408
0.0045953733 -0.05068671 0.04696853 0.0069697816 0.04049236 0.039763264 -0.006690111 0.0070398045
-0.009294033 0.015062379 -0.02003545 -0.03226469 0.01571581 0.041131128 -0.007909056 0.009801192
-0.00023356189 0.01319556 -0.05189482 -0.045990918 0.009839922 0.06377757 0.041184757 0.045868125
-0.030712202 0.0618161 0.034015335 -0.041075975 0.01917509 0.038866192 0.007932807 0.03663703
-0.039541837 0.013671329 0.025230825 0.03868159 0.030719308 0.007440469 0.047116417 -0.028524011
00000000: 486f 8e3c 5228 b7b8 dd5b 763c 5b31 2dbd
00000010: bc52 e4bc d2c7 0d3d fcab 3e3d 87c8 7a3c
00000020: 6c45 0f3c db2a 34bd e649 cb3b a413 f83b
00000030: 2eb1 7c3a 745f babb e1cc 993c 9aa2 13bd
00000040: 9fc9 a63c b629 d5ba 9b9f 2a3c faa4 9cbc
00000050: 26c4 2bbd 54e5 d23c 8e69 403d c619 0dbd
00000060: c994 963b de9c 4fbd 1362 403d c462 e43b
00000070: 51db 253d cede 223d b838 dbbb 29ae e63b
00000080: 0046 18bc 32c8 763c 6221 a4bc fb27 04bd
00000090: 71be 803c 1d79 283d fc94 01bc 2e95 203c
000000a0: 4be8 74b9 3132 583c aa8f 54bd f960 3cbd
000000b0: a037 213c d19d 823d 59b1 283d 37e0 3b3d
000000c0: 2898 fbbc e132 7d3d aa53 0b3d 483f 28bd
000000d0: 1415 9d3c 2832 1f3d 9bf8 013c b610 163d
000000e0: 9ff6 21bd b6fd 5f3c e0b0 ce3c 9670 1e3d
000000f0: 0fa7 fb3c 2ecf f33b 25fd 403d 30ab e9bc

bn2.weight f4 [64]
1.0614492 0.78873986 0.89192206 0.9147239 1.1037431 1.070327 1.0172856 1.1721282
1.0741059 1.0458624 0.70748186 1.1188076 0.9672481 0.9926836 0.974939 0.58457196
1.0661596 0.836283 0.761071 1.1226108 1.1928519 0.98616755 0.8961931 0.999858
1.1089417 1.0634515 0.8593205 0.87459457 1.2322077 1.0976902 1.0191797 1.1391556
0.95791394 0.8417349 0.99354327 1.069778 0.9073909 1.0322598 1.0167528 0.9651311
0.8824747 1.0575151 0.9864216 0.9318713 1.1253688 0.97450894 1.008838 1.0166712
1.0301322 1.1044492 1.0930688 1.102402 0.9487369 1.1101799 0.92537695 0.7537143
0.97249997 1.1057715 0.8669555 1.0747008 1.161374 1.0642 0.99734914 0.95986944
00000000: 91dd 873f dbea 493f 0155 643f 582b 6a3f
00000010: 7447 8d3f 7a00 893f 6a36 823f 4c08 963f
00000020: 4d7c 893f d2de 853f 881d 353f 1635 8f3f
00000030: 929d 773f 8320 7e3f 9a95 793f 82a6 153f
00000040: eb77 883f a516 563f 8dd5 423f b6b1 8f3f
00000050: 5faf 983f 7a75 7c3f e96c 653f b2f6 7f3f
00000060: cdf1 8d3f 2e1f 883f 6efc 5b3f 6ee5 5f3f
00000070: fbb8 9d3f 1d81 8c3f 7b74 823f dacf 913f
00000080: d939 753f f07b 573f da58 7e3f 7cee 883f
00000090: c54a 683f 1721 843f f524 823f d512 773f
000000a0: dde9 613f a85c 873f 2086 7c3f 1e8f 6e3f
000000b0: 160c 903f 6b79 793f 9b21 813f 4822 823f
000000c0: 5fdb 833f 975e 8d3f aee9 8b3f 821b 8d3f
000000d0: 6ce0 723f 601a 8e3f 81e5 6c3f 6cf3 403f
000000e0: c2f5 783f ec89 8d3f ccf0 5d3f cc8f 893f
000000f0: e7a7 943f b537 883f 4652 7f3f 01ba 753f

bn2.bias f4 [64]
-0.2269945 -0.30242574 -0.20479727 -0.012675287 -0.030745579 -0.21030721 -0.068370625 -0.093404084
-0.066441424 -0.2589741 -0.14804655 -0.22714941 -0.23201391 -0.13076709 -0.13818313 -0.39658886
0.10931312 -0.31199405 -0.42154467 -0.22867486 -0.26017857 0.07832197 -0.046116363 -0.17917323
-0.044906102 -0.1496897 -0.20301363 -0.15843938 -0.009605604 -0.11489557 -0.21410026 -0.15354533
-0.33787298 -0.37276503 -0.16714463 -0.18836762 -0.046720088 -0.017388428 -0.1671043 -0.049383305
-0.23639262 -0.16136642 -0.1485831 -0.1735346 -0.15860023 -0.40020105 -0.1480041 -0.058023896
-0.037087984 -0.10745401 -0.21928646 -0.10617982 -0.032913137 -0.09492192 -0.14020923 -0.34599176
-0.09242618 -0.13953939 -0.42366645 -0.19188572 -0.17959438 0.06620117 0.018622294 -0.22985214
00000000: 3f71 68be 8cd7 9abe 60b6 51be 02ac 4fbc
00000010: 27de fbbc c65a 57be e605 8cbd a44a bfbd
00000020: 7112 88bd 4198 84be 8499 17be db99 68be
00000030: 0e95 6dbe cfe7 05be e17f 0dbe b20d cbbe
00000040: 8fdf df3d afbd 9fbe b4d4 d7be be29 6abe
00000050: 2036 85be 4567 a03d 83e4 3cbd 3079 37be
00000060: 76ef 37bd 4248 19be cee2 4fbe ef3d 22be
00000070: d360 1dbc 5e4e ebbd 193d 5bbe fd3a 1dbe
00000080: b0fd acbe 0fdb bebe f627 2bbe 71e3 40be
00000090: 905d 3fbd 2d72 8ebc 641d 2bbe 2646 4abd
000000a0: e810 72be 3d3d 25be 2b26 18be 0eb3 31be
000000b0: 1968 22be 27e7 ccbe 638e 17be 77aa 6dbd
000000c0: 92e9 17bd d910 dcbd a18c 60be ce74 d9bd
000000d0: edcf 06bd 6c66 c2bd 0293 0fbe d525 b1be
000000e0: f049 bdbd 6ae3 0ebe cfea d8be b17d 44be
000000f0: 97e7 37be 7b94 873d c88d 983c 5c5e 6bbe

bn2.running_mean f4 [64]
-0.20036396 -1.1164712 -1.367183 -1.3131341 -1.5037472 -3.0663297 0.31849438 -0.06344702
-3.213927 0.13953646 -1.7498063 -0.9328805 -0.9734132 -1.5162892 -2.3084402 -0.25135243
-0.27564582 -3.5548265 -0.14441955 0.7028445 0.28241968 -0.15034895 -1.4523777 0.6573071
-2.1049 -3.155224 -2.3206267 -1.8872075 0.1659855 -0.78141564 -0.75986063 0.5119174
-0.7647962 -1.0581923 -2.0039914 -1.4715977 -2.8031125 -1.2856826 -1.346195 -2.3075345
-1.431752 -1.8616954 -1.7760779 -3.0171304 -1.1246622 -2.4803677 -0.8377998 -1.4468393
-0.5671091 -0.34278676 -1.4473042 -0.9402974 -2.8907945 -1.440948 -0.865974 0.41320008
-1.408079 -0.5522306 0.020501155 -1.3513136 -1.6275432 -1.9266794 -1.7109952 -1.0775638
00000000: 362c 4dbe 87e8 8ebf daff aebf c714 a8bf
00000010: ca7a c0bf bf3e 44c0 b211 a33e 83f0 81bd
00000020: fbb0 4dc0 a5e2 0e3e a7f9 dfbf 42d1 6ebf
00000030: 9c31 79bf c415 c2bf 7cbd 13c0 44b1 80be
00000040: 7321 8dbe 4782 63c0 b8e2 13be 9eed 333f
00000050: 5099 903e 13f5 19be 83e7 b9bf 4745 283f
00000060: aeb6 06c0 31ef 49c0 2685 14c0 0490 f1bf
00000070: 1af8 293e db0a 48bf 3a86 42bf 050d 033f
00000080: afc9 43bf d872 87bf 6541 00c0 505d bcbf
00000090: 3266 33c0 3f91 a4bf 1e50 acbf a5ae 13c0
000000a0: a643 b7bf 094c eebf 8556 e3bf aa18 41c0
000000b0: eef4 8fbf 58be 1ec0 0c7a 56bf 0832 b9bf
000000c0: 102e 11bf bf81 afbe 4441 b9bf 55b7 70bf
000000d0: c702 39c0 fc70 b8bf 79b0 5dbf f68e d33e
000000e0: ef3b b4bf fc5e 0dbf 0af2 a73c d8f7 acbf
000000f0: 5653 d0bf 6e9d f6bf e401 dbbf 9ced 89bf

bn2.running_var f4 [64]
2.6981833 3.2761235 8.531087 6.707267 3.1285458 8.807017 3.5169861 5.1574554
6.709251 2.2319448 3.2447934 1.8465983 4.9874263 6.096821 7.4912176 4.7111907
4.456229 6.0700626 2.420569 4.8128223 4.970416 2.7374043 4.8028216 5.032457
2.869129 2.760577 4.0358586 4.583557 4.8230515 5.8149586 6.1427226 4.8088894
4.371243 3.578821 2.0392795 4.779271 6.1936297 4.9099092 2.616899 3.3144736
5.29462 3.98484 3.014656 6.986899 5.86969 2.2237713 4.493881 4.873356
3.7432814 5.1711335 3.8331642 7.9174705 5.891373 4.8422437 4.4382014 2.6975305
5.4040127 6.6059504 2.1652024 5.9455123 4.4548497 3.3991 5.441838 2.6359699
00000000: 09af 2c40 02ac 5140 557f 0841 eea1 d640
00000010: 183a 4840 8be9 0c41 4d16 6140 e009 a540
00000020: 2fb2 d640 2fd8 0e40 b2aa 4f40 555d ec3f
00000030: ff98 9f40 2819 c340 0eb8 ef40 13c2 9640
00000040: 6e99 8e40 f43d c240 9aea 1a40 a402 9a40
00000050: a60d 9f40 a231 2f40 b7b0 9940 e309 a140
00000060: cf9f 3740 4bad 3040 c125 8140 80ac 9240
00000070: 7056 9a40 2414 ba40 2f91 c440 6ce2 9940
00000080: 39e1 8b40 670b 6540 8e83 0240 caef 9840
00000090: 3732 c640 fa1d 9d40 467b 2740 5620 5440
000000a0: 876d a940 9e07 7f40 20f0 4040 ad94 df40
000000b0: 80d4 bb40 4552 0e40 e0cd 8f40 88f2 9b40
000000c0: ec91 6f40 ed79 a540 9052 7540 eb5b fd40
000000d0: 2186 bc40 a9f3 9a40 bf05 8e40 57a4 2c40
000000e0: aced ac40 f263 d340 ad92 0a40 a341 be40
000000f0: 218e 8e40 db8a 5940 8923 ae40 bbb3 2840

conv3.weight f4 [64, 64, 3, 3]
-0.11319281 -0.13152 -0.08318873 0.07408926 -0.0960569 -0.10269183 -0.03419859 -0.15610124
0.14861138 -0.12279635 -0.0067021167 0.0642225 0.03346435 0.037309058 -0.03299946 -0.08506818
0.058683667 0.13973732 -0.028775124 0.034112964 -0.06293346 0.016221406 -0.020723784 -0.01829784
-0.04644784 -0.1251062 0.034034662 -0.05685135 0.006460171 -0.04706475 -0.12636326 0.092147514
-0.039882522 0.007329058 -0.20961024 0.17721874 -0.06061769 0.022047771 0.047672346 -0.056416504
0.07451426 0.08114579 0.03733793 -0.059566032 -0.05073716 0.11390726 0.073103406 -0.046645213
0.021598496 0.119492464 -0.09936359 0.05353974 0.32047382 -0.0003273727 -0.030627701 -0.1382111
0.18159139 -0.059420563 0.006204014 -0.02587903 -0.12370512 -0.020297293 -0.035239663 0.07135839
-0.033443335 0.09268023 -0.12062087 -0.25333568 0.023095768 0.10797896 -0.09738486 -0.09233516
0.019182563 0.031515434 -0.15190527 -0.0005133991 -0.020964943 0.02063893 -0.01149099 -0.06706427
0.06798067 -0.04427182 0.10364034 0.123312935 0.023425233 -0.03156656 -0.034115955 -0.16330586
0.10618514 0.15338032 -0.09489872 0.09803496 -0.10968904 -0.10869619 -0.021683972 0.006738402
-0.026664482 0.033550464 -0.080095746 -0.1454138 -0.012272327 -0.17185083 -0.010007188 -0.15020202
0.10177019 0.10142995 0.13531353 0.045817427 -0.046752334 -0.05599932 0.068142965 -0.1021782
-0.023376586 0.11946554 -0.008140714 -0.1363944 -0.04485368 -0.09528647 0.057913784 0.06432479
0.10053993 -0.04362108 -0.03397106 -0.051662467 0.08550824 0.006617239 -0.06417695 0.018616531
0.05740549 0.029474564 -0.110052556 -0.002343282 -0.107710905 0.041226603 0.13326389 -0.11364187
-0.05177744 -0.055419352 -0.021912359 0.010810112 0.11639987 -0.04804874 0.014693676 0.04883579
-0.043989737 -0.11858312 0.10213469 0.006900585 -0.03404736 0.040045217 0.116821304 -0.08378782
-0.038414635 -0.08932794 -0.16660915 -0.04638409 0.016099434 0.044976603 0.011872073 -0.021484911
-0.24734826 0.057805963 -0.1374833 -0.022501115 -0.029992381 0.029679088 -0.033490393 0.09940785
0.059356082 0.14918862 -0.017882433 -0.07252683 -0.13409236 -0.03607061 -0.057029773 -0.10251946
-0.019341879 -0.04283958 -0.17703187 0.120687254 -0.031618472 -0.019311493 -0.04181667 -0.19942595
-0.03832999 -0.2126247 -0.09331143 -0.056970812 -0.06301359 -0.098687105 0.06443131 0.013991085
-0.18533677 0.017025834 0.05717113 -0.052838873 -0.2764593 0.053625267 0.03325845 -0.14519744
-0.014205008 0.056326285 -0.1830912 -0.07439346 -0.007119133 -0.08458959 0.09098685 -0.025354307
-0.0019793422 0.06132889 -0.118142605 -0.026870336 -0.018288402 -0.075299524 -0.14127153 0.026143545
-0.0773864 0.04128931 0.08646615 -0.035113953 -0.028974157 0.14624259 -0.042563397 -0.03631495
0.040102348 0.0121522425 -0.0939153 0.10775816 -0.06505904 -0.05480057 0.15057565 0.029163484
-0.14709911 -0.0635195 -0.0805189 -0.13557452 -0.020009018 -0.03847757 -0.14101326 -0.022541411
0.091166325 0.058561537 -0.031780314 -0.044200957 0.08083065 0.047742013 -0.10494455 -0.09942898
0.017893506 0.00833822 -0.033287283 -0.16294229 0.01614784 -0.029819421 0.05695112 -0.07070267
00000000: a2d1 e7bd 2ead 06be da5e aabd 1cbc 973d
00000010: 7bb9 c4bd 1850 d2bd d213 0cbd 01d9 1fbe
00000020: 952d 183e a77c fbbd 6e9d dbbb 1687 833d
00000030: ea11 093d 62d1 183d 712a 07bd 3a38 aebd
00000040: 495e 703d 4d17 0f3e cfb9 ebbc 09ba 0b3d
00000050: 42e3 80bd c1e2 843c edc4 a9bc 5ae5 95bc
00000060: 1740 3ebd d71b 00be ee67 0b3d f6dc 68bd
00000070: d8af d33b f8c6 40bd 5f65 01be d6b7 bc3d
00000080: db5b 23bd 9828 f03b 11a4 56be d478 353e
00000090: 414a 78bd 879d b43c 1444 433d fe14 67bd
000000a0: ef9a 983d c42f a63d a8ef 183d 83fb 73bd
000000b0: c5d1 4fbd 3648 e93d 3db7 953d 0d0f 3fbd
000000c0: 54ef b03c 77b8 f43d 237f cbbd 7d4c 5b3d
000000d0: 2515 a43e 38a3 abb9 f2e6 fabc 3687 0dbe
000000e0: 18f3 393e fa62 73bd 0b4b cb3b 4200 d4bc
000000f0: 1c59 fdbd 8246 a6bc 7757 10bd 5924 923d
00000100: e1fb 08bd 22cf bd3d 1308 f7bd 37b5 81be
00000110: 5633 bd3c 1324 dd3d b771 c7bd 371a bdbd
00000120: c024 9d3c 5416 013d 0e8d 1bbe a195 06ba
00000130: acbe abbc f912 a93c b544 3cbc fe58 89bd
00000140: 7339 8b3d 5e56 35bd 6341 d43d 7e8b fc3d
00000150: 46e6 bf3c f04b 01bd 2cbd 0bbd a739 27be
00000160: 9877 d93d bb0f 1d3e 435a c2bd 8ec6 c83d
00000170: a6a4 e0bd 1c9c debd 96a2 b1bc d0cd dc3b
00000180: 796f dabc 366c 093d 3d09 a4bd 5be7 14be
00000190: df11 49bc aaf9 2fbe 30f5 23bc 8fce 19be
000001a0: e46c d03d 81ba cf3d a18f 0a3e 0eab 3b3d
000001b0: 607f 3fbd 8b5f 65bd 8a8e 8b3d ce42 d1bd
000001c0: 4180 bfbc 59aa f43d a160 05bc f9aa 0bbe
000001d0: 7eb8 37bd 8e25 c3bd 0137 6d3d b7bc 833d
000001e0: e1e7 cd3d 05ac 32bd 3d25 0bbd 069c 53bd
000001f0: f21e af3d 6dd5 d83b 346f 83bd b281 983c
00000200: 0522 6b3d a474 f13c 3c63 e1bd c091 19bb
00000210: 8997 dcbd 3add 283d 5476 083e 12bd e8bd
00000220: 9514 54bd 67ff 62bd 8c81 b3bc e51c 313c
00000230: 0e63 ee3d c1ce 44bd bebd 703c 0a08 483d
00000240: 952e 34bd b5db f2bd fe2b d13d 4d1e e23b
00000250: 3f75 0bbd 7406 243d 0240 ef3d f398 abbd
00000260: aa58 1dbd 91f1 b6bd 979b 2abe 3efd 3dbd
00000270: f6e2 833c 6339 383d 1583 423c 2001 b0bc
00000280: dd48 7dbe f2c5 6c3d 6cc8 0cbe 4254 b8bc
00000290: 95b2 f5bc 8f21 f33c 392d 09bd 5896 cb3d
000002a0: 5d1f 733d e7c4 183e 2e7e 92bc f288 94bd
000002b0: 824f 09be c7be 13bd 0d98 69bd b9f5 d1bd
000002c0: dc72 9ebc 8e78 2fbd d847 35be e12a f73d
000002d0: 5f82 01bd 2333 9ebc f547 2bbd 5136 4cbe
000002e0: e8ff 1cbd 4aba 59be 101a bfbd 3a5a 69bd
000002f0: 450d 81bd 771c cabd 90f4 833d dd3a 653c
00000300: ecc8 3dbe c379 8b3c 462c 6a3d 936d 58bd
00000310: 138c 8dbe 2ba6 5b3d 033a 083d a3ae 14be
00000320: 1fbc 68bc 64b6 663d 427c 3bbe 995b 98bd
00000330: 9e47 e9bb 4f3d adbd 5057 ba3d d6b3 cfbc
00000340: dab7 01bb 0134 7b3d c0f4 f1bd 2e1f dcbc
00000350: 8fd1 95bc a336 9abd 7ca9 10be fd2a d63c
00000360: c37c 9ebd fb1e 293d 2a15 b13d a6d3 0fbd
00000370: 365b edbc 9ec0 153e f556 2ebd fcbe 14bd
00000380: 5c42 243d 331a 473c aa56 c0bd 4fb0 dc3d
00000390: ad3d 85bd 9076 60bd 8130 1a3e 42e8 ee3c
000003a0: 26a1 16be 8316 82bd 18e7 a4bd 0cd4 0abe
000003b0: f4e9 a3bc a89a 1dbd c865 10be c4a8 b8bc
000003c0: 69b5 ba3d 39de 6f3d 132c 02bd 100c 35bd
000003d0: 8a8a a53d 218d 433d 2bed d6bd 6ca1 cbbd
000003e0: 6795 923c 089d 083c 3f58 08bd 58da 26be
000003f0: 7a48 843c dc47 f4bc 9445 693d 90cc 90bd

conv3.bias f4 [64]
0.0011984681 -0.012098893 0.015501278 0.02068289 -0.0075897877 0.028505908 0.023885088 0.008841882
0.005520486 -0.0060845283 -0.022380086 0.033881914 -0.033998407 0.026047887 -0.026482165 -0.02771347
0.0088658715 0.021251254 -0.013361851 0.025798162 -0.0061120233 -0.008056527 -0.032580942 0.0020745175
0.010053175 0.014373859 -0.02652459 -0.018985908 -0.034521773 0.027267782 0.01784647 -0.016477386
0.036001258 0.021485768 0.022138469 -0.020397492 0.022386732 -0.004083867 0.030730441 -0.0045484034
0.006795123 0.032738265 0.00082408544 0.00010901697 -0.0032084389 0.0022015364 0.013151501 -0.02250318
-0.031626865 -0.0220994 0.012097757 -0.04100336 0.020335082 -0.014805185 -0.01180729 -0.0007391143
0.0027122695 -0.0016244788 -0.01787606 -0.019444773 -0.011873486 0.0039557456 -0.04259513 -0.011047404
00000000: eb15 9d3a 6f3a 46bc 13f9 7d3c 2a6f a93c
00000010: c1b3 f8bb 3985 e93c a9aa c33c 8bdd 103c
00000020: 31e5 b43b b960 c7bb 7156 b7bc c3c7 0a3d
00000030: ea41 0bbd 6162 d53c 20f1 d8bc 5c07 e3bc
00000040: 2942 113c 1c17 ae3c aaeb 5abc ab56 d33c
00000050: 5e47 c8bb 86ff 03bc 9873 05bd a1f4 073b
00000060: 12b6 243c 5680 6b3c 194a d9bc 5688 9bbc
00000070: b466 0dbd af60 df3c c332 923c 95fb 86bc
00000080: 0e76 133d ec02 b03c bc5b b53c a418 a7bc
00000090: 6164 b73c f6d1 85bb 68be fb3c c60a 95bb
000000a0: a0a9 de3b 8f18 063d 7007 583a 0aa0 e438
000000b0: ac44 52bb a747 103b 6579 573c 9758 b8bc
000000c0: 2c8b 01bd cd09 b5bc ac35 463c 24f3 27bd
000000d0: c295 a63c 7291 72bc 5d73 41bc 1fc1 41ba
000000e0: 55c0 313b 77ec d4ba d170 92bc a54a 9fbc
000000f0: 0389 42bc 339f 813b 3b78 2ebd 2c00 35bc

bn3.weight f4 [64]
1.104342 0.99758464 1.0222151 0.81474036 0.993211 0.8728314 0.96257955 1.1729172
1.1677394 1.0035974 0.8201268 0.8187717 0.95603496 0.86121404 1.0275527 1.0786617
0.9795762 0.9737893 0.9440531 1.0633465 0.984214 1.0227855 0.9902025 0.9651047
1.1142681 1.0621709 0.91739166 1.0368847 0.903437 1.075637 1.0357959 1.1014484
1.0317689 0.9179026 0.98214656 1.0915884 1.1667849 0.9994337 1.2410065 1.1024511
0.94971806 0.8916055 0.9198256 1.0343779 0.9910145 0.9909864 0.94856197 0.9231421
0.91957736 1.0243505 0.9528542 1.0591494 1.0230651 0.9895617 0.8952581 0.9269961
0.9484121 0.9902896 1.0039604 1.0988941 1.0061799 0.82662207 0.924495 1.0258169
00000000: 145b 8d3f b561 7f3f f2d7 823f d392 503f
00000010: 1343 7e3f e171 5f3f 9d6b 763f 2722 963f
00000020: 7c78 953f e175 803f d4f3 513f 069b 513f
00000030: b5be 743f 8678 5c3f d986 833f 9611 8a3f
00000040: 81c5 7a3f 414a 793f 77ad 713f bd1b 883f
00000050: 73f5 7b3f a3ea 823f e97d 7d3f 1a11 773f
00000060: 56a0 8e3f 37f5 873f 2eda 6a3f a3b8 843f
00000070: a647 673f 79ae 893f f694 843f 43fc 8c3f
00000080: 0111 843f aafb 6a3f f56d 7b3f 2bb9 8b3f
00000090: 3559 953f e3da 7f3f 4dd9 9e3f 1e1d 8d3f
000000a0: b920 733f 4240 643f b179 6b3f 7f66 843f
000000b0: 20b3 7d3f 49b1 7d3f f5d4 723f 0a53 6c3f
000000c0: 6c69 6b3f eb1d 833f 41ee 733f 3592 873f
000000d0: ccf3 823f ea53 7d3f a32f 653f 9e4f 6d3f
000000e0: 23cb 723f 9f83 7d3f c681 803f 90a8 8c3f
000000f0: 81ca 803f 819d 533f b4ab 6c3f f84d 833f

bn3.bias f4 [64]
-0.12847942 -0.30879834 -0.2318713 -0.2106386 -0.15765212 -0.22742352 -0.23085871 -0.20978366
-0.25206822 -0.2306107 -0.24897076 -0.012808737 -0.11527616 -0.21600486 -0.13386604 -0.28562894
0.030579085 -0.14183533 -0.22807817 -0.21711408 -0.21675734 -0.13399018 -0.049659178 -0.28976965
-0.10664942 -0.06264238 0.047757145 -0.19061473 -0.07914774 -0.12304697 -0.084296666 -0.30838278
-0.10070212 -0.24209446 -0.07548475 -0.26371685 0.011980191 -0.13834822 -0.28210592 -0.06645255
-0.08592243 -0.1924813 -0.25678217 -0.26896197 -0.16176526 -0.29967427 -0.2688128 -0.116745375
-0.025664385 -0.07632525 -0.23839037 -0.16702941 -0.18919195 -0.13846311 -0.0969507 -0.10066063
-0.041281186 -0.115191676 -0.3274902 -0.4134798 -0.038853217 -0.19397493 -0.23551676 -0.33810678
00000000: 1c90 03be d11a 9ebe ac6f 6dbe a5b1 57be
00000010: 8f6f 21be b6e1 68be 3a66 6cbe 87d1 56be
00000020: 160f 81be 3625 6cbe 31f2 7ebe bddb 51bc
00000030: e815 ecbd 6130 5dbe 2e14 09be f53d 92be
00000040: fd80 fa3c 483d 11be 538d 69be 2753 5ebe
00000050: a3f5 5dbe b934 09be 6c67 4bbd b05c 94be
00000060: 036b dabd a64a 80bd ff9c 433d 8230 43be
00000070: 3618 a2bd 0d00 fcbd bba3 acbd 59e4 9dbe
00000080: ea3c cebd 9ce7 77be c097 9abd e505 87be
00000090: 9048 443c 28ab 0dbe 3070 90be 4618 88bd
000000a0: 19f8 afbd d119 45be f478 83be 62b5 89be
000000b0: cba5 25be e86e 99be d5a1 89be 3318 efbd
000000c0: 1e3e d2bc 6a50 9cbd 9b1c 74be c209 2bbe
000000d0: 89bb 41be 46c9 0dbe 178e c6bd 2927 cebd
000000e0: 7616 29bd 9de9 ebbd ccac a7be a0b3 d3be
000000f0: 8d24 1fbd 5da1 46be 4e2b 71be 551c adbe

bn3.running_mean f4 [64]
-4.641938 -6.109784 -0.030808982 -1.1065503 1.4490118 -1.1974783 -2.9084454 -5.5702486
-2.1287432 -0.38654912 -2.69558 1.497889 -0.95276046 1.0163178 0.32043284 -3.0772421
-1.2023745 0.8528894 -3.0964155 -4.8927455 -1.1689868 -4.312084 -0.1890797 -2.1833148
-0.9678264 -6.40433 -3.5079343 0.18587315 -2.3597386 0.6890563 1.2752073 -2.870743
-2.3365579 -1.2249864 -2.718103 -0.9916493 -4.9041247 2.4098167 -0.6637982 -5.457922
0.5988491 -3.8423867 -1.4270642 -3.0665357 -5.162239 -0.42096704 -0.70968497 0.52381915
-0.32417506 1.3330384 -2.8134081 -1.2497116 0.86666465 -6.405445 -3.190134 0.7026001
-1.788477 -3.5406494 -3.8181078 -2.1933024 -1.1370884 -3.510219 -1.9158344 -1.0788956
00000000: c28a 94c0 5a83 c3c0 1e63 fcbc 71a3 8dbf
00000010: 3879 b93f f846 99bf f823 3ac0 7a3f b2c0
00000020: 543d 08c0 c4e9 c5be 6284 2cc0 d4ba bf3f
00000030: 1ce8 73bf b416 823f c60f a43e 89f1 44c0
00000040: 68e7 99bf f656 5a3f ac2b 46c0 5f91 9cc0
00000050: 5ca1 95bf 98fc 89c0 1c9e 41be 6ebb 0bc0
00000060: 79c3 77bf 45f0 ccc0 ff81 60c0 8855 3e3e
00000070: f505 17c0 fe65 303f fe39 a33f 41ba 37c0
00000080: 2a8a 15c0 5bcc 9cbf 66f5 2dc0 bbdc 7dbf
00000090: 97ee 9cc0 703a 1a40 aeee 29bf 4ca7 aec0
000000a0: 2d4e 193f aae9 75c0 0aaa b6bf 1f42 44c0
000000b0: 1031 a5c0 fe88 d7be eaad 35bf 0319 063f
000000c0: 46fa a5be 01a1 aa3f e10e 34c0 8df6 9fbf
000000d0: bcdd 5d3f 68f9 ccc0 282b 4cc0 9add 333f
000000e0: d0ec e4bf 009a 62c0 e15b 74c0 115f 0cc0
000000f0: 1d8c 91bf 6ea7 60c0 103a f5bf 4019 8abf

bn3.running_var f4 [64]
13.675438 11.621323 7.727934 8.654464 13.276446 7.9761486 8.798398 14.4696245
9.986324 11.194743 13.080352 10.829537 9.628395 9.223964 8.943359 7.18121
8.8619995 10.062841 9.981718 14.71325 13.443442 13.393007 12.431045 10.64655
11.812371 18.964796 12.658992 10.417202 7.6777387 9.46985 8.827194 7.414365
10.340578 10.512843 11.6008 10.527034 16.424416 8.064519 11.033841 21.918446
7.1558666 15.876492 8.250737 10.282736 17.22153 9.152161 9.046166 9.400981
8.735933 10.312724 8.04839 11.222063 10.3775215 16.134869 17.346678 8.626637
11.179569 11.026988 9.103637 9.22552 9.412247 12.664924 13.599226 6.6420374
00000000: 98ce 5a41 f0f0 3941 3c4b f740 af78 0a41
00000010: 536c 5441 9c3c ff40 3dc6 0c41 9583 6741
00000020: fcc7 1f41 ab1d 3341 1f49 5141 c945 2d41
00000030: e80d 1a41 5b95 1341 0018 0f41 79cc e540
00000040: c0ca 0d41 6601 2141 1eb5 1f41 7969 6b41
00000050: 5718 5741 c249 5641 8fe5 4641 4558 2a41
00000060: 79ff 3c41 e7b7 9741 3b8b 4a41 dcac 2641
00000070: 09b0 f540 8184 1741 303c 0d41 7a42 ed40
00000080: 0273 2541 9b34 2841 e09c 3941 bb6e 2841
00000090: 3465 8341 4508 0141 9d8a 3041 fa58 af41
000000a0: dcfc e440 1c06 7e41 0503 0441 1686 2441
000000b0: b2c5 8941 406f 1241 19bd 1041 6b6a 1641
000000c0: 62c6 0b41 eb00 2541 35c6 0041 928d 3341
000000d0: 540a 2641 3614 8141 ffc5 8a41 b506 0a41
000000e0: 84df 3241 8b6e 3041 7fa8 1141 bb9b 1341
000000f0: 9098 1641 87a3 4a41 6e96 5941 928b d440

fc1.weight f4 [128, 576]
0.062486343 0.06378522 0.015405714 0.18236159 0.092123404 -0.09069613 0.03529814 -0.054724112
0.06821057 0.0336284 -0.08091056 -0.04493019 0.08650736 0.11470045 -0.06557775 0.03694648
-0.017474258 0.0071709915 -0.053892206 -0.18882646 -0.18318428 -0.23457596 -0.060819097 -0.06367194
0.12017736 0.062911004 -0.17751175 0.0626571 -0.16520117 -0.1095105 -0.0826734 -0.05946149
-0.13408132 -0.009337735 0.046794716 -0.013131446 -0.09448374 -0.01712789 0.13635477 -0.08963523
0.059151784 0.07055114 0.065508135 -0.004402865 0.17246379 -0.010694723 0.12513167 0.022561021
-0.08479603 0.01745897 0.043943636 -0.06450468 0.059424285 0.05642071 0.19816235 -0.02659238
-0.09151825 -0.08954721 0.061105963 -0.03401592 0.109752856 0.22089118 0.0985464 0.008970088
-0.058029547 -0.12016312 0.14164746 0.12943251 0.018301444 -0.07852117 -0.12033329 -0.09697522
0.019902822 -0.07855845 0.07389751 -0.025862508 -0.15496783 -0.0735198 0.0006586625 0.02125491
-0.23858555 -0.011858523 -0.0094676195 -0.0452265 0.0125880465 -0.102823064 0.12871902 0.00079028745
0.12734035 0.03183612 0.028494373 0.1492614 0.0142075345 0.052511275 0.12828949 -0.0009176797
0.076928966 -0.118749835 -0.059913564 -0.0908358 -0.15741079 -0.028300297 -0.043895952 0.105052516
-0.15019351 0.012446981 0.09578769 -0.005139502 0.0015694592 0.03393145 -0.010357312 -0.073053494
-0.07661983 0.11573066 -0.0075062555 0.05246483 0.00964868 -0.027700236 -0.058818582 -0.008139553
-0.14994486 0.13921656 0.10720598 0.17214921 0.089636795 0.11387979 -0.04791742 -0.22513738
-0.09909691 0.025024902 -0.036423963 -0.1683675 0.116882995 0.022303043 0.1913555 -0.04791541
-0.02245129 -0.09251164 0.078564584 0.12979895 -0.058060486 0.012694327 -0.016104115 0.041780792
-0.050748758 0.12282287 0.19264682 0.029075654 -0.015168461 0.07747655 -0.0755988 0.15887651
0.1650022 -0.08849119 0.044986673 0.035778604 0.026970154 -0.11647764 -0.107505664 -0.06364658
-0.1508395 -0.21191224 0.061411686 0.18843634 -0.21943206 -0.07366262 -0.03553382 -0.051079772
-0.060702343 -0.07676057 -0.15047565 -0.056183867 0.04030116 0.07719227 0.056372877 -0.057865348
-0.15338777 0.06137319 -0.1099415 -0.15697354 -0.07425463 -0.16344638 -0.06525411 -0.13232134
0.11018971 0.034296777 0.08657603 0.11108401 0.12425962 0.0052174903 -0.0835669 0.044046298
0.0969195 0.1207421 -0.14204708 -0.0898297 0.08621154 -0.2564465 -0.004286088 -0.017650126
-0.06583785 0.0894219 0.08350803 -0.018474681 -0.06858574 -0.03542567 0.07773958 0.08203533
0.0012524843 -0.035001595 0.04859116 -0.030960182 0.082287885 -0.1004455 0.03989997 -0.110669404
-0.16089359 -0.029927798 -0.009183945 0.053239092 -0.018355701 0.08075558 -0.044181984 0.1432646
0.1861106 0.0031577353 -0.13693838 -0.019827627 -0.038129337 0.13945504 0.0910423 0.066853516
0.061732795 0.17417017 -0.14908065 -0.08063905 -0.17228168 0.018180493 0.041811503 -0.019917665
0.022017851 -0.008545065 -0.048242785 -0.051319327 -0.08719075 -0.14843985 -0.02657131 -0.06590668
-0.09267067 0.1020947 0.054012246 0.17318562 0.1710728 0.038695812 -0.11827666 0.04214934
00000000: aef1 7f3d d3a1 823d 3f68 7c3c ffbc 3a3e
00000010: 32ab bc3d e5be b9bd c894 103d 6426 60bd
00000020: fcb1 8b3d efbd 093d 70b4 a5bd b808 38bd
00000030: c52a b13d 12e8 ea3d a14d 86bd 3155 173d
00000040: 2d26 8fbc a3fa ea3b 13be 5cbd b95b 41be
00000050: a994 3bbe ae34 70be 721d 79bd 6f66 82bd
00000060: 8c1f f63d 7cd7 803d a4c5 35be 5e52 803d
00000070: 7f2a 29be 0b47 e0bd ac50 a9bd e48d 73bd
00000080: 9d4c 09be 4dfd 18bc d1ab 3f3d 4725 57bc
00000090: b180 c1bd ca4f 8cbc 96a0 0b3e ad92 b7bd
000000a0: 2449 723d 1e7d 903d 2129 863d e945 90bb
000000b0: 599a 303e eb38 2fbc 8422 003e e4d1 b83c
000000c0: 8aa9 adbd 1d06 8f3c 3efe 333d 081b 84bd
000000d0: e166 733d 6719 673d 12eb 4a3e 43d8 d9bc
000000e0: ec6d bbbd 8764 b7bd 3f4a 7a3d 4754 0bbd
000000f0: 1bc6 e03d 4c31 623e b2d2 c93d 47f7 123c
00000100: 64b0 6dbd 1518 f6bd 080c 113e f589 043e
00000110: e9ec 953c b5cf a0bd 4d71 f6bd f29a c6bd
00000120: 3e0b a33c 41e3 a0bd 9457 973d 9cdd d3bc
00000130: e3af 1ebe 8d91 96bd 18aa 2c3a c71e ae3c
00000140: c54f 74be 404a 42bc 131e 1bbc 6c3f 39bd
00000150: 183e 4e3c e694 d2bd ebce 033e 4b2b 4f3a
00000160: 8265 023e 9766 023d 086d e93c fbd7 183e
00000170: b8c6 683c 1016 573d 525e 033e 7190 70ba
00000180: ef8c 9d3d 1d33 f3bd ed67 75bd 1f08 babd
00000190: 4b30 21be 06d6 e7bc 3ecc 33bd c625 d73d
000001a0: 54cc 19be 6cee 4b3c 562c c43d 4569 a8bb
000001b0: 50b6 cd3a b4fb 0a3d b7b1 29bc 129d 95bd
000001c0: dcea 9cbd 3204 ed3d 09f7 f5bb 5de5 563d
000001d0: 7f15 1e3c 9beb e2bc c1eb 70bd c25b 05bc
000001e0: 258b 19be c98e 0e3e cf8e db3d e247 303e
000001f0: 7f93 b73d cf39 e93d 0e45 44bd 6a8a 66be
00000200: 52f3 cabd 0601 cd3c 4b31 15bd 8868 2cbe
00000210: 5a60 ef3d dfb4 b63c b2f2 433e f342 44bd
00000220: c5eb b7bc be76 bdbd 78e6 a03d 04ea 043e
00000230: d5d0 6dbd defb 4f3c c7ec 83bc 5622 2b3d
00000240: eedd 4fbd 8f8a fb3d 3545 453e 1130 ee3c
00000250: 2385 78bc 07ac 9e3d 8bd3 9abd 86b0 223e
00000260: 56f6 283e de3a b5bd f243 383d 968c 123d
00000270: 83f0 dc3c d48b eebd ee2b dcbd 2359 82bd
00000280: ab75 1abe 86ff 58be d28a 7b3d 75f5 403e
00000290: ccb2 60be 6ddc 96bd e98b 11bd 0639 51bd
000002a0: 05a3 78bd a534 9dbd 4a16 1abe 0e21 66bd
000002b0: d412 253d fb16 9e3d 3fe7 663d 3704 6dbd
000002c0: af11 1dbe 7462 7b3d 0229 e1bd acbd 20be
000002d0: d012 98bd 7d5e 27be f2a3 85bd 3f7f 07be
000002e0: 25ab e13d c77a 0c3d c64e b13d 0380 e33d
000002f0: d47b fe3d 7bf7 aa3b 1f25 abbd e469 343d
00000300: bb7d c63d a247 f73d ca74 11be a2f8 b7bd
00000310: ad8f b03d f54c 83be 5072 8cbb ff96 90bc
00000320: ffd5 86bd d422 b73d 4206 ab3d 3758 97bc
00000330: ae76 8cbd 821a 11bd ee35 9f3d 2402 a83d
00000340: 662a a43a d55d 0fbd 8607 473d 35a0 fdbc
00000350: 8d86 a83d 5fb6 cdbd 276e 233d a4a6 e2bd
00000360: 4ac1 24be 242b f5bc 4278 16bc 3c11 5a3d
00000370: b25e 96bc 2e63 a53d 2bf8 34bd f5b3 123e
00000380: c793 3e3e 02f2 4e3b 9339 0cbe 8c6d a2bc
00000390: 822d 1cbd 4dcd 0e3e 6374 ba3d 7fea 883d
000003a0: 87db 7c3d aa59 323e 99a8 18be 1626 a5bd
000003b0: 9c6a 30be 42ef 943c 8a42 2b3d 5f2a a3bc
000003c0: c85e b43c 9a00 0cbc 3a9a 45bd 3734 52bd
000003d0: 1091 b2bd 9e00 18be 13ac d9bc 15fa 86bd
000003e0: 1fca bdbd 0717 d13d f23b 5d3d 9257 313e
000003f0: b52d 2f3e 807f 1e3d 093b f2bd c9a4 2c3d

fc1.bias f4 [128]
0.02142834 0.007779835 -0.028505323 0.017896581 0.003944695 -0.038089745 -0.04063987 0.039933637
0.0017788318 0.040471002 -0.016217317 0.014136966 0.001038272 0.020791305 -0.014819803 0.01323638
-0.014932313 -0.019929633 0.023066238 0.008783737 0.020651799 0.021426978 -0.026461676 -0.013241841
-0.016151344 0.019813625 0.026036939 -0.027129244 0.031569254 -0.030252889 -0.016423987 -0.021471774
0.02545878 -0.035701867 0.019152418 0.0071539953 -0.039769277 0.028842902 -0.009686892 -0.0026261238
-0.014980624 0.02873384 -0.004105603 -0.008723254 -0.012574454 0.031671207 -0.006396136 0.032867838
0.013294495 -0.03525665 -0.013372356 -0.02632589 -0.021618983 0.02694519 -0.032291736 0.006481294
0.040033136 0.0045004888 0.0048973914 -0.016184801 0.02244152 -0.022975333 0.0067830863 -0.03167375
0.0013164099 0.015196982 -0.03756215 0.034609854 -0.018901262 0.02489791 -0.00092070346 -0.037264977
0.030949973 -0.021048257 -0.0012660774 0.024175804 -0.00022775278 0.023781339 0.0029076631 -0.02270768
-0.03548999 0.009329318 -0.032034207 0.01009617 -0.01823052 0.0032411858 0.00030054204 0.026647316
-0.025042247 -0.04155046 0.036212 -0.03731292 -0.003657296 -0.025500478 0.010869476 -0.03707717
-0.039710246 0.0024106049 -0.011675563 -0.020825561 -0.035976104 -0.035911515 -0.011377815 -0.02212707
-0.0024954504 -0.026211448 0.00041060106 -0.009747946 0.011951611 -0.0292989 0.024420805 -0.019450272
0.03910429 0.008082739 0.030576646 0.025624348 -0.016527217 0.010520949 -0.018012935 -0.015928404
-0.0070007723 0.011029685 0.03477374 0.03803919 0.036366936 -0.03279314 -0.031545725 -0.040416334
00000000: 7c8a af3c fced fe3b ff83 e9bc da9b 923c
00000010: 8042 813b fe03 1cbd fe75 26bd 7491 233d
00000020: b127 e93a ecc4 253d 2eda 84bc bc9e 673c
00000030: a116 883a 8752 aa3c c2ce 72bc 67dd 583c
00000040: a9a6 74bc 7843 a3bc 68f5 bc3c aae9 0f3c
00000050: f62d a93c a187 af3c 28c6 d8bc 4ff4 58bc
00000060: d34f 84bc 2f50 a23c 6b4b d53c 263e debc
00000070: c34e 013d e8d4 f7bc 998b 86bc 93e5 afbc
00000080: ee8e d03c 1f3c 12bd 88e5 9c3c 106c ea3b
00000090: 1ce5 22bd f347 ec3c c5b5 1ebc 0c1b 2cbb
000000a0: 4b71 75bc 3b63 eb3c 4b88 86bb fbeb 0ebc
000000b0: 1505 4ebc abb9 013d ad96 d1bb 6da0 063d
000000c0: 27d1 593c 4769 10bd ba17 5bbc 65a9 d7bc
000000d0: 4b1a b1bc 29bc dc3c 5744 04bd 0961 d43b
000000e0: c9f9 233d d678 933b 4c7a a03b fd95 84bc
000000f0: 47d7 b73c c436 bcbc a744 de3b 56bc 01bd
00000100: 638b ac3a c3fc 783c c5da 19bd 10c3 0d3d
00000110: d2d6 9abc b4f6 cb3c 5d5b 71ba 29a3 18bd
00000120: cc8a fd3c 656d acbc 82f2 a5ba 560c c63c
00000130: ecd0 6eb9 15d1 c23c 7e8e 3e3b 7505 babc
00000140: f45d 11bd ffd9 183c 4d36 03bd 686a 253c
00000150: 2c58 95bc 136a 543b 1292 9d39 794b da3c
00000160: 6625 cdbc d130 2abd 0953 143d 6fd5 18bd
00000170: 3faf 6fbb 61e6 d0bc e315 323c 3bde 17bd
00000180: 36a7 22bd 3dfb 1d3b dc4a 3fbc 5e9a aabc
00000190: ae5b 13bd f417 13bd 046a 3abc d443 b5bc
000001a0: b68a 23bb 64b9 d6bc f145 d739 d9b5 1fbc
000001b0: b1d0 433c 3f04 f0bc 240e c83c 2d56 9fbc
000001c0: d22b 203d 776d 043c e07b fa3c 27ea d13c
000001d0: 1664 87bc 0f60 2c3c dd8f 93bc 497c 82bc
000001e0: bc66 e5bb dab5 343c e96e 0e3d fbce 1b3d
000001f0: 7ff5 143d 1952 06bd 1736 01bd 998b 25bd

bn4.weight f4 [128]
1.5692791 1.471871 1.3890699 1.5128348 1.3683066 1.4324975 1.4609652 1.4307436
1.2880043 1.4420844 1.3631039 1.3271674 1.4835836 1.3998566 1.4158093 1.5187103
1.289981 1.4669662 1.4235605 1.3294877 1.3763202 1.3082902 1.330602 1.4237198
1.4588077 1.3272127 1.377405 1.2912558 1.4536271 1.4067018 1.4947495 1.3972977
1.5016488 1.4331963 1.3023298 1.44837 1.2676897 1.3572713 1.4087791 1.3715502
1.3431716 1.3261284 1.3710642 1.3227497 1.3745993 1.4984828 1.2977577 1.3032168
1.3307837 1.4488182 1.3588399 1.3417737 1.3235762 1.3012284 1.4137503 1.2425084
1.35469 1.3282747 1.4261463 1.3952404 1.3345773 1.4122121 1.2554135 1.3891516
1.4308517 1.3508843 1.4346509 1.4790047 1.3861938 1.3759248 1.5176063 1.2913356
1.4654849 1.3987302 1.3967214 1.3865912 1.3378352 1.2759145 1.4446226 1.3523521
1.4333801 1.4792501 1.304809 1.4168522 1.3800875 1.5980569 1.3593409 1.3779812
1.5217725 1.4045861 1.4810278 1.6157614 1.553792 1.4160734 1.4584126 1.3149078
1.2869925 1.3532299 1.3112893 1.3848009 1.4094645 1.4080554 1.50354 1.4827639
1.4718986 1.4659262 1.4803777 1.5117086 1.4080242 1.4330971 1.3228043 1.4658957
1.3363093 1.3354659 1.4942161 1.3753382 1.4802152 1.3937852 1.4073105 1.4070437
1.3625587 1.4338806 1.2826113 1.374508 1.362524 1.4147952 1.3733212 1.4357985
00000000: 23de c83f 4566 bc3f 0bcd b13f 92a4 c13f
00000010: ac24 af3f 145c b73f e800 bb3f 9b22 b73f
00000020: 53dd a43f 3996 b83f 307a ae3f 9fe0 a93f
00000030: 11e6 bd3f 802e b33f 3d39 b53f 1965 c23f
00000040: 191e a53f 8cc5 bb3f 3b37 b63f a72c aa3f
00000050: 432b b03f 0e76 a73f 2b51 aa3f 733c b63f
00000060: 36ba ba3f 1be2 a93f cf4e b03f df47 a53f
00000070: 7410 ba3f ce0e b43f f453 bf3f a7da b23f
00000080: 0736 c03f fa72 b73f beb2 a63f 3064 b93f
00000090: a843 a23f 11bb ad3f e052 b43f f58e af3f
000000a0: 0ced ab3f 93be a93f 087f af3f dd4f a93f
000000b0: dff2 af3f 49ce bf3f ed1c a63f cfcf a63f
000000c0: 1f57 aa3f e072 b93f 77ee ad3f 3ebf ab3f
000000d0: f26a a93f a78e a63f c5f5 b43f 840a 9f3f
000000e0: 7b66 ad3f e804 aa3f f68b b63f 3d97 b23f
000000f0: 6ed3 aa3f 5ec3 b43f 64b1 a03f b8cf b13f
00000100: 2626 b73f c7e9 ac3f a4a2 b73f 0750 bd3f
00000110: cc6e b13f 4e1e b03f ec40 c23f 7c4a a53f
00000120: 0295 bb3f 9709 b33f c4c7 b23f d27b b13f
00000130: 2f3e ab3f 2b51 a33f 65e9 b83f e019 ad3f
00000140: 0079 b73f 1158 bd3f fb03 a73f 6a5b b53f
00000150: b5a6 b03f 218d cc3f e2fe ad3f b061 b03f
00000160: 71c9 c23f 7ac9 b33f 5292 bd3f 45d1 ce3f
00000170: a8e2 c63f e541 b53f 44ad ba3f e64e a83f
00000180: 2cbc a43f a336 ad3f 54d8 a73f 2841 b13f
00000190: 5569 b43f 293b b43f 0074 c03f 35cb bd3f
000001a0: 2c67 bc3f 78a3 bb3f 047d bd3f ab7f c13f
000001b0: 233a b43f ba6f b73f a751 a93f 78a2 bb3f
000001c0: 2f0c ab3f 8cf0 aa3f 7942 bf3f 150b b03f
000001d0: b177 bd3f 8e67 b23f c022 b43f 021a b43f
000001e0: 5368 ae3f 6689 b73f 9b2c a43f e1ef af3f
000001f0: 3067 ae3f 0218 b53f fdc8 af3f 3fc8 b73f
