saved_models/rotate+gan.pth (torch, 537698 bytes, 26 tensors)

conv1.weight f4 [32, 1, 3, 3]
00000000: c59f a6bd dee4 12bd 6104 89be 7da0 253e
00000010: f6af 41bd 5a3d b8bc 7fa4 89be e2be a43e
00000020: 5f71 31bd fa48 62bd 9c08 ab3e 48b8 e2bd
00000030: ecbf 46be c17c b93d f3bf e0be 572a 97be
00000040: 5e09 f5be ebf4 693d 8c48 f4bc 67a2 e8bd
00000050: 724a af3e b051 0d3e 72e5 78bd 9212 c43e
00000060: 19f9 8f3e 57fe 7d3e df99 aa3d 7ab7 36be
00000070: eca6 203e 172e 65be acbb 82be b51d d03e
00000080: 3d6f 7bbd f92c 4ebd 0415 bfbd e601 9bbd
00000090: 72a8 293e daa8 c03d 2c89 ddbd d578 4dbe
000000a0: f33b a7be 101b 87be 368c a9bd 0152 773c
000000b0: d069 653e 62f9 1fbd 0336 8cbe 697a 6fbe
000000c0: 07a5 833e a26e 7fbd 0f19 8fbe 861b 923e
000000d0: 98cf e13d c0fc 3b3d 1a45 8fbe 4fac 56be
000000e0: 639c b73e f440 79be f80f 533e a5dc 7c3e
000000f0: cdab b5bc 11aa a23c f0f8 87bd e548 fc3c
00000100: c2ad 653d fa52 e2be 44f3 413e a27b dd3c
00000110: 1409 e5bd abb5 e0bd 4ff0 c83e 5432 043c
00000120: 11aa c5bd 0fa2 9dbd 01bb 0d3e e822 29be
00000130: 953f 5bbe 58be 803e 1e50 9abd a44b 80be
00000140: a3b4 b4be e158 2cbe d721 9f3d 4d50 793e
00000150: c6b4 c13e fb6d b03e 8cd7 53be c620 893c
00000160: c334 b7bd 0146 7d3e 91ee 7c3e 87da 1f3e
00000170: 7919 523d ca47 743e 473c 6cbb f820 e23c
00000180: 6d6a 04bf 11a6 87be e1cc b7bc 243d f9bd
00000190: a941 fdbd 0412 bbbe ac04 b5be 7737 61be
000001a0: 258c fc3b bc43 b0bc 7438 493e fa8a 3a3e
000001b0: e254 7abc dee6 a5bd c5ca d4be 8eeb 1bbd
000001c0: e870 483e 12b5 acbc 4960 383e ffde 4bbe
000001d0: db61 c43e 7c12 53be e8cf 95be 87c2 25be
000001e0: f679 9fbe ba72 08bd 47a7 8a3d 49f1 97be
000001f0: 3a38 1d3e 5ced 0d3e 95c4 983e 76cc aebd
00000200: 3966 44be a030 0f3c bebd 983e 6249 acbe
00000210: 8dc9 14ba 4929 97be f6c3 abbe e36f 223e
00000220: dacc f33d 59c0 b83e 87ed 533e c592 573d
00000230: 9fc1 33be 9b4e 873e f2d7 09bd 02fa 473d
00000240: 8a3b 4fbd 05cd b83c de69 e7bd 2cdc 833e
00000250: 4446 df3d 41aa 633e 678a 2b3d e381 b93e
00000260: dbf7 8bbe ec65 8d3d 3914 853d a520 1c3e
00000270: 696a 1ebe 48a7 af3e 40f9 d13d 386d 2c3d
00000280: ed7a 89be f2fb f9be dfa7 07bd 51b7 803e
00000290: c2ec c43e c165 8bbe 7ae3 15be 078b aabd
000002a0: a652 16be 12fc d5bd 7040 dabd f9c2 4c3e
000002b0: eb5a 463e 4126 023e b90a a13e ad64 873e
000002c0: bd78 d43d ead6 2b3e bddf 023e 9f8f 523e
000002d0: 876f db3d 1fdc 833e be50 9cbe 365a c83d
000002e0: 28fa 573d bbb2 08bf 7815 803e 7d48 3d3e
000002f0: 690e bc3d 84d9 62bc 40ed c03d 73ec 7e3e
00000300: 724c 8fbe 5e79 bb3d bb31 1d3e 06f8 9abe
00000310: 48ea 2e3c d894 913e 4d90 cb3d 2f50 3d3e
00000320: 8d58 733e 2c3d 35bd 3ae0 373e 0ffe c83d
00000330: e2cf 543e f12d a63e 8f82 a3bd 2994 f2be
00000340: b0b0 953d c4e4 5a3e fed6 8a3d 5afb 473e
00000350: b95a 47bd 84b1 9dbe 4a56 863e 768e ef3d
00000360: 85c7 b7be a061 53be 3d9e 8abe 57ac ea3d
00000370: 50b8 363c 69bb cf3c 32b4 033e 0581 9a3e
00000380: 5a52 9b3e c1db d93c 7304 213e 94e9 8a3c
00000390: 8a99 993e d072 183d 5eec a6be 195f 633d
000003a0: 4531 5f3d ef7e bfbe 4873 b63e d5f4 80be
000003b0: d5a8 753d 231d dbbd a808 35be 57ae 23bc
000003c0: 28a6 173d 9338 a13b 0619 b23d 6752 cbbd
000003d0: 2658 d8be fba1 1cbe 4700 8ebe 7e1f 513d
000003e0: f0da 453e 5a60 433e 6a30 af3e e90e 463e
000003f0: 411c 5f3e 5e63 8d3e ea29 ccbc 99a0 82be
-0.08135942 -0.035862796 -0.26761153 0.16174503 -0.04728695 -0.022490192 -0.26883313 0.32176882
-0.04332101 -0.055245377 0.33405006 -0.11070305 -0.1940915 0.09056998 -0.43896446 -0.2952449
-0.4785871 0.057118338 -0.02981975 -0.11359101 0.34236485 0.13800693 -0.06076569 0.38295418
0.28119734 0.24804054 0.0833013 -0.17843428 0.15688676 -0.22380863 -0.25533807 0.40647665
-0.061385382 -0.050335858 -0.0933018 -0.075687215 0.16568163 0.09407206 -0.10817179 -0.20065625
-0.32662925 -0.26387835 -0.08278696 0.015095235 0.22403646 -0.03905619 -0.27384958 -0.2338654
0.25711843 -0.062361367 -0.27948806 0.28536624 0.110259235 0.045895338 -0.27982408 -0.20964168
0.358615 -0.24341184 0.2061156 0.24693544 -0.022176648 0.019856485 -0.06639278 0.030796478
0.05607391 -0.4420393 0.18940455 0.027036492 -0.11183372 -0.109721504 0.3924584 0.00806864
-0.09651578 -0.07696926 0.13840868 -0.16517222 -0.21410973 0.2514522 -0.075348124 -0.2505771
-0.35294065 -0.1683078 0.07770126 0.24347039 0.37833232 0.34458908 -0.20687693 0.01673926
-0.089456104 0.24733736 0.24700381 0.15610705 0.051293824 0.2385551 -0.003604667 0.027603611
-0.5172489 -0.26493886 -0.022436561 -0.12169865 -0.12366039 -0.36537182 -0.35355127 -0.21993814
0.007707136 -0.021516673 0.19650441 0.18217078 -0.015279027 -0.08100675 -0.4156095 -0.03806644
0.1957432 -0.021082435 0.1800548 -0.19909285 0.38355908 -0.2061252 -0.29260182 -0.16187488
-0.31147736 -0.033312537 0.06770187 -0.29676273 0.1535348 0.13860077 0.2983748 -0.085350916
-0.1917962 0.00873962 0.29832262 -0.33649737 -0.00056757854 -0.29523686 -0.33547944 0.15862994
0.11904307 0.3608425 0.20696078 0.052630205 -0.1755433 0.2642716 -0.033653207 0.04882241
-0.05059389 0.022558698 -0.112994894 0.25753915 0.10902074 0.22232915 0.041880038 0.36231908
-0.27337536 0.06904206 0.06497998 0.15246828 -0.1547028 0.34307313 0.10252619 0.042096347
-0.26851597 -0.48825032 -0.03311908 0.2513986 0.38461882 -0.2722607 -0.14637557 -0.083272986
-0.14679965 -0.10448469 -0.10656822 0.19996251 0.1937062 0.12709905 0.31453493 0.26443997
0.103745915 0.16781202 0.12780662 0.205626 0.107146315 0.25753877 -0.3053035 0.09782831
0.052728802 -0.5339772 0.2501638 0.18484683 0.09182436 -0.013845805 0.09420252 0.24894886
-0.2798801 0.09154008 0.15351002 -0.30267352 0.010675974 0.2843387 0.099396326 0.18487619
0.23764248 -0.04424779 0.1795663 0.09814083 0.20782426 0.32456926 -0.079838865 -0.47378662
0.07309091 0.2137633 0.06779288 0.19529477 -0.048670504 -0.30799496 0.26237708 0.11697094
-0.3589441 -0.2064271 -0.2707385 0.114586525 0.011152342 0.025357919 0.12861708 0.3017656
0.30336267 0.026594045 0.15724353 0.016957082 0.29999954 0.03721887 -0.3260221 0.055510614
0.054490346 -0.3740153 0.35634828 -0.25186792 0.059975464 -0.10698917 -0.17679083 -0.009990296
0.037023693 0.0049200743 0.08696179 -0.099278264 -0.42254752 -0.15296166 -0.27734587 0.051055424
0.193218 0.19079724 0.34216624 0.19341625 0.21788122 0.27614874 -0.02492233 -0.2551315

conv1.bias f4 [32]
00000000: 3f4b b2be 3679 77be b0cd a23e 94c1 863c
00000010: 7595 38be f708 503e a310 bbbc 1593 b03c
00000020: 8f99 d53e 5c06 983d 2571 a7be 6f51 fa3d
00000030: 765d 083d 3b4c f13d a727 423e a108 623e
00000040: 737a 9c3e 1f2f 543e fddf 5cbd 5d2a 5cbe
00000050: 93f8 1dbd 388a 8ebd 08bb 943e 8918 3d3d
00000060: bdf4 173e 56a5 973b 0d64 653c c5b4 2a3d
00000070: 3804 3e3e f222 79be adb3 febd 8555 f8bd
-0.34823033 -0.24167332 0.31797552 0.016449727 -0.18025763 0.2031592 -0.022835081 0.02155451
0.41718718 0.07423088 -0.3270351 0.122225635 0.033292256 0.11782118 0.18960439 0.22073604
0.3056217 0.207211 -0.05392455 -0.21500535 -0.038567137 -0.06959957 0.29048944 0.046165977
0.14839454 0.004627864 0.014000905 0.0416763 0.18556297 -0.24329737 -0.12436614 -0.121256866

bn1.weight f4 [32]
00000000: e0e1 883f cfa7 b43f 88a7 023f 2a30 973f
00000010: a2c8 b83f 7d69 9c3f e144 9c3f 75ec 4b3f
00000020: dadd c93f bdb3 b03e d234 763f c744 8b3f
00000030: 2e78 433f 9704 c33f 3384 af3f 47cb ea3e
00000040: 2b45 c63e 4880 6f3f 4c1e ad3f 3293 033f
00000050: f74f 2b3f 2b4e 2b3f 5021 123f ba5a 383f
00000060: 41f9 563f f4b2 963f 3197 1f3f 3fb7 683f
00000070: 3ab2 823f 9fb3 a43f 8fb9 813f 92a9 673f
1.0693932 1.4113711 0.5103688 1.1811574 1.4436228 1.2219692 1.220852 0.7965768
1.5770829 0.3451213 0.9617435 1.0880364 0.76355255 1.5235776 1.3712219 0.45858213
0.38724646 0.93555117 1.3524871 0.5139648 0.6691889 0.6691615 0.5708208 0.7201344
0.8397408 1.1773362 0.62340075 0.9090461 1.021064 1.2867316 1.0134753 0.9049312

bn1.bias f4 [32]
00000000: 1b77 63bd a3e0 16be be90 e7be bc4d 7cbe
00000010: 58c4 5fbd d625 aebd a7e1 abbd 17c1 3cbd
00000020: a807 d1bd 516b 06bf 3d1f 3c3d f1b9 0dbe
00000030: 249d d8bc e07a c7bb 6f64 1c3d 8612 e6be
00000040: a7ef d6be 1ffa 1cbd d904 35bc b62d bebe
00000050: 35d9 fabe af12 e3be d4a0 e2be c349 dabe
00000060: dcd4 99be 2a0a 12be 7097 b4be 8556 1b3e
00000070: 1597 74bd fea4 f6bc e325 bc3b c68c 9cbd
-0.05553351 -0.1473413 -0.45227617 -0.24639028 -0.054630607 -0.085033104 -0.08392649 -0.046082582
-0.102065384 -0.525075 0.04592823 -0.13840462 -0.026442118 -0.006087646 0.03818172 -0.44936007
-0.41979715 -0.03832447 -0.011048519 -0.3714425 -0.4899384 -0.44350192 -0.44263327 -0.426344
-0.3004521 -0.1426169 -0.35271788 0.15169723 -0.059714396 -0.030107971 0.005741821 -0.07644038

bn1.running_mean f4 [32]
00000000: bba8 b7be 02ff 84be 93d3 ae3e b1f7 6eba
00000010: f148 35be 1b1c 503e 96df d3bc 4d98 683c
00000020: 9932 d03e 23a2 a83d e2ed a9be 7367 e53d
00000030: 1e3c 013d d9e4 ce3d 7da8 333e bbbf 773e
00000040: 3a8e 9b3e bd03 493e 6254 5abd 2953 44be
00000050: 3cf1 10bd 0201 84bd 8a07 9d3e 4c34 1a3d
00000060: ef8b 153e 2535 8cba ba0b c53c 7aa2 2e3d
00000070: fc3e 3d3e c9f2 81be 4f63 0ebe e479 04be
-0.3587092 -0.25975806 0.34145793 -0.00091158884 -0.17703606 0.20323221 -0.02586345 0.014196468
0.40663603 0.0823405 -0.33189303 0.11201372 0.031551473 0.10102243 0.17544742 0.24194233
0.30381948 0.19630332 -0.05330313 -0.19172348 -0.03538631 -0.06445505 0.30669814 0.03764753
0.14604162 -0.0010696991 0.024053443 0.04263542 0.18481058 -0.25380543 -0.1390507 -0.12937123

bn1.running_var f4 [32]
00000000: ebda d33d 609a 763f 2400 903f 811d dc3d
00000010: f75c 983e b395 a23e 7ab1 8b3e 06f4 333e
00000020: bf06 113f 1315 0d3f ee60 a53e 6f6c 353f
00000030: 722d 233e 9ec9 583f 81ff 173f eb7c 313f
00000040: 5cc4 b23e da2c 773e b263 8c3e 8247 f33f
00000050: 0592 ae3e ec35 af3e d747 813f 4dbb 7a3e
00000060: 811f dd3e 0cf0 973e 752f 573d 5ccd e53e
00000070: 2d8a 803e 0c82 893f af79 b03e 3cef b73d
0.1034449 0.9632931 1.1250043 0.10747815 0.29758427 0.31754836 0.2728384 0.17573556
0.5665092 0.5511028 0.32300514 0.7086858 0.15935305 0.84682643 0.59374243 0.69331235
0.34915435 0.24138203 0.2741981 1.9006197 0.3409578 0.34220827 1.0100049 0.24485512
0.43188098 0.2967533 0.052535493 0.4488324 0.2510542 1.0742812 0.34467837 0.08981177

conv2.weight f4 [64, 32, 3, 3]
00000000: 9108 0bbe 3bdb 95bd 7ca6 093d b343 edbd
00000010: 1c14 17bb ca4f f43c 53b8 ee3c 7622 d03d
00000020: 39be 9f3d da39 efbd 0810 86bd 6919 c23d
00000030: 4ec9 3a3d e3b5 903d fe1f 233d 4c1d c53d
00000040: d461 08bc 23a3 38be 22d7 373c 593e 8ebd
00000050: e037 fcbd ed62 10bd d548 d1bc df51 7fbd
00000060: e165 f93d 94bc 2e3e 4fa5 b1bc c274 4bbd
00000070: 0c88 29be c39d 9e3d d581 13be 61aa c43c
00000080: a5b4 f3bd 1b2f 953d b6a6 b9bd a6bb 033d
00000090: 4706 91bd 1e59 893c 32df 2d3e 0511 73bd
000000a0: 6ad1 fb3d 2510 3d3d 5579 c3bd 33bb a5bb
000000b0: 0d95 f63c 5db2 ab3c dbdc 05bd b2f8 75bd
000000c0: 20fd b83d 5a81 8e3d 8212 77bd 9ebb 3a3d
000000d0: f058 b6bc ef62 233d 61b9 d93d 2e1a 23bd
000000e0: 4a85 e93d aab8 0dbb 6da1 823d e219 113e
000000f0: cdfa 83be 1573 273c 4dbf 203e 6f65 0b3b
00000100: 6d4d 92bd 17ea 87bd cf5f 62bc 24e8 c53d
00000110: 0572 193d 19e2 fd3d f5a5 ce3a 7f59 073d
00000120: 1dcc f2bd 069f a2bd d03e b5be 8cdd 06bd
00000130: 2a41 0abe 311b 03be 2069 51bc e464 82be
00000140: 0871 a13c 2f4b eebc fe4d 32bd bda8 f6bd
00000150: e141 ba3c 2aa2 9ebb 1c09 ecbd 778e b4bc
00000160: f286 22bc c9dd 4b3d 7d66 62be 8559 adbc
00000170: dd85 98bd 2a31 20be c939 3dbe 1ccc 6b3d
00000180: 2b85 c8bd af9d fd3c 23bb 873d 8370 c7bd
00000190: 070f ecbd d437 213e 55dd 4abe d067 553d
000001a0: 99a8 1a3d 53c0 8abd 95e4 b83b d5be c63d
000001b0: 7b50 11be 9309 e7bd ca63 863c a879 e13c
000001c0: a68c a73d 82c3 843c caff 1e3e 4d09 a8bc
000001d0: bf60 313d e747 543d 3ca2 97bd e715 d83d
000001e0: 3a41 18be 804e a53d f283 923d 6a71 81be
000001f0: 958d 2fbe 49ca 64bd 78fa b43d 98c5 133e
00000200: 3d2f 523b 3ab6 9bbd 90a4 abbe 6c1a 1ebe
00000210: b263 8cbe 5f33 9cbd 8f09 e03d 46e9 a23d
00000220: 718d 933c 8b2a d8bd 1956 883c 630d 73bc
00000230: eb29 99bd d339 853c 79f5 c23d 7f44 d43c
00000240: 66f1 bdbc 7c6c f8bc 8661 aabd 1f18 51bd
00000250: 5869 06bd 8724 963c ca5f 423d f85c 3a3d
00000260: a92f 8c3d 5adb f7bc 9348 5d3c f9b6 f8bd
00000270: ce8d 30be 5f27 ddbd 758a ad3d b7d2 153c
00000280: 11f7 d63d 812b b0bc 33d4 48be af89 65be
00000290: 369f 31be 2d88 e2bd 469a 93be 1e66 06bd
000002a0: 35d9 1039 8c68 aebd 0c77 0f3c 4822 2e3c
000002b0: 244d a0bd 73b1 3abe ee24 e33c 979f b4bd
000002c0: 8a6d fabd 5079 a43d 45e4 2f3a ab3e eabc
000002d0: 50e6 ba3d 0144 d03c 6f1e 05be e206 063e
000002e0: f0bc 353d 2e9e 9abc fb86 403d a9c2 03be
000002f0: cfa5 773d abe9 ce3c e130 26be 89ed ccbd
00000300: 67b0 06bd 2de4 14be 887d 64bd 977b 98bd
00000310: f603 b3bd c816 45bd 8aa1 433c ffce bfbc
00000320: 4c7c 90bd c32e f4bc 285c 3cbc 6b8b 19bc
00000330: d710 b93a f5d6 c939 9356 02bd 10a0 e53d
00000340: 2dbe 2abe 16c6 6fbd 941b 5ebd 00fe 89bd
00000350: db46 8a3b c0bf 19be ff54 0abe 889d 6f3d
00000360: 0bcf 1bbe e6b7 a5bd e404 db3c 63ec 19be
00000370: c8be c83d b581 c23c 861c e1bc 5d18 5dbb
00000380: a8a5 41bd 1111 6f3e b06a 193e 4769 73bc
00000390: b9ab 033d bf63 b8bd db99 733d a139 1cbe
000003a0: 0752 353d 659f 2a3e 8e48 6e3c ad35 adbc
000003b0: 3064 d63c 6a82 973d b8d6 a53d 64af 14be
000003c0: f50d 633d b0b4 953c cd61 613d 5e8a ccbc
000003d0: 02b5 8abd 6b82 063e c3e3 0abe a102 143e
000003e0: 8053 943d 65c8 a5bd 9265 b33d 3a8c 4a3d
000003f0: 0357 36be 736b 48be dc83 43bd 4a10 a4bd
-0.13577487 -0.073172055 0.033606037 -0.11585178 -0.0023052758 0.029823203 0.029140627 0.10162823
0.07799954 -0.11680956 -0.065460265 0.09477503 0.045602135 0.07065942 0.039825432 0.096247286
-0.008324105 -0.18030982 0.011220725 -0.069454856 -0.12315345 -0.035250593 -0.025547424 -0.062333938
0.12177635 0.17064124 -0.02168527 -0.049671896 -0.16555804 0.077449344 -0.14404996 0.024007024
-0.118996896 0.07284375 -0.09065001 0.032161377 -0.070812754 0.016766127 0.16979674 -0.059342403
0.12295802 0.046157975 -0.095446266 -0.0050577163 0.03010037 0.020959074 -0.032681327 -0.060051627
0.09032655 0.069582656 -0.060320385 0.045589082 -0.022259206 0.039889272 0.10631061 -0.03981989
0.11402376 -0.002162496 0.06378446 0.1417003 -0.25777283 0.010220309 0.15697975 0.0021270176
-0.07143674 -0.06636446 -0.013816788 0.09663418 0.037462253 0.1239664 0.0015766012 0.033044335
-0.11855338 -0.079404876 -0.35399485 -0.032926127 -0.1350142 -0.12803341 -0.012781411 -0.25467598
0.019707218 -0.029088585 -0.04353141 -0.12043903 0.022736492 -0.004841109 -0.11525175 -0.022040589
-0.009919869 0.049772058 -0.22109409 -0.02116085 -0.074474074 -0.15643755 -0.18479075 0.0575677
-0.09791025 0.030958978 0.0662749 -0.09738257 -0.11526304 0.15743953 -0.19810994 0.052100956
0.037758444 -0.06774964 0.0056424835 0.09704367 -0.14190857 -0.11281123 0.016405005 0.02752383
0.081811234 0.016206507 0.15527263 -0.020512247 0.043305155 0.051826384 -0.074039906 0.105510525
-0.14868632 0.08071613 0.07154073 -0.2528184 -0.17143853 -0.055856977 0.088368356 0.14430845
0.0032071613 -0.07603116 -0.3352399 -0.15439767 -0.2741981 -0.07626986 0.10939323 0.079546496
0.01801178 -0.105549894 0.016642617 -0.014834735 -0.07478698 0.016262924 0.095194764 0.025911568
-0.023186397 -0.030325167 -0.08319382 -0.051048394 -0.032815307 0.018327964 0.047454633 0.04549882
0.06845028 -0.030255962 0.013506073 -0.12144274 -0.17241594 -0.10798525 0.08473674 0.009144477
0.10496343 -0.02150512 -0.19612198 -0.22415803 -0.1734589 -0.1106113 -0.2882864 -0.03281223
0.00013813826 -0.085160345 0.00875641 0.0106282905 -0.078272134 -0.18231754 0.02772757 -0.08819502
-0.12227924 0.08030951 0.0006709735 -0.028594336 0.0912596 0.025423052 -0.1299989 0.13088563
0.044369638 -0.018874254 0.047003727 -0.12867226 0.06046086 0.025257906 -0.16229583 -0.10006244
-0.032883074 -0.14540167 -0.05578378 -0.07445448 -0.0874099 -0.04811743 0.011940369 -0.023414133
-0.07054958 -0.029807454 -0.011496581 -0.009371619 0.0014119399 0.00038497863 -0.031820845 0.1121217
-0.16674109 -0.05853852 -0.05422552 -0.067379 0.0042198724 -0.15014553 -0.13508986 0.058499843
-0.152157 -0.080917165 0.02673573 -0.1503158 0.09802014 0.02374349 -0.027479421 -0.0033736445
-0.047277123 0.23346354 0.14982104 -0.014856643 0.03214619 -0.090034 0.0594729 -0.15256359
0.04426768 0.16662367 0.014543666 -0.021143759 0.02617082 0.073979214 0.08097595 -0.14520031
0.055433232 0.018274635 0.05502491 -0.024968322 -0.06772806 0.13135688 -0.13563447 0.14454128
0.07242489 -0.08094863 0.087596074 0.049450137 -0.1780663 -0.19572239 -0.047733173 -0.080109194

conv2.bias f4 [64]
00000000: 2a57 323d d4d3 b4ba 1592 053c 7eda e8bc
00000010: a48a db3c dbda ecbc 2934 ca3c cc55 6abd
00000020: a4eb 2dbd d217 173d 0f51 fbbc c3f4 04bc
00000030: 7974 633c bd16 6cbd 0558 d63c 6cfc 683d
00000040: 6f59 34bc 3050 c83c 512f 9cbc 5b49 22bc
00000050: cf45 26bd 816a 53bd f87f d2bc 822b 93bb
00000060: ce81 0ebd fb3d 393b 0656 84bd 2cbb b4bc
00000070: 9da1 303d 9e53 6cbd fbb4 963b a382 20bd
00000080: d493 2c3d 133c f9bb 0c22 a6bb 541c 293d
00000090: b1a5 fe3c 0393 5cbd 15fe 56bd a927 023c
000000a0: 2be8 5a3d e811 173c 14c4 133c 21e4 863c
000000b0: 1453 a8bc 50d7 27bd 59e2 cb3c d10d 4e3c
000000c0: 39b7 313d 6de8 3abd 2147 b83b 090e a63c
000000d0: 8817 b63c 7ea0 8fbc 087e 823b a7d6 a6ba
000000e0: aa3b 793c b50a e038 c2cc 993b 5f4a 13bd
000000f0: 09f2 bfbb 791e 5bbd 0386 b43b e118 0b3d
0.043540157 -0.001379604 0.008152504 -0.028424498 0.026799507 -0.028912952 0.024683075 -0.05721073
-0.042461053 0.03688795 -0.0306783 -0.008114996 0.01388275 -0.057638872 0.026165018 0.056881353
-0.011007651 0.024452299 -0.019065531 -0.009905185 -0.04059392 -0.051615242 -0.025695786 -0.0044912705
-0.03479176 0.0028265703 -0.0646172 -0.022061907 0.043122876 -0.05769693 0.0045992113 -0.039187085
0.042133167 -0.0076060384 -0.0050699767 0.04128678 0.031084867 -0.05385114 -0.052488405 0.007944026
0.05344407 0.009220578 0.009018917 0.016466202 -0.020547427 -0.040976822 0.024888204 0.012576536
0.043387625 -0.045631815 0.0056237136 0.020270364 0.022228017 -0.017532583 0.0039823093 -0.0012728766
0.015211979 0.00010683147 0.0046935985 -0.035959598 -0.0058577103 -0.053495858 0.0055091395 0.033959273

bn2.weight f4 [64]
00000000: 29ed 743f 2a86 823f 8beb 803f 28ca a23f
00000010: be8c 723f 7ec9 8f3f fc7f 783f 2829 4f3f
00000020: 4f15 713f 2cdb 6e3f b682 813f 4496 823f
00000030: c2b8 973f 04fe 533f 1c67 853f c2d1 493f
00000040: 482a 603f e2d2 8f3f 93ea 823f 3e3a 6c3f
00000050: a7b2 813f 746c 703f 50e7 803f 0ad2 3b3f
00000060: ddbc 9f3f e5a7 803f 6ff6 503f 50ad 963f
00000070: 1bf9 7c3f f843 9c3f 0a61 6f3f 8839 5b3f
00000080: 3fdc 143f b85f 663f f941 8d3f 21d1 963f
00000090: 09ce 973f 6074 7e3f 3619 813f e20f 503f
000000a0: d66e 283f 4591 873f 2168 703f 6e61 833f
000000b0: f5b9 573f 6c9a 543f fa8a 823f a1fb 843f
000000c0: 4b7e 6d3f 7329 8e3f c213 a13f bd59 8b3f
000000d0: a652 943f b374 6a3f c4a9 8a3f 945c 693f
000000e0: 0ff5 823f 7bc3 9e3f cd1e 5e3f 846b 6c3f
000000f0: 200d 653f ce8a 773f 6732 6e3f 2651 8c3f
0.9567438 1.0197194 1.0071882 1.2717943 0.94746006 1.1233366 0.9707029 0.80922174
0.9417314 0.9330318 1.0118015 1.0202107 1.1853259 0.8280947 1.0422091 0.7883569
0.87564516 1.1236231 1.0227836 0.9227637 1.0132645 0.93915486 1.0070591 0.7336737
1.2479511 1.0051237 0.8162603 1.1771641 0.98817605 1.2208242 0.93507445 0.8563466
0.5814857 0.89989805 1.1035758 1.1782571 1.1859752 0.99396324 1.0085819 0.81274235
0.6579412 1.0591208 0.9390889 1.0264108 0.8426812 0.8304813 1.0198662 1.0389291
0.9277083 1.1106399 1.2584155 1.0886761 1.1587722 0.9158432 1.0833058 0.9115689
1.0231036 1.2403406 0.8676575 0.92351556 0.8947315 0.96696174 0.9304566 1.0962265

bn2.bias f4 [64]
00000000: dee7 86be e3fb a0be 8485 b8bc dfc0 90be
00000010: d0ce 6dbe 80bf 2ebe f198 49be 8f77 bbbe
00000020: f85d 78be 19c2 d1bb 0c2a 07be 0e70 0dbe
00000030: fe8e e6bd 842b afbe 707d 86be f416 9bbe
00000040: 4727 21bf db8c a6be 7363 7ebd 00c6 a7bc
00000050: d654 13be 28fb fabd 560d 76be 5b22 d4be
00000060: af66 febd b337 6abe 9215 56be 8671 15bd
00000070: 3a5c a3bd f05c 15be 67b7 1ebe 96ca 7abe
00000080: 5af4 e8be bc6e efbd a237 c13b 87f9 f8bc
00000090: eb4f d3bd a75f 9cbe 46b2 4ebe c79e 1bbf
000000a0: e2d2 d9be 10a5 31be 00cd 0cbe f991 08be
000000b0: d8d3 80be ac85 98be a197 fbbe 4bf7 05be
000000c0: 9cd3 c2bd 217d 8fbd 37ff b2be 60b5 1bbe
000000d0: 936b bfbe 323b 39be 6af6 92be c8d8 3cbe
000000e0: 4261 1ebe cae4 3cbe 04bb 64be 5476 a9be
000000f0: ac9c 06bf 33e8 21be 69a4 88be e5f1 90be
-0.26348776 -0.31442174 -0.022524603 -0.2827215 -0.23223424 -0.17065239 -0.19687249 -0.36614653
-0.24254596 -0.006401312 -0.13199633 -0.13812277 -0.11257742 -0.34212887 -0.26267576 -0.3029095
-0.6295056 -0.3252934 -0.06210656 -0.020480156 -0.14387831 -0.122549355 -0.24028525 -0.4143246
-0.12421929 -0.2287281 -0.20906666 -0.036485218 -0.07976575 -0.14586234 -0.1549965 -0.24491343
-0.45498925 -0.11691043 0.0058965245 -0.030392421 -0.103179775 -0.30541727 -0.20185193 -0.6078915
-0.42543703 -0.17348123 -0.13750076 -0.13336934 -0.25161624 -0.29789484 -0.4913912 -0.13082616
-0.095130175 -0.07006288 -0.34960338 -0.15205908 -0.3738676 -0.18088987 -0.28703624 -0.1844207
-0.15466788 -0.18446651 -0.22336966 -0.3309809 -0.5258281 -0.15811233 -0.26687935 -0.2830955

bn2.running_mean f4 [64]
00000000: 8f1e 2ec0 1076 5d3f 0cec 45c0 ed97 9ebe
00000010: f3fa d9bf 5823 0540 d1cf 21c0 9ff0 6cbf
00000020: 3f84 113d afa7 72c0 8ad3 02c0 acd2 e9bf
00000030: 71a7 58bd fd75 16c0 de2b 11c0 8b96 21c0
00000040: d973 1ac0 070a 4f3d d342 b9bf 4763 e3bf
00000050: f0a1 47bf 84e3 6fc0 09e0 8cbe dfe8 edbe
00000060: 6c96 46bf 97ae afbf d5d6 11c0 4ee1 153f
00000070: e480 92bf 011b 32bf 5d17 e8bf 52db ddbf
00000080: dc15 bf3f 9a7a 29c0 a3cb 233e 734c 873f
00000090: ac90 4cbf ce9b 0bc0 19fa 31c0 5d90 06c0
000000a0: 86bd 6cbf 4c33 d43f d225 d4bf 5490 58bf
000000b0: d36b 49c0 7e75 24c0 006c 33c0 098f e3bf
000000c0: 59b3 7d3f 1fe0 8b3f 18b2 a5bf 5821 61bf
000000d0: 8a55 fe3e 5532 09c0 91e6 bcbe a853 66bf
000000e0: a07a b4bf b923 bebf 7c3f 9ebf 10a8 97bf
000000f0: fc00 2ec0 fbf1 c3bf 597a e6bf 46ca bfbf
-2.7206151 0.86508274 -3.0925322 -0.30975285 -1.7029709 2.0802822 -2.528309 -0.9255466
0.03552651 -3.7914846 -2.0441613 -1.8267417 -0.05289406 -2.3509514 -2.2683024 -2.5248134
-2.4133208 0.050546672 -1.4473518 -1.7764672 -0.7798147 -3.7482615 -0.27514675 -0.4646673
-0.77573276 -1.3725156 -2.2787373 0.5854691 -1.1445584 -0.69572455 -1.813213 -1.7332556
1.4928546 -2.648108 0.1599565 1.0570205 -0.7990825 -2.1813846 -2.7808897 -2.1025612
-0.9247669 1.6578155 -1.6574042 -0.8459523 -3.147206 -2.5696712 -2.8034668 -1.7778026
0.9910179 1.0927771 -1.2944975 -0.87941504 0.49674636 -2.143697 -0.36894658 -0.899714
-1.4099922 -1.4854652 -1.2363124 -1.1848164 -2.71881 -1.5308222 -1.8006088 -1.4983604

bn2.running_var f4 [64]
00000000: 0b4a d440 ccf0 4a41 bf9e ab40 8088 cf40
00000010: a152 f440 7285 9c40 90e1 aa40 38ba 9240
00000020: f1b3 a540 3d93 4040 d94e af40 e972 b040
00000030: 9044 fa40 2e73 5040 78b7 8040 315a bc40
00000040: 5b98 1840 79c6 1141 d9a8 d640 30bf 0a41
00000050: a575 1f41 d19f c840 deed b540 2a8a 8940
00000060: b3bc d640 e180 1641 ae3a c840 56f2 ef40
00000070: a0a3 7c40 addf ec40 e710 f740 1e91 9440
00000080: 6d5f 2841 cde5 7940 ed7d 2341 1bef 6f40
00000090: b152 4e41 fe81 cf40 42d2 be40 a81e 4040
000000a0: 307c 6940 f7fd d140 bc57 0941 0e00 ba40
000000b0: d68c d240 003a 4740 cd50 ce3f 9f6d 1f41
000000c0: 68d4 aa40 1c8a dd40 bfb3 f340 17ff 8f40
000000d0: 3ff1 8740 b047 c740 c441 8440 4e41 0141
000000e0: f418 1b41 cbdf 3e41 2694 0341 835e cc40
000000f0: 49be 5740 f87d c140 d87c 8540 8e24 0a41
6.6340384 12.683788 5.363128 6.4854126 7.6350865 4.8912897 5.3400345 4.585232
5.1782155 3.0089867 5.478375 5.514027 7.8208694 3.25703 4.022396 5.8860097
2.384299 9.110955 6.7081113 8.671677 9.966222 6.269509 5.6852865 4.2981157
6.7105346 9.406465 6.257163 7.498332 3.9474869 7.402304 7.7208133 4.6427145
10.523297 3.904651 10.218244 3.7489688 12.895188 6.484618 5.963166 3.001871
3.6482048 6.5622516 8.58392 5.8125067 6.579692 3.112915 1.6118408 9.964263
5.3384285 6.923109 7.6156917 4.499889 4.248199 6.227501 4.133028 8.078444
9.693592 11.929637 8.223669 6.386537 3.370989 6.046627 4.1714897 8.6339245

conv3.weight f4 [64, 64, 3, 3]
00000000: 4aa2 763a d750 c8bc 9679 243e 95aa 37bd
00000010: 5fb7 c3bc 48f3 d93c d4b5 febd 0116 b63d
00000020: a905 43bc f5fb b83d cb9f 413d 21e8 ef3d
00000030: b539 1e3d ead1 67bb d2bc 7c3d 7e06 d93c
00000040: 5ef4 01be 8714 32be f8c2 2b3e a1c4 d9bd
00000050: 3617 38be 78b3 3f3d 1953 22bd ffcd 72bd
00000060: d77f a53c debe 573d b5df 0f3e 5f48 2e3d
00000070: 6a6f 8abe 538d d7bd e6d4 7abe 27c4 03bd
00000080: 17b9 89bc d913 003d 6d12 5f3d 05de 833d
00000090: 4fd4 30be bbd4 d4bd c636 85bc 1354 1bbe
000000a0: ed6b e4bc 56a4 c0bc 877f c0bd 4538 8fbd
000000b0: a3df 20bd bdfb 9bbd 3f5f b8bd 3449 c33d
000000c0: 29df c0bb a100 1e3b b759 89bd 55bd f53d
000000d0: e98b 01bd b6f3 47be 4438 ecba 2a4c 443d
000000e0: b9db b03c e111 273e 73c1 91bd 9af4 e23d
000000f0: fbb1 553d 6a92 0a3c 88b5 48bd e8ff 3a3e
00000100: 8c9a 4bbe d206 21be a7f0 e53b ce13 c4bd
00000110: a0d6 2cbc 6df1 80bd f026 2bbe e674 89bd
00000120: 5d67 f23c 1d1c e13d 3487 d4bc cf07 523d
00000130: db22 1c3e a178 a13c c974 ef3d 2bb5 a13b
00000140: bd0d b53d 3a9a c63d 3dde fcbc 33b6 75bc
00000150: 4616 2fbc 5133 0b3e 04f0 cc3d d9d5 523d
00000160: 4d70 063d 4397 343e 9ddd 233d 4a7b 8ebc
00000170: a279 923b ec51 9fbc 2725 febd 1c59 38be
00000180: eac4 0ebe 00b4 0cbe 705f 6fbc 5376 ba3d
00000190: 7e5d 31bc aec7 bbbd 3083 d1bd d9e0 2ebe
000001a0: a6d7 59bd 53de 0abe 4032 9e3c 08fc ae3d
000001b0: 4174 b3bd 3112 c83c 4846 153e 5c8e 103d
000001c0: 8fe5 d63d 0b90 3d3e 89fb 063e 2024 823d
000001d0: b9b0 cf3d ac20 84bc 7808 ce3d c5b9 e33d
000001e0: 563f 3b3d 2aa1 ad3d 4aa9 0d3e fc57 3ebb
000001f0: 9a28 d33d c407 bd3b f415 8d3d 5210 83bd
00000200: 6b16 eabb db77 8cbd 118a 00be d0bc 893c
00000210: 9cf0 b23b 3732 5a3c bd7d bf3c 191d 253e
00000220: 00a2 193d 5c37 84bd 1c74 2ebd a9d7 16bc
00000230: 2fc9 2dbd 59d4 76bd 2a56 e53d a3b7 703d
00000240: c64b 053e bd45 df3d 3041 b8bd d0ca ff3d
00000250: a3bf dfbc 9d7c 793d 1e1b 10be fd9c 90bd
00000260: 2b03 903d 4de5 01bd 3958 1c3d ddb5 c53d
00000270: a566 223e 275c 153e 3fc9 823d 78be 083e
00000280: 73d9 8c3d 7ddd fabd 1c13 343d 94a2 c2bd
00000290: 4f80 47bd cf96 a7bd e25e 35be bc08 a4bd
000002a0: d8c4 afbd 481d efbd 0e8e 693d 2d86 203e
000002b0: 77c1 833c bd77 b039 9704 473e 93bf a33b
000002c0: 3fa9 16be 8bbf 103d 1b5d 4a3b b099 78bd
000002d0: 7d6c 0f3b 5c8e 42bd ab48 c83d 409e 02be
000002e0: fbae f4bc 5f60 1bbe e346 4c3d 8aa4 49bd
000002f0: fd91 5f3a b458 e23d ffad 363e f763 2fbd
00000300: 9b1b 363e 66d5 34bb 4d83 973c 4ef5 8d3d
00000310: 4191 f8bd 9286 1f3e d460 003e 4436 b43c
00000320: 06e1 dc3d 8d2b 0c3d c838 d33d ba4e 073e
00000330: 9044 f23d a01f 0d3e 5d45 523d b9f2 1e3d
00000340: ae4b f4bd d831 fdbb a565 9e3d 9553 c5bd
00000350: 57f2 963a ec67 0aba 889a 69bd 7221 7d3d
00000360: 7a5c 4bbd 22f3 9ebe c498 07bd c3db 25be
00000370: 27bf 0abe b9c1 593c 17d3 57bd 0112 80bd
00000380: 515c 713c 5ec7 c3bc e668 ca3d 8089 db3d
00000390: 899a 423d a4b2 363e 7209 923d cc4b aa3c
000003a0: eec6 6a3d 61fb 97bc e901 223d a006 bb3d
000003b0: 7937 a8bb 0286 103e 2c77 87bc 20e8 b63d
000003c0: 2201 513d 676b aabd c572 a53d 1293 833c
000003d0: a96a 14bd b0ea c63c 06c7 a13d 4561 62bd
000003e0: cd7b 8cbd c254 2a3d 1f15 f2bd b2fc 55be
000003f0: a3ab 773d 3433 8e3c 1a81 ba3d 115c ce3c
0.0009408338 -0.02445261 0.16062006 -0.044840414 -0.02389115 0.026605263 -0.12437025 0.08890916
-0.011903205 0.09032432 0.04727153 0.11714197 0.038629252 -0.0035372921 0.06170351 0.026492354
-0.12690875 -0.17390643 0.16773593 -0.10633207 -0.17977604 0.046802014 -0.03963003 -0.059278484
0.02020256 0.05267226 0.14050181 0.042549487 -0.27038127 -0.10525002 -0.24495277 -0.032169487
-0.01681189 0.03126893 0.05446093 0.06438831 -0.1726849 -0.103921376 -0.01626147 -0.1516879
-0.027883494 -0.023515861 -0.09399324 -0.069931544 -0.039275777 -0.07616375 -0.09002542 0.09535447
-0.0058859778 0.0024109262 -0.06706565 0.11999003 -0.03162757 -0.19526562 -0.001802214 0.0479242
0.021589147 0.16315414 -0.07116976 0.1108181 0.05217169 0.008457759 -0.049001247 0.18261683
-0.19883174 -0.15725258 0.0070172134 -0.0957409 -0.010549217 -0.06296048 -0.16714072 -0.0671175
0.029590303 0.1099169 -0.025943376 0.051276978 0.15247671 0.01971084 0.11692197 0.004934927
0.08840511 0.09697385 -0.03086769 -0.014997053 -0.010686463 0.13593794 0.10006717 0.051473472
0.032821942 0.17635827 0.04000627 -0.017392773 0.004470066 -0.019448243 -0.1240943 -0.18002743
-0.13942304 -0.1374054 -0.014610156 0.091046 -0.010825513 -0.09168945 -0.102301 -0.1707796
-0.053184174 -0.13561372 0.01931107 0.08544165 -0.08762408 0.024422737 0.14577591 0.035292014
0.104930036 0.1851198 0.1318189 0.063545465 0.10141129 -0.01612886 0.10060209 0.11119417
0.0457147 0.08478005 0.1383411 -0.0029044142 0.103104785 0.005768748 0.06888953 -0.06399597
-0.0071437857 -0.06858798 -0.12552668 0.016813666 0.005460812 0.013317636 0.023375386 0.16124381
0.03750801 -0.064558715 -0.0425912 -0.009206691 -0.04242819 -0.060261104 0.11198075 0.05876888
0.13017187 0.109019734 -0.089968085 0.12489855 -0.02731306 0.060909856 -0.14072844 -0.07061193
0.07031854 -0.03171282 0.038170073 0.09653828 0.15859468 0.14585935 0.06386041 0.13353908
0.06877413 -0.12249277 0.043963537 -0.095036656 -0.04870635 -0.08183061 -0.17711976 -0.080094784
-0.08582467 -0.11675507 0.05702024 0.15676184 0.016083462 0.00033658548 0.19435345 0.0049972027
-0.14713 0.03533892 0.003087825 -0.060693443 0.0021884732 -0.047499046 0.09779485 -0.1275568
-0.029868593 -0.15173481 0.04987229 -0.049229182 0.0008528529 0.11052075 0.17839812 -0.042819943
0.17783968 -0.0027593016 0.018495226 0.06931554 -0.1213708 0.15578678 0.12536937 0.021998532
0.10785107 0.03422122 0.103135645 0.13213626 0.118294835 0.13781595 0.05133568 0.038805697
-0.11928497 -0.007726889 0.07734231 -0.09635083 0.0011516315 -0.0005279768 -0.057032138 0.061799474
-0.04964874 -0.3104487 -0.033104673 -0.16197114 -0.13549481 0.013290816 -0.052691545 -0.06253434
0.014731483 -0.023898777 0.09883289 0.107195854 0.047510657 0.17841583 0.07130708 0.020788096
0.05731862 -0.018552484 0.039552603 0.09132123 -0.005133566 0.1411362 -0.016536318 0.08930993
0.05102647 -0.083212666 0.08078531 0.01606134 -0.03623453 0.02428183 0.07899289 -0.055268545
-0.068595506 0.041584738 -0.11820435 -0.20897177 0.06046642 0.0173584 0.091066554 0.025190385

conv3.bias f4 [64]
00000000: 1aca 9c3c 259b 7cbc ea10 ff3c 586d 9e3c
00000010: 110d 1c3d 3edb 67b8 60bb b4bc e4ea 1f3d
00000020: fd00 febc 3aad 5dbc eda4 53bc ef16 02bd
00000030: 0f80 8c3c b9a1 a2bc e594 9bbb cf44 543a
00000040: 2d0d 56bc 687a 17bc 085c 36bc fa43 d33c
00000050: 2f48 e7bc d1ec e13a c4d2 303c 9b7d 01bd
00000060: 19c7 eb3c 9da3 94bc 62f3 ce3c 23d4 22bd
00000070: 971e 023d f0db 92bc 1356 9e3c 652f d1bc
00000080: e7ba ae3c 732f 0b3d a8dd 5b3c aeb3 1ebd
00000090: 0cea c6bc c394 c53c 5258 d7bc 481d e33c
000000a0: 7161 223c e9e5 753c 62d2 aeb9 ad9f fc3a
000000b0: 6544 cc3c 8d7d e6bc 08b5 583c 861a b2bc
000000c0: 8ae7 1c3d 196c 29bc 56a0 be3c 0ee6 5b3a
000000d0: 0683 3a3c 1e59 f03c d8cf d33c 15bd 70bc
000000e0: c54a 843c ae50 89bc 4db3 f13c 9272 0f3d
000000f0: 3150 c73c 5478 a83c 1c09 a23c d843 2a3c
0.019139338 -0.015417849 0.031135995 0.019339249 0.0380984 -5.5278877e-05 -0.022062004 0.03904237
-0.03100633 -0.01353007 -0.012917739 -0.031760152 0.017150907 -0.019852506 -0.004747974 0.00080974115
-0.013064665 -0.0092454925 -0.01113034 0.02578925 -0.028232662 0.0017236714 0.010792438 -0.031613927
0.02878146 -0.018144423 0.025262538 -0.03975309 0.031767454 -0.01792714 0.019328153 -0.025535295
0.021329356 0.033980798 0.013419546 -0.038745575 -0.024281524 0.024118787 -0.026287232 0.027723923
0.009910927 0.015008428 -0.00033344614 0.0019273661 0.024934957 -0.02813604 0.013226755 -0.021741163
0.03830675 -0.010340714 0.023269814 0.0008388468 0.0113837775 0.02933937 0.025855944 -0.014693518
0.016148934 -0.016762104 0.029504443 0.035021372 0.02433023 0.02056519 0.019779734 0.010392152

bn3.weight f4 [64]
00000000: b2b1 8a3f 58db 8d3f 6812 4f3f 3d26 663f
00000010: ae0d 8e3f 5464 823f 3ebe 783f ed94 823f
00000020: 74fd 8d3f bf32 813f 2ef6 883f 6149 943f
00000030: 2ff7 643f b70c 8d3f 2f09 8b3f d237 8b3f
00000040: e488 643f 2b4a 743f 667f 583f ebe7 833f
00000050: 6aec 893f 06f7 863f b0ba 8d3f 8705 933f
00000060: e991 503f 2fd9 6e3f 0032 5f3f f9e4 823f
00000070: a546 733f a033 7b3f 4f05 523f 3ea7 753f
00000080: 62c9 863f 71db 7c3f e3f5 563f 7873 8a3f
00000090: 310a 853f d48d 793f 24b0 883f 179f 703f
000000a0: 2dca 683f 2c46 543f e682 813f 7699 853f
000000b0: d837 743f f87d 973f ff75 823f 4094 913f
000000c0: 4a78 703f de6d 6f3f 57e3 903f 2cd0 813f
000000d0: 0658 5f3f 3da1 803f 6e1d 763f bc7c 423f
000000e0: 97aa 743f c6a3 783f cbd7 803f f7f3 6e3f
000000f0: c3e6 6f3f e15a 523f dc4b 943f e20b 863f
1.0835478 1.1082563 0.8088746 0.89902097 1.1097925 1.0186868 0.97165287 1.0201699
1.1092973 1.0093611 1.0700128 1.1584893 0.8943967 1.1019505 1.0862178 1.087641
0.8927138 0.9542567 0.84569395 1.0305151 1.0775273 1.0544136 1.1072598 1.1486062
0.8147264 0.93300146 0.8718567 1.0226127 0.9502967 0.9812565 0.8203935 0.95958316
1.0530207 0.9877234 0.83968943 1.0816488 1.0393735 0.9748204 1.0678754 0.9399275
0.90933496 0.82919574 1.0118072 1.0437458 0.9539771 1.1835318 1.019226 1.1373367
0.93933547 0.9352702 1.1319379 1.0141654 0.8724369 1.0049206 0.96138656 0.7597158
0.955728 0.971249 1.0065855 0.9334101 0.9371149 0.8216992 1.158565 1.0472376

bn3.bias f4 [64]
00000000: fd19 81be 2df8 d7be 9755 98be fa17 b53d
00000010: b7b5 8cbe 57c1 f7be e048 2ebe c6bd 66be
00000020: 0e79 03be 7528 07be 4f3e d7be d8f9 83be
00000030: f66c ad3c a7d7 05be 4492 a1be 1ebd f3bd
00000040: cc69 883d 569c 22be 417a 5abe f789 59be
00000050: 0f5c 85be 6082 a4bd 7f59 21be 47f5 51be
00000060: 536a 36be 36d4 1fbe 5164 b3be 0d7b ba3c
00000070: d727 d5bd c1c0 a2bd 1fdb 1dbe e615 3fbe
00000080: e47a 34be 2022 02be 18cd 51be 0810 40be
00000090: 7afc 46be f4c7 bfbe 0c60 83bd 70f8 63be
000000a0: 79a3 3bbd 1a9b edbd 11d9 71bd 264c edbd
000000b0: af12 c9bd 2884 72be eb17 16be d7e7 87be
000000c0: a263 82be c08b a53a 1ec4 3ebe 5ffc d5bd
000000d0: e0bf 93be d323 69be 0f75 6a3c d025 b7bc
000000e0: 9b50 64be 8686 f2bd f289 8bbe 047a 92be
000000f0: 050e eabd 998f aebd 846d 32be 0441 bcbd
-0.2521514 -0.4218153 -0.297528 0.08842464 -0.27482387 -0.48389694 -0.17019987 -0.2253333
-0.12839147 -0.13199027 -0.42039725 -0.25776553 0.02117012 -0.13070546 -0.31556904 -0.119013056
0.06660804 -0.1587995 -0.21335699 -0.21244036 -0.26046798 -0.080326796 -0.15756796 -0.20503722
-0.17813997 -0.15608296 -0.35037473 0.022763753 -0.104079895 -0.07946921 -0.1541562 -0.18660697
-0.17625004 -0.1270833 -0.20488393 -0.18756115 -0.1943225 -0.3745724 -0.06414804 -0.2226274
-0.045810197 -0.11601849 -0.0590449 -0.1158679 -0.09818017 -0.23683226 -0.14657561 -0.26544067
-0.2546664 0.001263015 -0.186295 -0.104485266 -0.28857327 -0.22767572 0.0143101355 -0.022356898
-0.22296374 -0.118420646 -0.2725368 -0.28608716 -0.11428455 -0.08523483 -0.1742459 -0.09192088

bn3.running_mean f4 [64]
00000000: e60d 85bf 3e6c 88bf 4b84 b9bf e547 ef3f
00000010: 831c 2cc0 ca22 bdbf 90db 84bf e4f1 413f
00000020: dc86 eec0 fab9 b9c0 2924 6cc0 f910 9cc0
00000030: b79f d1bd 1990 c1bf cc65 3fc0 cbd9 66c0
00000040: 8bd5 2340 d816 f5c0 de02 5ebe 0e68 97bf
00000050: 2917 a6be 0fa6 e73d 460b 62c0 19e2 5dc0
00000060: 5251 e93e 3f46 bac0 a086 17bf 7049 15c0
00000070: ba56 9dbe 5b41 a4c0 8953 533f 9b5f 0540
00000080: 26f5 92bf 3d47 1fbf 75e7 37c0 543f 1d3e
00000090: 4447 23c0 c030 d4bf 9341 b7bf 2771 55c0
000000a0: 5008 6e3f a087 1b40 09b5 0740 7976 fcc0
000000b0: c04e 11c0 21e6 a23e 95c6 08c0 a1be 3dc0
000000c0: bf78 a03f 56c4 31c0 8efe b3bf 134e 7cc0
000000d0: 8af6 64c0 5730 93bd c231 2fc0 aa46 1540
000000e0: 7964 b5bf 2646 01c0 d7b7 fcbe bcbe ec3d
000000f0: 43b2 d2bf 7780 93bf c46a 48bf b4d3 3ec0
-1.0394866 -1.0658033 -1.4493498 1.8693815 -2.6892402 -1.4776242 -1.0379505 0.7575972
-7.4539623 -5.803952 -3.689707 -4.877072 -0.10235541 -1.51221 -2.9905882 -3.607043
2.5599086 -7.6590385 -0.21680781 -1.182863 -0.32439545 0.1131097 -3.531938 -3.466925
0.45569855 -5.821075 -0.59189796 -2.3326073 -0.3073023 -5.132978 0.8254934 2.0839603
-1.1481063 -0.62218076 -2.873502 0.15356189 -2.5512247 -1.6577377 -1.4316887 -3.3350313
0.92981434 2.430153 2.1204245 -7.889462 -2.2704315 0.318162 -2.1371205 -2.96476
1.2536849 -2.7776084 -1.4062059 -3.9422653 -3.5775476 -0.071869545 -2.737412 2.332438
-1.4171287 -2.0199065 -0.4935901 0.11559817 -1.6460651 -1.1523579 -0.7828791 -2.9816713

bn3.running_var f4 [64]
00000000: 7a41 6841 cc08 3541 b7c5 0a41 e7a4 3841
00000010: affb 7041 fb36 3641 080b 8141 60eb 9041
00000020: b94c e141 df16 7d41 0ca3 2641 efde 2a41
00000030: 4f1d 0241 84dc 6c41 b23d 8841 8efb c641
00000040: 7b0c 1e41 8c1c d541 2e4b fa40 fa35 5b41
00000050: 3e38 5b41 ecaa 3f41 a55f 4141 b28b 9341
00000060: 252f 0a41 ab15 a941 690a 2c41 1478 7141
00000070: 1c4e 7841 9358 af41 cd71 4541 0282 2e41
00000080: b0b1 7841 339e 4541 5ad3 5641 707d 6441
00000090: 0314 8441 73af 4141 92f0 8841 4b2f 3341
000000a0: 6640 2141 f657 2f41 6c21 6041 3af5 e341
000000b0: f96f 6e41 2ff8 7d41 b303 6e41 3d2e 3341
000000c0: 9ba5 4941 c7fc 8341 f595 7e41 ebd6 c641
000000d0: f6d7 7e41 cc68 3141 0a10 6f41 8514 2441
000000e0: 806e 1541 14bd 8641 2b80 7e41 1c54 7a41
000000f0: 8460 6041 d2f3 1041 04ef 2741 8800 7d41
14.5159855 11.314648 8.67327 11.540259 15.061446 11.388423 16.130386 18.11493
28.162462 15.818084 10.414806 10.679427 8.132155 14.803837 17.030125 24.87283
9.878047 26.638939 7.821677 13.700678 13.701231 11.979229 12.085851 18.44321
8.63651 21.13558 10.752542 15.091816 15.51907 21.91825 12.340283 10.90674
15.543381 12.351123 13.4265995 14.280624 16.509771 12.105334 17.117466 11.199046
10.078222 10.958975 14.00816 28.49474 14.902337 15.873092 14.875903 11.198789
12.602931 16.498426 15.911611 24.85494 15.927725 11.088085 14.941416 10.25501
9.339478 16.842323 15.906291 15.6455345 14.023563 9.059526 10.495853 15.81263

fc1.weight f4 [128, 576]
00000000: 4fa1 ec3b bab6 013e 154a d53d 8ad3 40bd
00000010: c182 8c3b 09e7 cf3d 2fb4 893c 4aa1 f73d
00000020: a0df 71bd 0956 743d fe1d 1d3e 8414 b23b
00000030: 11ac 46bd 2a9e e03d 5bbc d6bb 6a99 513c
00000040: 5e23 563d aa7a 0cbd 441b 89bb 36ee 80bd
00000050: 62d1 f3bd af6f 2fbd 698a d8bc 3e6c 713d
00000060: 75ab 32bc 92cf 103e 81bb 893d 33ce 5fbc
00000070: bc6e 9e3d 31bb 8b3d 649a 243d ef0a 36be
00000080: 6263 4cbd 4c69 093e d74e 923c ca07 303e
00000090: 483d 14bd eb3b 253d 45fa 813d f8a3 4fbd
000000a0: acbe b039 691a 57bd 39fb 723b c1c3 dfbd
000000b0: 99fb 0abe a3d9 54bc 2c7e 6ebe 4122 95bd
000000c0: 279a 193c 9ebc 6ebd 93b7 85bd f694 a73d
000000d0: aa2a ff3b f37a 7d3d b7e4 303d a638 073e
000000e0: eb35 543d 009e dfbd 8619 76bc 9a4a 4ebe
000000f0: d2d9 ea3c 2b96 10be 53f5 8fbc c2f6 3abe
00000100: 2898 44bd c9e8 ffbc dbbe 25bd 8085 c13c
00000110: 3031 1dbd f8cc 62bc 6163 cd3d 63ed 08be
00000120: 211c 86bd 71aa b7bc b9ea 24bd 7b33 fabc
00000130: ab6f b63e 1165 073e af6f 203c 6065 e73d
00000140: d084 d2bd 429b cb3c bc75 333d 4e5d b2bd
00000150: a103 87bd e2fe 10be 3465 e7bd bf57 c33d
00000160: b973 6f3d f13e 82bd afa5 c3bd 1fa5 2bbd
00000170: 0e6d 583d f6ca 393c 7216 3d3c c7ce dbbd
00000180: 9aaf 81bd 63d9 1c3c afe1 d33c 3c0d 263e
00000190: 2fdc e9bc a66d 9ebc 00fa 273d 4fa3 25bd
000001a0: 2b45 0fbb f572 9dba 9011 613a 38ca 68bc
000001b0: 1560 09bc 7828 b1bd ddce 48bc dd62 93bd
000001c0: 08b0 6d3d 1dcf f7bd e834 163d 4971 513e
000001d0: 96bf 1d3d f320 273d c1f9 d2bd 81ce cc3d
000001e0: b2d6 72bd 8ec3 173e 8d3c b9bd fe12 f73d
000001f0: 1d30 aebc 22e9 823d c609 91bd 67c8 8a3d
00000200: c0b4 b73d b78c 913c 1f5d d1bd 07c1 22be
00000210: 0caa 22bd 7c29 9ebc bf70 ef3d 61a7 693d
00000220: d2c9 cbbc f07c cc3d 1382 ac3c 03be a03e
00000230: 4dd7 30bd cf3b 4dbc f8a3 fe3b 1f47 833c
00000240: c45a 1ebe c03d 1fbe ec7e 8c3d fb2c 473e
00000250: 4942 b8bd 025c bebc 780f 26be 4249 70bc
00000260: 964d a7bb 6abf 303d 83c0 073b 71a0 2ebd
00000270: 6b1f d33d 563c 2c3d 4792 093e 8192 23be
00000280: e6c1 653d c6ec 69bd 6b3a 93bd f42e 16be
00000290: 4ae1 a4bd b190 283d cf5f bdbd 9dfc 99bb
000002a0: 8b87 a23d 07fd 6d3d ab94 d93d 2825 393d
000002b0: 0bf3 a4bd 741a 503d 480a 54bd f4ad 953d
000002c0: 3cc3 aebd c450 463e 31f5 6dbd cbaa 123e
000002d0: 1b68 debb 435b 82bd 5bb4 4cbd e1b6 a93d
000002e0: 8c9b 97bd 7bbb abbd 8596 09be 3fd1 b1bd
000002f0: 5bd0 dabd 353c 32be 589a 15bd 093b b33c
00000300: af39 00be 1f7c 6a3d cd1e 393e 0dd1 47be
00000310: 0fe3 68bd 7a46 853d ea03 b6bd 8553 c0bc
00000320: ff39 94bd c088 dcbc 1d33 a4bd c72d 10be
00000330: 0a3a a93d 4cc6 80bc 936a c93d 0298 ef3c
00000340: ad78 4fbd c104 1a3e dd12 b8bd 0007 3bbc
00000350: d194 4d3c 0487 333d 98e5 f93d 41a7 a63c
00000360: 52e0 123e 2da4 c0bc ebca c73c 5821 81bd
00000370: 0378 94bd c046 0a3e c8b7 e13c 5387 c7bd
00000380: 439c 0fbe 56cb ecbd dc27 823d 5d64 823d
00000390: 2bf9 b5bd addb 213e c3e6 2e3e 9207 48be
000003a0: c55f 83bc 55d0 8bbd 7b25 c13d eb81 b0ba
000003b0: 3c7e 9f3d 416f df3c 278c 23be 60af 123b
000003c0: 9b8a cd3d a6a1 543e d53a 203e 04c5 563d
000003d0: db0f 80bc eda6 c6bd e11b 693d 2e50 aebb
000003e0: fff5 5dbd 0d42 4d3e 4f26 023e 766e 10be
000003f0: 5747 8a3d 5983 033d 6b46 01be fc1f b1bb
0.007221378 0.12667361 0.10414521 -0.04707674 0.004288048 0.10151488 0.016809551 0.1209131
-0.059051156 0.059652362 0.15343472 0.0054345746 -0.04850394 0.109676674 -0.0065532154 0.012792924
0.052279823 -0.03429667 -0.0041841585 -0.06295435 -0.11905171 -0.04283112 -0.026433187 0.05894112
-0.010905136 0.14141682 0.06725217 -0.013660002 0.07735965 0.06822813 0.0401863 -0.17777608
-0.049899466 0.13419074 0.01785986 0.17190471 -0.036191255 0.040340345 0.06346563 -0.050693482
0.00033711398 -0.05251542 0.003707601 -0.10926009 -0.1357254 -0.012991342 -0.23290318 -0.07281924
0.009375132 -0.058285348 -0.06529155 0.08182709 0.0077870684 0.06188483 0.04318687 0.13205203
0.051809233 -0.10918808 -0.015020734 -0.20145646 0.028668318 -0.14119785 -0.017573034 -0.18258193
-0.04799667 -0.03123893 -0.040465217 0.023623228 -0.038376987 -0.013842814 0.10028721 -0.13371806
-0.06548334 -0.02242014 -0.04026291 -0.030542126 0.3563207 0.13222148 0.009792252 0.112986326
-0.10279238 0.024854306 0.043813452 -0.08709203 -0.06592489 -0.1415973 -0.112986 0.095382206
0.05845997 -0.06359661 -0.09553086 -0.04190552 0.052838378 0.011339894 0.011540996 -0.10732799
-0.063323215 0.009573313 0.02586445 0.16215986 -0.028547375 -0.019339394 0.041009903 -0.040438946
-0.0021861296 -0.0012012409 0.0008585686 -0.014208369 -0.008384724 -0.08650297 -0.012256351 -0.07196591
0.058029205 -0.121000506 0.03667155 0.20453371 0.03851279 0.040802907 -0.10301543 0.10000325
-0.05928678 0.14820692 -0.09044752 0.12064169 -0.021263177 0.06392123 -0.07081942 0.06776505
0.08970022 0.017767293 -0.102228396 -0.15893947 -0.03971295 -0.01930689 0.116914265 0.05704439
-0.024876509 0.099847674 0.021058118 0.31394967 -0.043174077 -0.0125264665 0.0077710114 0.016025124
-0.15464312 -0.155509 0.06860146 0.19450752 -0.08997018 -0.023237232 -0.16216838 -0.0146659035
-0.0051056845 0.043151297 0.002071411 -0.042633478 0.10308727 0.04204973 0.13434707 -0.15973856
0.05609312 -0.05711057 -0.07188877 -0.14666349 -0.08050783 0.041153613 -0.0924679 -0.0046993033
0.07936009 0.058102634 0.10624059 0.04520145 -0.08054169 0.050806478 -0.051767617 0.073085696
-0.08533332 0.19366747 -0.05809516 0.14322965 -0.0067873127 -0.06365063 -0.049976688 0.082868345
-0.07402715 -0.083853684 -0.13436325 -0.08682489 -0.10684272 -0.1740578 -0.036524147 0.021878736
-0.12522005 0.057247277 0.18078156 -0.1951334 -0.056857165 0.06507583 -0.08887465 -0.023477325
-0.072376244 -0.026920676 -0.080175616 -0.14079963 0.08263023 -0.015719555 0.098347805 0.029247288
-0.050652195 0.15040876 -0.08987973 -0.011415243 0.012547688 0.043829933 0.12201995 0.020343425
0.14343384 -0.023515785 0.024388751 -0.06305188 -0.07249453 0.13503551 0.027553454 -0.09742608
-0.14024453 -0.11562221 0.06355259 0.06366799 -0.08885416 0.15806456 0.17080216 -0.19534138
-0.016036877 -0.068268456 0.09430977 -0.0013466453 0.07787749 0.02727473 -0.15971433 0.0022382364
0.100362025 0.20764789 0.15647443 0.052433982 -0.01563256 -0.09699807 0.056911353 -0.0053196168
-0.05418968 0.20044728 0.12709926 -0.14104638 0.06751888 0.032107685 -0.12624519 -0.005405424

fc1.bias f4 [128]
00000000: 77b1 23bc 0030 ac3c 4bd1 eeba 3826 b0bc
00000010: 532f 0b3d d5d7 edbc 1e7d d33c 3d29 c5bc
00000020: 5a46 213d 849b b93c 31bc 09bd 06ed 02bc
00000030: 27f3 c73c 0d7b dc3c 71e3 513c dc68 e2bc
00000040: 4687 9d3c 4f22 003d 8907 b0bc 7506 643c
00000050: edb9 f53c b2de 4fbc 4410 b2bc da0f 633c
00000060: 0cd9 d83c f2bb 3c3d 5906 3a3d cb3a e73c
00000070: 5f58 653c 1e47 d5bc 50d3 2c3d 3e5f c8bb
00000080: 8698 e0bc 7ce9 a83c cd4a 19bd 1034 1fbd
00000090: 701e 993b 42de 1d3d c05d 90ba 3b0b d33b
000000a0: 492e 11bd d1ca 56bc cc7a d63c 7db9 1d3c
000000b0: 3e23 09bc df5e 1c3d 5f86 80bc ceb2 123d
000000c0: 5502 193d 53c3 813c e1e5 86bc d030 2e3b
000000d0: e6ef 11bd eccb 26bd c749 a2bc 651a 31bc
000000e0: e922 19bd af7c 22bb 5f74 0bbd fab1 24bd
000000f0: ec06 b43c 6e6e 14bd 1417 eb3b 4916 953c
00000100: c2b9 943b 4e6a c83c 5b2c 23bd 65d4 b13c
00000110: 41b2 313d d1ed 10bd fd1d 033d 6e3a 2a3c
00000120: 2267 983c 4da5 9dbc cab4 7fbc a411 a4bc
00000130: e293 c7bc b405 183d 011b 2cbb 85b5 cc3c
00000140: b7e7 263d 24f9 f9bb 9712 333c 1bd8 213d
00000150: d9ee 13bd 6fe4 b83c 0baf 833c 58ad 9c3c
00000160: 633b 4a3c 55c9 f8bc d951 183d d9bc c8bc
00000170: 488d df3c 3696 b0bc 66b4 1f3d bcca b33c
00000180: b1ab 023c 6cda 94bc 72d1 0cbd a29a 013d
00000190: 67ba bcbc 50ba a83c 60aa 0d3d e2e2 0bbd
000001a0: 10db b2bc fb99 d3bc a242 aebc 968c f8bc
000001b0: 07be edbc 8714 e2bc 0e52 e53a 8844 d23c
000001c0: 2dff 2c3b e725 143d 15c9 d5bc 83e9 5c3c
000001d0: cad5 85bc 1e80 2b3c 17de 07bd e93d c03c
000001e0: 0847 323b 4c39 e13c 3c6f 14bd 88fc 15ba
000001f0: 4a59 d5bc d7f1 d23c 82ec 39bb 1bd7 8f3c
-0.009991041 0.021018982 -0.0018220333 -0.0215026 0.03398068 -0.02903358 0.025816496 -0.024067516
0.039373733 0.022657163 -0.03362674 -0.007991081 0.024407936 0.026914144 0.012810574 -0.027637891
0.019229542 0.03128272 -0.021487968 0.013917555 0.029995883 -0.012687372 -0.021736272 0.01385876
0.026470684 0.046077676 0.04541621 0.028226277 0.01399812 -0.026034888 0.04219371 -0.0061148694
-0.027416479 0.020619147 -0.03742485 -0.03886801 0.004672818 0.03854204 -0.0011014268 0.0064405478
-0.03544453 -0.013109879 0.026181601 0.009626743 -0.008370219 0.038176414 -0.015689073 0.035815053
0.03735574 0.015840208 -0.016467037 0.0026579387 -0.035629176 -0.04072182 -0.01981057 -0.010809516
-0.03738681 -0.0024793555 -0.034046527 -0.040208794 0.021975957 -0.036238126 0.007174382 0.018199103
0.0045387456 0.024464753 -0.039837223 0.021707723 0.043382887 -0.03538305 0.03201102 0.010389907
0.018603865 -0.01924386 -0.015607068 -0.020027943 -0.024362508 0.037114814 -0.0026261213 0.024988899
0.040748324 -0.007628577 0.010929725 0.039512735 -0.036116455 0.022569863 0.016074678 0.019125625
0.01234326 -0.03036944 0.03718743 -0.024504112 0.027289048 -0.021556001 0.0389904 0.021947257
0.007975505 -0.018170558 -0.03437943 0.03164161 -0.023038102 0.020596653 0.03458631 -0.03415192
-0.021832973 -0.02583026 -0.021272007 -0.030340474 -0.029021276 -0.027597679 0.0017495768 0.025667444
0.0026397214 0.03616896 -0.02609686 0.013483408 -0.016337294 0.010467557 -0.033170786 0.023467021
0.0027202982 0.027493142 -0.036238894 -0.0005721529 -0.026043553 0.025750084 -0.002836973 0.017558625

bn4.weight f4 [128]
00000000: 9cc3 b13f 63f1 9c3f c780 a53f 27f4 9f3f
00000010: e457 b33f 96ba ae3f 7756 a73f f1c3 bb3f
00000020: 4794 ad3f 0f6b aa3f a244 b33f 52c5 993f
00000030: e64b ae3f fbf5 ac3f 45b8 9f3f 70ce a93f
00000040: c7fe b53f 7760 983f 0ed0 a83f 413e af3f
00000050: ca4a b43f 898e b13f 0e75 a93f f88b b03f
00000060: 8b67 a03f 06ab a93f c8d2 a43f ac0c a33f
00000070: 7d54 a83f 6a13 c73f c788 c03f 0d31 ae3f
00000080: 778d 943f f1a0 c53f 4418 a33f 9c36 983f
00000090: fe08 ad3f 9d1e ab3f f7ae 9d3f 7dc6 ae3f
000000a0: f40c b83f 939e 9d3f b370 be3f af41 9f3f
000000b0: f8de 943f 4cee a43f 0a57 a43f e9da a63f
000000c0: 3ca5 a43f f528 bc3f 3c61 b53f 0ae6 ae3f
000000d0: 13a4 a93f 9b8f 9c3f 124e b33f b853 b63f
000000e0: 83ca a83f 4a58 ac3f 2e80 ae3f 4c48 a83f
000000f0: 7eef a53f ef63 ac3f 37d7 9e3f 6b1f a23f
00000100: 9243 b53f 56c7 a23f 59f3 b33f 24c3 a63f
00000110: 8652 9f3f d3d2 983f d155 ab3f 5dca a63f
00000120: c14f a63f 1a1b ab3f 77e6 af3f e35b ac3f
00000130: 073b ae3f 1d19 a53f c968 b43f f14a b73f
00000140: fc6e af3f 2e3b a13f 5fa5 ac3f b6ed 9e3f
00000150: ca5f b23f aebd ad3f 2d0d be3f 5afc a33f
00000160: 64ef b43f d5b7 a93f 29d1 ae3f 3dbd a03f
00000170: 2cd3 b43f 6e8e a43f 684d b03f bcbe a23f
00000180: a379 b23f 55b4 b23f 04d0 a63f 06a3 ac3f
00000190: 3772 b13f 3c74 ad3f ed20 913f cabd a63f
000001a0: 46b9 aa3f fb16 b53f c5d7 ba3f 134d aa3f
000001b0: fafa a93f 02ba bf3f a6fb ab3f 63c4 a23f
000001c0: 5528 cb3f 74cf b43f b08d 923f 70c0 a23f
000001d0: 6b27 9a3f c96f af3f 4876 a83f e079 b23f
000001e0: 017b a33f 9ba9 aa3f 7c91 a73f 895c a23f
000001f0: 7daf b83f 8076 ad3f 60de a13f a9ad bb3f
1.388782 1.2261165 1.2929925 1.2496384 1.4011197 1.3650692 1.3073262 1.4669172
1.3560876 1.3313922 1.400532 1.2013342 1.3616912 1.3512567 1.247811 1.3266125
1.4218377 1.1904439 1.3188493 1.3690873 1.4085324 1.3871623 1.3238847 1.3792715
1.2531599 1.3255317 1.2876825 1.2738242 1.3150784 1.55528 1.5041741 1.3608719
1.1605672 1.543974 1.274178 1.1891665 1.3518369 1.3368717 1.231902 1.3654324
1.4378953 1.2314018 1.4878143 1.244192 1.1630545 1.2885222 1.2839062 1.3035556
1.2862926 1.4699999 1.4170299 1.3663952 1.3253196 1.2231325 1.40082 1.4244299
1.3186802 1.3464444 1.3632867 1.3147063 1.2963712 1.3467997 1.2409428 1.2665838
1.4161246 1.2717083 1.4058639 1.3028302 1.2447059 1.1939338 1.3385564 1.3030506
1.2993089 1.3367646 1.3742207 1.3465542 1.3611764 1.2898289 1.4094478 1.4319745
1.3705745 1.2596185 1.3487967 1.2416294 1.3935483 1.3573511 1.4847771 1.2811387
1.4135556 1.3259226 1.3657581 1.2557751 1.4126945 1.2855966 1.3773623 1.2714458
1.394337 1.3961283 1.3032231 1.3487251 1.3862981 1.3551097 1.1338173 1.3026669
1.3337791 1.4147638 1.4597098 1.3304771 1.3279717 1.497864 1.3436172 1.2716182
1.5871683 1.412581 1.144949 1.2714977 1.204328 1.3705989 1.3161097 1.3943443
1.2771913 1.333301 1.3091273 1.268449 1.4428555 1.3551788 1.2645988 1.4662372
