saved_models/rotate+gan+3samples.pth (torch, 537926 bytes, 26 tensors)

conv1.weight f4 [32, 1, 3, 3]
00000000: 8bca 363e 6157 b63e cf5a 1c3d 70ad babe
00000010: e17f 16be 4f25 7abe cbd2 2abe 07a4 00be
00000020: b4d7 56be e2a3 033e dc08 e4be 9c2e d9bc
00000030: 13a0 97bd 512e 60be 046c 7cbd f2f0 cebe
00000040: 5e1b 48be f156 9dbd 8924 a93e 3fce 29be
00000050: d882 68be fc7e 46bd 5f6a 8e3d 6ecb 74be
00000060: 0587 ce3c fc80 acbe f4ac 4cbe f4c5 433e
00000070: 431a f8bc e751 e4bd 6164 013e 65bb fdbd
00000080: 8a93 abbe 0435 85be c0ec c1be 2b25 803e
00000090: e91b dd3d 3845 eebc 7bfd 9cbe 72c9 343d
000000a0: 1c40 a03d 3283 74be d1f4 323e 9453 783e
000000b0: 630d 49bd 5e1e 77bd dce6 92bd 779e b5bd
000000c0: b765 8bbe 4a45 44be ae82 90bd 6918 7ebe
000000d0: 9ce2 353e 6f79 ff3d bf18 b83b 54dc fcbd
000000e0: daa9 64be 0534 bc3e 0cee 8ebe 275d 0a3d
000000f0: 0066 a1bd f47a 59be f2ca 7ebd 4d2c 8a3e
00000100: b2cc 023d 3adb 3fbe 0dc3 4a3e 85f6 773d
00000110: afcb 8cbe 04fc 0c3e 7584 c53b 28c5 44be
00000120: 0d92 14be 07a4 993e 8fe8 c7bc 2394 863e
00000130: a85f 38be e993 39be 03b8 bfbe 8275 323e
00000140: 0722 4a3d 957a 39bd e908 963e ff1a 0abd
00000150: 458e 3f3e 1633 8cbe a3d6 c7be caca c0be
00000160: d12a 38be 8c4b 0b3e b3ff 3dbe a47b 9cbe
00000170: 88ff a1be a443 de3d 85d3 713d 458f 423c
00000180: 8a1a 0c3e 1a47 663e 28f5 1c3e 8ad1 ce3e
00000190: 9da7 6c3e b556 bdbe ce10 de3c 87f6 243e
000001a0: af9b e63d d180 623c ea95 b63d 110c 823e
000001b0: c760 acbd 1d26 aebe 97a8 22be 0735 703e
000001c0: 8eb0 e3be ca6d 0cbe 6635 31be e829 c7be
000001d0: fba6 a0bb a733 cd3d 8264 18bd 2f10 cdbd
000001e0: bc4c dc3d 8d52 2c3e bed0 fb3d 49e3 6bbe
000001f0: 76e8 7bbd a22c a6be 8d7a 40be fc5b aebe
00000200: 0577 a8be 8451 3abe 9a94 f5bd 9780 483e
00000210: 76a6 34be 3302 5e3e 2844 263e 7812 d8bc
00000220: 168b 643e d18d 993e 3a88 a4be 341e 4cbd
00000230: 92ba cb3d 8177 00be c3fd 22be 3512 713b
00000240: 84e0 44be 19e7 87be 6c3b 38be 9805 323e
00000250: c68d c23e 9fef d3bd d012 95be b749 3dbe
00000260: 1264 583e c692 303e 01a0 993e a8b7 cbbe
00000270: 350e 96be c07b 523e a85b aebd aaf7 83bd
00000280: f664 d1be 1266 60bd eb67 503e 1055 c1be
00000290: c677 883c 31cc 983e ff03 1dbe 4866 89be
000002a0: 74bf d1bd 3584 a43e 992c 6e3d 2687 a9bd
000002b0: 999b b8be 2d98 7dbe 2661 0cbe 4297 4bbd
000002c0: 0cf1 5ebe 27d6 033e 1a27 493e e3c6 e33d
000002d0: fa9f 493c d51c e03d e739 22be 3874 8e3d
000002e0: 6d62 953c 19f7 9d3e 5b44 f2be 9822 8b3d
000002f0: 457b bf3d 939d 583e f545 8d3e 237a 803e
00000300: a9d3 853e 083a a33c da1b 343e 5733 8c3e
00000310: c425 c53d b32c 16be 9dce 47be 6f06 2ebe
00000320: 06ec 7f3e 379e d3bd 4be1 1dbe d369 e43d
00000330: a340 73bd fcc8 83be 5b8a 543e 7c2c 33be
00000340: 04db 8abe 46d5 1d3e 2bf1 a6be 317b 283e
00000350: d24e 953e 1e8b 273c 9524 9c3d a485 2d3d
00000360: 87d9 6bbe ecc9 b5be 5a20 be3d 45e6 8dbe
00000370: 3a23 bcbe 4db7 ae3d 7af7 233e d227 9a3d
00000380: 8a08 1ebe 4949 8ebe 1c67 05be 5d58 8a3e
00000390: 51ca 44be 6845 9abe f4f3 a1bd 22f4 d23c
000003a0: a16f 3bbe 5284 a7be 8d67 43bd 89d0 8ebe
000003b0: 0c05 243e 2ebe 7dbe 8cd8 1fbb 9547 19bd
000003c0: 7651 2b3e 0dcd ddbe 9121 f63d 10b3 44be
000003d0: 1322 93bd 9182 36bd 6200 403e 629c 5e3d
000003e0: af30 a53d 202f a4be 433c cd3e dcb0 bfbe
000003f0: 262d ebbe 68e6 56bc 3d3a dd3d 4c25 853d
0.17850702 0.3561354 0.03817254 -0.36460447 -0.1469722 -0.24428295 -0.16681974 -0.12562571
-0.20980722 0.12855485 -0.4453801 -0.026511483 -0.074035786 -0.21892668 -0.06162645 -0.40418202
-0.1954169 -0.076825984 0.33035687 -0.16582583 -0.22706163 -0.048460945 0.069538824 -0.23905727
0.025210867 -0.33692157 -0.19987851 0.19118482 -0.03028596 -0.11148434 0.12635948 -0.12389258
-0.33511 -0.2601701 -0.37875938 0.25028357 0.10796339 -0.02908574 -0.3066214 0.044137426
0.07824728 -0.23878172 0.17476203 0.24250633 -0.049085032 -0.060331695 -0.07172939 -0.088681154
-0.2722604 -0.19167057 -0.07056175 -0.24813999 0.17762226 0.124743335 0.0056181843 -0.12346712
-0.22330418 0.36758438 -0.2791599 0.033780243 -0.07880783 -0.21238309 -0.062205262 0.26986924
0.031933494 -0.18735972 0.19800968 0.060537834 -0.27499148 0.13768011 0.006027753 -0.19215834
-0.14508839 0.30007955 -0.024402885 0.26284894 -0.1800524 -0.1812283 -0.37445077 0.17427638
0.049348857 -0.04528292 0.29303673 -0.03371715 0.18706615 -0.27382725 -0.39030942 -0.37654716
-0.17985083 0.13603038 -0.18554573 -0.3056308 -0.31640267 0.10852745 0.05903961 0.011874978
0.13681999 0.2248806 0.15327895 0.4039424 0.23110814 -0.36980215 0.027107622 0.16109668
0.11260163 0.013824658 0.089153126 0.2539983 -0.08416896 -0.34013453 -0.15884624 0.23457728
-0.44470638 -0.13713756 -0.17305526 -0.3889916 -0.004902718 0.100196175 -0.037205227 -0.100128524
0.107568234 0.16828366 0.12295674 -0.23035921 -0.06150099 -0.32455927 -0.1879675 -0.34054554
-0.32903305 -0.18195158 -0.11991234 0.19580303 -0.17641625 0.21680526 0.16236937 -0.026375994
0.22318682 0.2999101 -0.32135183 -0.04983349 0.09947695 -0.12545587 -0.15917115 0.0036784534
-0.19226271 -0.265435 -0.17991418 0.17384946 0.3799879 -0.103484385 -0.29115915 -0.18485151
0.21131924 0.1724349 0.30004886 -0.39788556 -0.29307714 0.2055502 -0.08513576 -0.064437225
-0.4089734 -0.05478484 0.20352142 -0.3776021 0.016658675 0.29843286 -0.15333556 -0.26835847
-0.10241595 0.32132116 0.058148 -0.08277731 -0.36056212 -0.24765082 -0.13708934 -0.049704798
-0.2177164 0.12874661 0.19643822 0.11121919 0.012306208 0.10942999 -0.158424 0.06955761
0.01823541 0.30852583 -0.47317776 0.067937076 0.09349684 0.2115386 0.27592435 0.25093183
0.26138046 0.019925132 0.1758875 0.2738292 0.09626344 -0.14665489 -0.1951241 -0.16994642
0.2499238 -0.103329115 -0.15417974 0.11152997 -0.059387814 -0.25739276 0.20755903 -0.17497438
-0.2712022 0.15413389 -0.32605872 0.16453244 0.29161698 0.010226039 0.07624165 0.042363778
-0.23032199 -0.35505617 0.09283514 -0.27714744 -0.36745626 0.085310556 0.16012374 0.07527126
-0.15432945 -0.27790287 -0.13027614 0.2702054 -0.19217803 -0.30131078 -0.079078585 0.025751177
-0.18304302 -0.3271814 -0.047706176 -0.27893475 0.1601755 -0.24779579 -0.0024390547 -0.03742178
0.16730294 -0.43320504 0.12018121 -0.19208932 -0.071842335 -0.04455811 0.18750146 0.054348357
0.08065926 -0.32067204 0.4008504 -0.3743962 -0.45932883 -0.013116457 0.10802124 0.065012544

conv1.bias f4 [32]
00000000: 855b 87be 096e a3be e0eb 953e 8642 f43b
00000010: 6534 263e 8b61 cf3d 2bcf 193c abb4 3fbd
00000020: 5720 973e dbe3 c7bd 03dd 10be fd18 71be
00000030: e090 52be a81f 23be 1f0d 603d cc92 d03d
00000040: 668c 113e 15f6 193d 31d5 063e c732 25be
00000050: 7973 2bbe 4ff3 b0bd dd99 78bd 05c9 903c
00000060: 9a61 1c3e fe9c 293e db52 99be 5a3b 47bc
00000070: 8d4c 5dbb 5e74 81be ac25 aabe a6e3 acbe
-0.2643701 -0.31919888 0.2928152 0.0074542193 0.16230924 0.10126027 0.009387772 -0.046803158
0.2951686 -0.09760257 -0.1414681 -0.23544689 -0.20563078 -0.15930045 0.054700013 0.10184249
0.14213714 0.037588198 0.13167264 -0.16132651 -0.16743268 -0.086401574 -0.06069361 0.017673979
0.15271607 0.16563794 -0.29946026 -0.012160147 -0.0033767552 -0.25284094 -0.33231866 -0.33767432

bn1.weight f4 [32]
00000000: f51b a53f 21a9 9c3f d20b a13f 808d 9c3f
00000010: a56d 543f 7a89 8e3f 859b 8f3f ad4d 913f
00000020: dc87 463f c071 8e3f c7b1 863f 3db3 2a3f
00000030: bcf7 9b3f 1d9a 403f e4f5 923f 06ff 813f
00000040: e61f 833f 039f 833f ad67 433f 4da5 743f
00000050: 7df9 343f e197 363f 2921 6d3f 4d47 4c3f
00000060: 1c0b 6f3f c6d9 a83f d3f6 8c3f f32f 8d3f
00000070: ade1 323f 3d89 a53f e6a1 943f 5756 a03f
1.2899157 1.2239114 1.2581732 1.2230682 0.82979804 1.1135705 1.1219336 1.135183
0.77551055 1.1128464 1.0523003 0.66679746 1.2184978 0.7523516 1.148129 1.0155952
1.024411 1.0282902 0.7633007 0.9556473 0.7069319 0.713255 0.92628723 0.79796296
0.93376327 1.3191459 1.1012825 1.1030258 0.69875604 1.2932507 1.1611907 1.2526349

bn1.bias f4 [32]
00000000: dff1 0fbe 6c84 08be e191 e1bd dc42 0bbe
00000010: 61db 02bd 5600 b7bd 62d6 03be c0e4 cfbd
00000020: d311 163e 65d9 30be 6d35 0b3e 5e21 f8be
00000030: d8f1 88bd cfa7 44bd df9f 9ebc 0570 e6bd
00000040: 8da0 97be 59c1 55be 0c3d f8bd d4dc 89bd
00000050: 6594 db3a 6ee9 0dbf 469a 92be 7c83 26be
00000060: af6e 4ebe 74ef e5bd 733c aabd 9168 14be
00000070: 1eb8 84be 9931 b7bd 1433 80bc 0a91 18be
-0.1405711 -0.13331765 -0.11014152 -0.13599724 -0.031947497 -0.08935611 -0.1287475 -0.101510525
0.14655237 -0.1727043 0.13594599 -0.48462957 -0.06686753 -0.048011597 -0.019363342 -0.11251835
-0.29614678 -0.20874538 -0.12121019 -0.06731573 0.0016752599 -0.5543431 -0.28633326 -0.16261095
-0.2015941 -0.11227313 -0.08312311 -0.14493014 -0.2592172 -0.08945007 -0.015649356 -0.14899078

bn1.running_mean f4 [32]
00000000: fac2 8bbe 365d adbe 6599 8f3e c532 973a
00000010: b6e4 233e 8476 bb3d b8ed 8939 c49d 43bd
00000020: 1df1 933e c03d dabd b6df 15be 9957 63be
00000030: f2d0 65be 5a69 31be b465 223d 5d3a d33d
00000040: 6786 ff3d 7ac4 ad3c 5076 0c3e a621 2ebe
00000050: cea0 32be 262d 77bd 807f 75bd bb3b 7e3c
00000060: 931a 143e 49e0 193e f603 9abe 87cc 05bd
00000070: 9153 07bc bdfc 81be 72ba a9be ab89 b3be
-0.27297193 -0.33860177 0.28046718 0.0011535516 0.16005215 0.091534644 0.0002630779 -0.04775788
0.28894892 -0.10656309 -0.1463612 -0.22201385 -0.22442988 -0.17325345 0.039647773 0.10313866
0.12476807 0.021211851 0.13717008 -0.17005023 -0.17444155 -0.06034579 -0.059936047 0.015517171
0.14463262 0.15026964 -0.30081147 -0.032665756 -0.00825967 -0.25388137 -0.3315006 -0.3506597

bn1.running_var f4 [32]
00000000: bdc9 0f3f ef9b ae3f e73a 2b3f cd19 003f
00000010: c620 443e 1d6b da3e 5e18 ab3e af5d 973e
00000020: f664 8b3d b024 f73e 6bea 973e a727 223f
00000030: 65bf d33f 9f58 fd3d b0be 2e3f d604 643e
00000040: b260 523e 2950 d53e 9168 133e 03ee 043f
00000050: 32a4 083e fc4b b43f 4c87 8d3e 96d5 863e
00000060: b92d 4c3f 5b7d 813f e83e a93e 3a1a af3d
00000070: 2c8a 553e 1933 b93e 8afe cd3e 8c26 b53e
0.56167203 1.3641337 0.6688675 0.5003937 0.19153127 0.42659846 0.33417028 0.29563662
0.06806366 0.48270178 0.29671034 0.63341755 1.6542784 0.12370419 0.68259716 0.2226747
0.20544699 0.4166272 0.14395358 0.5192568 0.13343886 1.4085689 0.27642286 0.26334828
0.7975727 1.011638 0.33055806 0.08549924 0.2085349 0.36171797 0.4023326 0.3538097

conv2.weight f4 [64, 32, 3, 3]
00000000: d67d f83d 1ed4 b73d 678e b7bd d46b 0d3e
00000010: 0096 d6ba ebd4 20bd f430 163d ff1e debc
00000020: 2051 e73c b0d1 df3b d428 913e 76cd 0a3e
00000030: 585c f73d ba57 bc3e 9566 753e 88b2 56bd
00000040: 47ca f73d 2c0c c03d b6a4 503e ed4d 993e
00000050: e6f0 cb3d cb78 bcbd b2e6 9c3d 3154 063e
00000060: 24c5 76be 7aed 9abc 84de 8fbd b905 d13d
00000070: eb16 853e 6813 593e ba26 fa3d 640e 673e
00000080: ac9c 153c 0457 15be f5fa f13c bd65 863d
00000090: 3f91 7bbb 77dc bf3d a924 78be 4b95 3cbe
000000a0: 15d3 c2bd fad6 27bd b169 4cbd ede1 4e3c
000000b0: 8d42 89bb 1725 2c3d d2e3 1f3e 6d37 423e
000000c0: 4eec d2ba 7c70 9a3d 0b9a 823d 6151 503d
000000d0: 8b26 8f3d 5a2d bb3d 566f febd 3eaa 733e
000000e0: 7012 233e c48d 04be 3b9f 233e 9986 a2bd
000000f0: 07bf a0be df79 f0bc 9e8a a43b 0b5c a9bb
00000100: 6357 883e 79ba 823d c3c5 62bd ae63 413d
00000110: 9b63 10bc e9bd 1dbe 48c0 9bbd 1efe 003d
00000120: 9cff 82bd 2534 e23d c178 1bbe a545 d7bd
00000130: 57cd b63b c780 55bd 7296 34be 887f bcbd
00000140: 829c e13d c9d9 d23b b15b 913d 0af1 e13c
00000150: 1b76 743d fd71 0a3e 1978 0abe ed55 d43c
00000160: 636e 9fbc d3f6 003d 4d55 b53c ffdd 1bbd
00000170: f74f e1bd e1e7 aabd 9579 0ebe 0e79 cdbd
00000180: 3eb4 973d 7b59 9f3d 6079 b33d d11f 4bbd
00000190: b6df b33b f51d 5fbd 060f 2abd ab9d 06bd
000001a0: c7de c9bd b3e2 7cbd 7df8 5abd faed 5f3d
000001b0: 5644 1b3c c033 a83e 7b1e 503e bbf6 073e
000001c0: 3c37 603e 87f0 8c3d 0bd2 a2bd c23f 8f3d
000001d0: 2348 443d c2d4 cd3c fc0a d1ba ac42 28be
000001e0: a032 683d cd2a 793c 0f3d 11be dd13 44be
000001f0: c7ce f9bd 98d2 27bc b428 ae3d aeea 743d
00000200: d003 2d3e d2a8 9dbc 74b1 953d 5e55 41bd
00000210: d779 c63d e1d9 d53d 100f 753d 4b82 fa3d
00000220: 6b76 03be 8276 2ebe 6156 08bd dfdb 6bbe
00000230: 0c40 b9bd 76a7 28be 60bc 5bbd ee14 4cbc
00000240: ca73 503d 9b3d 07be 5f2f cebc faab f6bd
00000250: 5160 58be 21bf 9b3d 776e babd d0a3 a73d
00000260: a565 7cbb 4fea 9b3d 2924 373e 7bac 22bd
00000270: e787 ba3d 3c6f 323e f94f 0abe e812 51bd
00000280: d42d 15be 93b6 8dbc d1df cd3c 5062 803d
00000290: ac85 fabb b37b c8bd 082c 1cbc 9bab 7ebd
000002a0: effd d0bc d707 65bc 101e 5f3d 969e b23d
000002b0: b19c 79bd 9dd5 09be 76b5 0fbe 973d 97bd
000002c0: 06b9 a7bc cbbb 073e 0e07 363e c976 713d
000002d0: 4ee9 9d3d 3088 18bd a593 923c 4173 61be
000002e0: fdb0 9fbd fbcf f0bd e37e acbd 698b bdbd
000002f0: b6a6 433d 276f 21bb f682 0b3e 24aa afbd
00000300: 4836 843c 5bd5 92b8 38ee 2a3c 9aeb 12bd
00000310: 7b5a e0bc e382 543c eec7 a63d 4ee3 1b3e
00000320: a9e2 803b 9c81 e8bd ad0f 26bd 5960 8f3d
00000330: aca4 40be 8300 193b 502b a33b 37d0 6b3d
00000340: ddd9 d43d f944 2e3e 616a 96bd 3a28 393d
00000350: aec8 ac3d b79d b4bb f64d 9c3b b8cd 383d
00000360: df9a 3d3d e7ab fbbc 4b40 803d 521e dcbd
00000370: 9105 9fbb dc15 7c3d 74a1 96bc 19af 6b3e
00000380: f1b6 6f3c 9293 10ba a065 a8bd d2fe 1abe
00000390: 0fdb 103d 91f6 d7bd 7069 0f3e ba90 abbd
000003a0: 708c bb3d 8d0f 853b 1a6f 8bbc e114 103d
000003b0: d9df 2cbc 389a 1cbe e4a1 12be 4a0e a8bc
000003c0: 5cde 5ebd 5fc9 383e 2a0e 3a3c 2407 11bd
000003d0: 18ed 19be f1b1 b2bd 364d e5bd a951 54be
000003e0: ab32 c4bd 99c6 49bc f7ba 5bbd 40ce 0e3d
000003f0: 2089 ad3d 0411 403d 179c a93d f64a 3f3d
0.12133376 0.08976005 -0.08962708 0.13810664 -0.0016371608 -0.039265554 0.03666778 -0.02711439
0.028236926 0.0068304166 0.28351462 0.1355494 0.1207816 0.3678568 0.23964913 -0.052416354
0.12099128 0.093773216 0.20375332 0.29942265 0.09958057 -0.09202727 0.07661189 0.13118054
-0.2409864 -0.018912066 -0.07024863 0.1020617 0.25994048 0.21198809 0.12214418 0.22564083
0.009131592 -0.14583975 0.029538611 0.06562374 -0.0038386134 0.09368222 -0.24232735 -0.18416326
-0.09512917 -0.040976502 -0.049905483 0.012627107 -0.0041888417 0.04202756 0.1561425 0.18966456
-0.0016092153 0.07540986 0.063770376 0.05085886 0.06989773 0.091395095 -0.124235794 0.23795411
0.15925002 -0.12944704 0.1597871 -0.07935829 -0.31395742 -0.029354988 0.0050214073 -0.005168443
0.2662917 0.06383223 -0.05536438 0.047214203 -0.00881281 -0.15404476 -0.07605034 0.031492345
-0.0639641 0.11045102 -0.15182783 -0.105113305 0.0055786776 -0.052124765 -0.17635515 -0.09204012
0.110161796 0.0064346534 0.07097567 0.027580757 0.059682947 0.13520046 -0.13522376 0.025919879
-0.019461816 0.03148539 0.022135401 -0.03805351 -0.1100158 -0.08345009 -0.13913567 -0.10032855
0.07407425 0.07780739 0.08763385 -0.04959089 0.005489315 -0.05447193 -0.041518234 -0.032865208
-0.098569445 -0.061739635 -0.053459633 0.05467031 0.009476742 0.32851982 0.20324127 0.13277714
0.2189607 0.068818145 -0.07950219 0.06994583 0.047920357 0.025125865 -0.0015948708 -0.16431683
0.056688905 0.015207958 -0.14183448 -0.19148202 -0.12197643 -0.010243081 0.08503857 0.05979412
0.16895986 -0.019245539 0.07309237 -0.047200553 0.09691208 0.10441948 0.059828818 0.12231883
-0.12838142 -0.17037395 -0.033285502 -0.23033093 -0.09045419 -0.16470131 -0.053646445 -0.012456162
0.050891675 -0.13207094 -0.025169073 -0.12044521 -0.21130492 0.07604814 -0.09103101 0.08185542
-0.0038512733 0.0761305 0.17884888 -0.03971527 0.091079526 0.17425245 -0.1350707 -0.05104342
-0.14568263 -0.017298972 0.025131138 0.062687516 -0.0076453295 -0.09789219 -0.009531982 -0.062175374
-0.02551171 -0.01397892 0.05447203 0.08721654 -0.06094045 -0.13460393 -0.14034066 -0.07384794
-0.020473968 0.13255231 0.17776129 0.058951173 0.07710515 -0.037239254 0.017892668 -0.22016622
-0.0779743 -0.11758419 -0.08422639 -0.09255106 0.04776641 -0.0024632902 0.13624176 -0.085773736
0.016139165 -7.001563e-05 0.010432772 -0.03586922 -0.027386894 0.012970659 0.08143602 0.15223429
0.00393327 -0.11352846 -0.040542293 0.07000799 -0.18812817 0.0023346252 0.0049795285 0.057571616
0.103931166 0.17018498 -0.07344509 0.04520438 0.08436714 -0.005511965 0.004770036 0.045118064
0.046290275 -0.030721618 0.06262263 -0.10747971 -0.0048529585 0.061544284 -0.018387534 0.23016013
0.014631019 -0.0005515154 -0.082225084 -0.15136269 0.03536516 -0.10545076 0.14005065 -0.08377214
0.09157646 0.0040606917 -0.01702075 0.03517616 -0.010551416 -0.15293205 -0.14319569 -0.020514626
-0.054411277 0.18045567 0.011355916 -0.0354072 -0.1503185 -0.08725346 -0.111963674 -0.20734276
-0.09579977 -0.012315416 -0.0536451 0.034864664 0.0847342 0.046891227 0.08281725 0.046702348

conv2.bias f4 [64]
00000000: fcdc 12bd 776f 053d 92f8 b3bc 4aff 68bd
00000010: dab4 51bd 1e30 563d 0713 8cbb 2cad 29bd
00000020: d33c 27bd 8868 2a3c 196b df3a 9e99 10bc
00000030: 9c02 363d 62f9 40bd 01a1 c83c ed69 f63c
00000040: 3693 1f3d 87ed 43bd f053 1d3d 109b 873c
00000050: 263d 3a3d 39ea 3a3d 3db9 85bd 51bc 58bd
00000060: 585e 2c3a afe3 03bc fcc6 bb3c accb 1a3d
00000070: bb4f b6bc 9144 01bb 9a3d 8b3d a340 37bd
00000080: 1994 c23c 8a33 42bd 7c6f 4abd a753 613d
00000090: 180a eabc ca64 84bd 6165 733d 0fa9 363d
000000a0: d2a2 45ba 8ecd e93c 71b8 7ebb 05e3 6bbd
000000b0: 5473 d1bc f098 e7bc e8ef 25bd 6318 49bd
000000c0: a401 aabb a19b 91bd e67d 353c 9ee1 ef3c
000000d0: 8cd3 18bd 8fcd 09bd 3977 69bd f4d5 8b3b
000000e0: 23d4 44bc 62c2 f53c f033 2f3b 453c 6c3d
000000f0: a0be 8abc 2ddd ad3c b30a fd3b 7b17 5d3c
-0.03585528 0.032577004 -0.021969113 -0.056884088 -0.051197864 0.052291982 -0.004274729 -0.041424915
-0.04082949 0.010400899 0.0017045467 -0.008825688 0.044436082 -0.04711283 0.024490835 0.030079806
0.03895875 -0.047833946 0.038410127 0.016553432 0.045468472 0.04563353 -0.06529472 -0.052913968
0.00065753376 -0.0080498895 0.022922032 0.037791893 -0.022254815 -0.0019724707 0.06798859 -0.044739377
0.02375226 -0.047412433 -0.049422726 0.055011418 -0.028569266 -0.064645365 0.059422854 0.04459482
-0.0007539216 0.028540399 -0.003886726 -0.05758955 -0.025567688 -0.028271168 -0.040511996 -0.049095523
-0.005188184 -0.07109762 0.01107738 0.029282387 -0.03731112 -0.0336433 -0.056998465 0.0042674486
-0.012013468 0.029999916 0.0026733838 0.057674665 -0.0169366 0.021223629 0.0077222227 0.013494368

bn2.weight f4 [64]
00000000: 3a83 a33f c493 833f 478e 8d3f 8741 1e3f
00000010: 6e21 903f 65f1 473f 375e 583f 2ca2 8c3f
00000020: 07b6 843f 0b55 863f 9adb 553f c4d2 853f
00000030: e152 853f ad35 623f 7eb5 533f c004 a63f
00000040: 5da5 463f a756 823f 9779 763f b705 a33f
00000050: 9b62 663f 866e 623f 5718 593f c5e7 803f
00000060: 2280 513f 89b4 783f 4571 873f 9121 803f
00000070: a9af 643f acd9 783f 9688 843f 7168 943f
00000080: 8767 783f de50 6f3f b775 923f 4233 473f
00000090: 2364 773f 6579 7e3f 1652 7a3f 4e6b 853f
000000a0: 6447 3a3f 178f 933f 4af8 853f b7ea 8c3f
000000b0: 05bc 913f e8b2 743f 38dd 7c3f ef51 8a3f
000000c0: cb4f 873f 5284 683f 8419 963f c982 8b3f
000000d0: d284 793f cddb 803f 8bf3 3d3f 1d1a 563f
000000e0: 82f1 553f 79aa 603f 6e32 af3f 2184 863f
000000f0: f90d 563f e907 823f e56d 6f3f 20b4 473f
1.2774422 1.027947 1.1059045 0.61818737 1.1260202 0.78102714 0.8451876 1.0986991
1.036805 1.0494703 0.8353821 1.0454946 1.0415918 0.8836315 0.8269881 1.29702
0.77596074 1.0182694 0.9627928 1.2736119 0.8999421 0.88449895 0.84802765 1.007073
0.8183614 0.97150475 1.0581442 1.0010244 0.89330536 0.9720714 1.0354183 1.1594373
0.9703297 0.9348277 1.1442174 0.7781259 0.9663717 0.99403983 0.97781503 1.0423372
0.72765183 1.1528043 1.0466397 1.1009129 1.1385504 0.9558549 0.98775053 1.0806254
1.0571226 0.90826905 1.1726537 1.0899287 0.9746829 1.0067078 0.7419974 0.83633596
0.83571637 0.8776012 1.3687265 1.0509073 0.8361507 1.0158664 0.9352706 0.78009224

bn2.bias f4 [64]
00000000: 8f83 e8bd ffd7 0abe 7f14 73be b0c4 07bf
00000010: 9e24 24be 1869 94be 358f 0abf 6b1c 1bbe
00000020: d891 79be 38b7 4cbe 570b 31be fec4 cbbd
00000030: e3ad 47be a951 6dbe c7e9 63be 3107 21be
00000040: 94dc 50be 5640 8cbd b10b 79be 07b8 a7be
00000050: b877 3dbe 9eb4 2fbe 98ea 30be 5b3f 66be
00000060: c99e 7bbe b923 5abe 339f 73bd d8d8 76be
00000070: 7f39 59bd bebc 1ebe 0c66 95be 8806 84be
00000080: e330 42be dd94 73be cc95 c5be e8f4 c1be
00000090: 39a0 2fbe 8812 70be 5861 aebe 4aa5 56be
000000a0: 7381 21bf b59b 95be 4b2a 63be 3e4d 74be
000000b0: d355 8ebe 4176 f8be 6910 4fbe 6cb0 58be
000000c0: 03fa 32be fc8a 03be f5e0 e4bd fd06 90bd
000000d0: 170e b8be 2799 b3be 607f fbbe e130 c1be
000000e0: 8243 00bf 641e 8abe 6020 efbd 59a7 91be
000000f0: 870d 33bd 3a71 62be ff91 07be a36b adbe
-0.11353218 -0.13558958 -0.23738287 -0.53034496 -0.16029593 -0.2898643 -0.54124767 -0.1514756
-0.24372041 -0.19991767 -0.17289482 -0.09949683 -0.19499926 -0.23175682 -0.22257148 -0.157254
-0.20396644 -0.068482086 -0.24320866 -0.3275759 -0.185027 -0.17158744 -0.1727699 -0.22485106
-0.2457229 -0.2130269 -0.059477996 -0.24106157 -0.05303335 -0.15501687 -0.29179418 -0.25786233
-0.18963961 -0.23787256 -0.38590848 -0.3788216 -0.17150964 -0.23444569 -0.34058642 -0.2096149
-0.6308815 -0.29220358 -0.22184102 -0.2385759 -0.27799854 -0.4852772 -0.20221104 -0.2116105
-0.17478184 -0.12845987 -0.1117572 -0.07032583 -0.3594825 -0.35077783 -0.49120617 -0.37732604
-0.5010301 -0.2697631 -0.11676097 -0.2844799 -0.043714073 -0.22113505 -0.13239287 -0.33871183

bn2.running_mean f4 [64]
00000000: 72e9 6b3e 9ba8 28c0 94b9 dd3c 9dbb 71bf
00000010: bd8b babf 9b19 80bf 7e42 3cc0 ed14 c9bf
00000020: 6bd9 71bf 4e94 14c0 12d4 38c0 e078 1b3e
00000030: b30f 0fc0 fc26 0ac0 bdcc 9ebf 928d b0bf
00000040: 9449 32c0 79f7 b8bf 9356 93bf d585 3fbf
00000050: 396a 08c0 99e8 1fc0 d017 bfbf af99 1e3f
00000060: 1eda 11c0 bf64 0fc0 9f27 87bf a582 45c0
00000070: 72a4 a8bf 4a4d dbbf 2dac 24bf 5e2c 883f
00000080: 8513 92bf afc5 38c0 403f cebe b427 49bf
00000090: 1a19 37c0 5eea 3fbf b167 e9bf 7f64 9dbf
000000a0: c813 06be 34f2 57bd 7ecb 4bc0 01f5 413f
000000b0: b26c dcbf 4648 2bc0 3a8e ce3e b893 afbf
000000c0: 94e8 65bf c687 72bf 7fbf debf 6869 1b3f
000000d0: 49b2 553f 2862 10bc 9121 44bf 894f 8fbf
000000e0: f672 f6bf 0106 36c0 7445 c2bf 7714 90bf
000000f0: 88d8 5bc0 9000 e6bf 6ac3 4dbf 06e5 8cbf
0.23038271 -2.6352909 0.02706603 -0.944269 -1.4573895 -1.0007814 -2.9415584 -1.5709511
-0.9447238 -2.3215518 -2.8879437 0.15182829 -2.2353332 -2.1586294 -1.2406231 -1.3793204
-2.7857409 -1.4450523 -1.1510795 -0.74813586 -2.1314833 -2.4985716 -1.4929142 0.6195325
-2.2789378 -2.240524 -1.0558966 -3.086099 -1.3175185 -1.7132962 -0.6432522 1.063854
-1.1412207 -2.8870656 -0.4028263 -0.7857621 -2.860907 -0.7496699 -1.8234769 -1.2296294
-0.13093483 -0.052721217 -3.1842952 0.7576447 -1.7220671 -2.6762862 0.40342885 -1.3716955
-0.8980801 -0.94738424 -1.740219 0.6070771 0.83475167 -0.008812465 -0.7661372 -1.1196147
-1.9253833 -2.8441164 -1.5177445 -1.1256245 -3.435091 -1.7968922 -0.80376303 -1.1007392

bn2.running_var f4 [64]
00000000: e0da 7f40 b888 6740 3f10 5140 ff2a 8040
00000010: b915 9440 48df 3840 201d 3140 6330 c63f
00000020: dda4 3540 bb94 5240 784d c940 313c 8240
00000030: a25c 1341 d255 0e40 c312 b840 771e 5a40
00000040: 3a2a ba3f 6714 ae40 4d55 1d40 ab7a 8440
00000050: 6963 c23f c9d0 5b40 c2b3 8240 deed 8940
00000060: 381d 1240 67aa 4940 ac52 8840 fb03 5a40
00000070: f139 a040 a91d 1b40 3e90 9e40 5996 9540
00000080: 6ae4 e340 b0a5 b140 de06 8a40 e4d1 1440
00000090: 4dda 3040 0038 be40 971f 3640 c1e1 f740
000000a0: e155 8e40 44a0 d440 7a47 2d40 9131 8440
000000b0: 2bdf 0941 3f43 f53f f083 cb40 6977 4440
000000c0: 4914 8c40 5eb8 a340 edcd cc40 941c 9140
000000d0: 55c1 4540 b73e a840 66f0 ab40 e59b 1640
000000e0: b89b 0440 3cfd 3140 4260 b640 26e4 d040
000000f0: 2ae0 7e40 1d79 c03f 841a 3540 6418 9e40
3.997734 3.6177197 3.2666166 4.0052485 4.6276517 2.888628 2.7674026 1.5483516
2.8381875 3.2903278 6.2907066 4.0698476 9.210115 2.223988 5.7522902 3.4081094
1.4544137 5.4399905 2.4583313 4.139974 1.5186588 3.4346182 4.084443 4.3102865
2.2830334 3.1510255 4.260092 3.406493 5.007073 2.4236853 4.9551077 4.674603
7.1216326 5.5514755 4.3133383 2.3253107 2.763324 5.944336 2.845678 7.746308
4.4479833 6.6445637 2.7074876 4.1310506 8.616984 1.9161147 6.3598557 3.0697882
4.377476 5.1162558 6.4001374 4.5347385 3.089925 5.2576556 5.3730955 2.353265
2.0720043 2.7810812 5.69925 6.52785 3.982432 1.5036961 2.8297434 4.9404774

conv3.weight f4 [64, 64, 3, 3]
00000000: e00d 53bd 2273 5cbe f1fe c2bb ce40 5b3e
00000010: 0e1e d3bd 23e4 46bc 1a9e 65bd 885c 8fbd
00000020: 2e74 933b 7c49 d83d f9ec efbc 1ec7 a1bc
00000030: d9e3 16bc b611 12be 3004 0b3c a8b1 c4bc
00000040: b6d9 22bd 5f97 42be 66de 053d 4d12 ddbd
00000050: f1eb e33c e2da 36bd cf82 bebd c8c3 82bd
00000060: d178 cd3c bd30 9ebd 426f 7cbd 18ff 0b3d
00000070: 896a 713c f5b3 6dbd 8caf 243c a085 933d
00000080: 1cef e23d fc06 b03d 3aed d03d 2bd9 f33b
00000090: ddb3 093e 9b28 28bd 3a67 2dbc 8547 8fbd
000000a0: 5998 f9bd 0bd8 dc3c 6df7 e43d 005f e8bd
000000b0: 49f2 8cbd 73fd eabd b4a1 d33c 1d0f e03c
000000c0: a2ed f9bc f3b2 883d e1a2 e9bd 7999 8b3d
000000d0: 52a9 f2bd 3e22 8dbc 1050 85bc 4934 c03d
000000e0: 0a29 28be 062f bab9 f847 5dbd 8883 833c
000000f0: ecf7 c73c 1e30 1f3e 4b76 e03d abf9 833c
00000100: eb85 59be dda6 75bd c0ca 943a 10aa 0cbe
00000110: cce4 163e ecc2 013d 0778 1dbc ffe7 1cbe
00000120: 5e90 14be 905a 02bd af2f 50bd a120 83bd
00000130: 8206 c5bd 42b9 b6bc 0587 90bd 5633 e23c
00000140: 07fe 8fbd ab2f ab3d 2126 cd3d 8721 843d
00000150: 3a96 c2bd 67fe babd af50 89bd ea5c 173d
00000160: 4123 293d d118 f83d 5a67 063d d34d 8fbd
00000170: 9965 bb3d cdeb 45be 6630 663c c751 193e
00000180: c9dd 3a3d 8a00 133d 0eaa e6bd b3f2 e7bc
00000190: eccf d43d d1c5 c43d b2e2 a03c 5ea7 80bd
000001a0: edb2 2bbe 8908 f2bd 5cb1 7cbe 24ae 5cbe
000001b0: 54f4 283d c381 7bbd a2b6 303d c746 043c
000001c0: 2ef0 203e d84a 46bd 5730 813d cae2 b7bd
000001d0: 8d17 8cbe bbb0 e2bd 5b2c 2abc e6d0 2fbd
000001e0: 14c1 3e3e 2ab9 d63d c3df 89bd 980d c0bd
000001f0: e0eb 633b 3236 bb3d 1b23 ff3c b285 18be
00000200: ae71 8a3d 28a3 e6bd 8a68 d63b 58a2 4e3e
00000210: f318 c43d 6f34 45bc 67c2 3abd 97fe 75bd
00000220: 5f84 6a3c 0673 8eba dcf2 e8bd cb27 5ebd
00000230: 5b5a 35be 3068 e63d f65c d0bd 44de 5ebd
00000240: 68b6 fdbd 0a6e 813d 5b4c 8d3c c328 573c
00000250: eff8 0a3e 3818 07be 41c1 613c ee63 103d
00000260: 7400 703d 6510 a93d 450c ecbd 0ae3 bb3d
00000270: 8d9d 983d ad31 f83c 1f19 523d 6083 443e
00000280: afa9 cf3c d7d9 60be 4ad2 3b3e c99b 89be
00000290: ba75 46bd 81d8 1c3c 3b65 283d 9a96 3a3d
000002a0: eaa3 2b3e 1c98 3b3d 672e 09be c754 0f3e
000002b0: f894 243d a1b1 8abd 376a e7bc fd17 abbd
000002c0: 47ee 3dbe 7b3a 98bd ceaf a2bd 8fb0 1d3d
000002d0: 2f1b c8bc 85ff 5a3e 64f8 d63d a15b 06bc
000002e0: 5897 333d 59d3 8ebd c348 39bd 4c46 c63d
000002f0: 5f0f cb3d be5b 8abd 2711 b63d f796 d6bd
00000300: adf0 183d 0b61 81bd f968 943d 2ede ec3d
00000310: e497 673d a5ab 883c 4ed7 163d 60ba 8fbd
00000320: ceef a53d 6752 293d e618 94bb 5f5c a6bd
00000330: a7c6 b03d f01a b93c a9ad 36bd 5230 473e
00000340: 3ada 7cbe 3675 963d b20f 5d3c 94d8 56bd
00000350: 84fc 263e 3bee a93d 6cbc bb3d 05fa 0fbd
00000360: ccef 98bd c073 143d 8489 cebd 88fd 403a
00000370: 338d 123e 3b49 903d a168 fcbc 2183 e33d
00000380: 3e11 dd3d 01f3 88bd d81b 5fbd 7ff5 fe3d
00000390: d716 a5bd 6029 51bd 690c 01be 1367 ce3c
000003a0: 5d65 1b3d ddec 65bd c029 64bd 00fe a5bd
000003b0: c32e 7bbc 1082 ddbd 53d8 e5bd 7b4f 46bd
000003c0: f0be 10be b5ba 0ebd ad43 ea3d ffb7 f83d
000003d0: 2c95 8dbb 9314 d33d 82be ddbd 0d52 4fbe
000003e0: 1f40 8ebd 1d07 dc3d 846b 913d 2174 e3bd
000003f0: d5b9 193e 1f02 373d fe9a 84bd f47e d0bc
-0.051526904 -0.21528295 -0.0059508015 0.2141144 -0.10308467 -0.012139353 -0.05605898 -0.07000071
0.0044999337 0.10560891 -0.029287802 -0.019748267 -0.009209597 -0.14264569 0.008484885 -0.024010494
-0.039758407 -0.19003056 0.0326828 -0.10794506 0.027822467 -0.044642337 -0.093022935 -0.063849986
0.025082024 -0.0772414 -0.06162954 0.034178823 0.014734873 -0.05803295 0.010051619 0.07203221
0.11080763 0.08595082 0.102014974 0.00744166 0.13447519 -0.04105435 -0.010583693 -0.06996063
-0.12187261 0.026958486 0.11180005 -0.11346245 -0.0688215 -0.11474123 0.025833942 0.027350957
-0.03050882 0.06674757 -0.1140802 0.06816382 -0.118487015 -0.017228242 -0.016273528 0.093849726
-0.16421905 -0.0003551172 -0.054023713 0.01605393 0.02441021 0.15545699 0.109600626 0.016110262
-0.21242492 -0.059973586 0.0011351928 -0.13736749 0.14735717 0.031680033 -0.009611136 -0.15322874
-0.14508197 -0.03182465 -0.050826725 -0.06402708 -0.09620382 -0.022305135 -0.07057003 0.02761237
-0.07030874 0.08358701 0.10017038 0.06451707 -0.0950131 -0.09130555 -0.06704842 0.036953844
0.041293386 0.12114108 0.032813407 -0.06997266 0.091502376 -0.19328232 0.014049625 0.14972602
0.045621667 0.035889186 -0.11262904 -0.02831397 0.103912205 0.09608043 0.019639347 -0.06281923
-0.16767474 -0.11818034 -0.24677032 -0.21550804 0.041248634 -0.061403047 0.043142922 0.008073515
0.15716621 -0.04841122 0.06308048 -0.089788035 -0.27361718 -0.11068865 -0.010386552 -0.04292383
0.18628341 0.10484536 -0.06732132 -0.09377593 0.0034778044 0.09141196 0.03114467 -0.1489475
0.06759964 -0.11261588 0.0065432237 0.20179117 0.09575071 -0.012036427 -0.045595553 -0.06005725
0.014313786 -0.001086802 -0.11374447 -0.05423717 -0.17710249 0.11250341 -0.10173981 -0.054411188
-0.12388307 0.063198164 0.017248323 0.013132277 0.13571523 -0.13192832 0.0137789855 0.03525155
0.058594182 0.0825508 -0.11525778 0.09174164 0.074519254 0.030297125 0.05129349 0.1919074
0.025349466 -0.219581 0.18341938 -0.26876667 -0.048452117 0.009573103 0.041112166 0.04555378
0.16761747 0.04579936 -0.13396607 0.13997184 0.04018113 -0.06772161 -0.02824889 -0.08354185
-0.18547927 -0.07433029 -0.07943688 0.038498458 -0.024427025 0.21386535 0.104965955 -0.008200557
0.043845505 -0.06973905 -0.045235407 0.09681377 0.09915041 -0.0675578 0.0888999 -0.10478013
0.0373389 -0.063173376 0.072465844 0.11565815 0.05654134 0.016683409 0.036826424 -0.0701797
0.0810238 0.04133835 -0.0045195697 -0.08123087 0.0863164 0.022595853 -0.04459921 0.19452026
-0.24692622 0.07346575 0.013492512 -0.05245264 0.16307265 0.08297392 0.09166798 -0.035150547
-0.074676126 0.0362432 -0.10084823 0.0007361998 0.14311676 0.070452176 -0.03081161 0.11108995
0.10794304 -0.06686974 -0.054469913 0.124491684 -0.08060997 -0.05106485 -0.1260239 0.025195634
0.037938464 -0.056134094 -0.05570388 -0.08105087 -0.015330973 -0.10815823 -0.11222901 -0.048415642
-0.14135337 -0.034846026 0.114386894 0.121444695 -0.004320761 0.103066586 -0.10827352 -0.20246144
-0.06945824 0.10743544 0.07100585 -0.11106134 0.15012296 0.044679757 -0.06474875 -0.025451161

conv3.bias f4 [64]
00000000: 318d da3c c12e 05bd 6a60 31bd 1f0a 933c
00000010: bb79 013c ca26 413d 28ac 10bd 3cb5 a439
00000020: 336f 13bd 47bb 11bd 2329 953b 3067 72bc
00000030: e560 0abd 785d dabc 234e efbc 0515 403c
00000040: 485c b8bc b058 fabc 2ffa 103c 6711 673c
00000050: c009 15bd 9055 db3c 980e 82bc be6a 8c3b
00000060: 4e0b 223d 7b45 ee3c 6595 093c f115 293d
00000070: d083 813c 9d18 f83b 1336 f83c 1219 6c3c
00000080: 5fab b23c 6da3 c83b aeee c23c 31df 253c
00000090: 5a03 20bd 4143 323c d779 f0bc 1e3f dbbc
000000a0: 70b7 f53c 26d8 a23b c6eb d93b d60a 093d
000000b0: f59f 05bd df94 2a3b e94c 10bd 2ff5 ad3c
000000c0: 3de0 003d ea8e 6f3b a301 a8bc 967c 0a3c
000000d0: 3c5a 983b 5548 99bc 3ace b33c 29b3 5dbc
000000e0: a0e2 c73c b11a c63c e0d5 843c b380 983c
000000f0: 6351 c63c bcbb 6d3a eb34 22bd 3837 b4ba
0.026678653 -0.03251529 -0.04330484 0.017949162 0.007902558 0.047156133 -0.03532043 0.00031415548
-0.03599472 -0.035578992 0.004552023 -0.01479511 -0.033783812 -0.026655897 -0.029212063 0.011723761
-0.02250494 -0.030559868 0.008848711 0.01410327 -0.03638625 0.026774198 -0.0158761 0.0042851856
0.039561562 0.029085865 0.008397435 0.04128069 0.015809923 0.0075712935 0.030299222 0.014410274
0.021810232 0.0061229975 0.023795452 0.010124014 -0.039065696 0.010880292 -0.029354973 -0.026763495
0.029994696 0.0049696146 0.006650421 0.0334576 -0.03262325 0.0026028675 -0.035229597 0.021235077
0.03146385 0.003655369 -0.020508593 0.008452555 0.0046494287 -0.018711248 0.021948922 -0.013531485
0.024400055 0.02418265 0.016215265 0.018616056 0.02420873 0.0009068807 -0.039601248 -0.0013749367

bn3.weight f4 [64]
00000000: 92d9 483f 38da 8d3f 9056 723f da1a 853f
00000010: d7fd 933f 8aee 703f ca30 753f eea4 703f
00000020: 40fb 713f 0997 613f 0584 713f 5f47 653f
00000030: a9f2 7b3f 9f42 893f 68aa 613f 7cb6 963f
00000040: 4ba5 7d3f 95fa 673f 67ee 943f b65c 763f
00000050: 446e 613f 0b93 4e3f fb42 793f f202 863f
00000060: 1693 793f 8397 753f f59b 753f 4aea 8f3f
00000070: df37 723f 02a6 8d3f 5ab4 803f f165 973f
00000080: 6d7a 543f ae28 793f f7d4 5c3f ab7e 883f
00000090: 7672 883f aae6 6e3f bac0 7d3f 0c80 833f
000000a0: fa8c 803f 9d5c 8d3f b725 9c3f 6d41 753f
000000b0: 9cd9 8e3f 3ce4 553f 4985 493f c057 9e3f
000000c0: cb03 783f 1e1a 983f 4bd2 6d3f e255 4a3f
000000d0: d3e4 6c3f a0a3 6b3f 0cbf 683f 1bae 753f
000000e0: 3398 7f3f 3c80 873f 6436 8c3f 04c7 843f
000000f0: 2e54 7f3f 15ac 763f fbfc 623f 285c 953f
0.78456986 1.108222 0.94663334 1.039882 1.1561841 0.9411398 0.9577757 0.9400166
0.94524 0.88121086 0.9434207 0.8956203 0.98417145 1.0723456 0.88150644 1.177444
0.9908034 0.9061673 1.1635255 0.96235216 0.88058877 0.8069312 0.9736783 1.0469649
0.9749006 0.95934314 0.95941097 1.1243374 0.946165 1.1066287 1.0055039 1.1827985
0.82999307 0.973277 0.8626246 1.0663656 1.0659931 0.93320715 0.991222 1.0273452
1.0043023 1.1043888 1.219901 0.95802957 1.1160159 0.83551383 0.78719 1.2370529
0.9688079 1.188297 0.92899007 0.79037297 0.9253666 0.92046547 0.90916514 0.9596879
0.9984161 1.0586009 1.0954099 1.0373235 0.99737823 0.96356326 0.8866727 1.1668749

bn3.bias f4 [64]
00000000: fe20 1ebe 6d8c 28be 094c 6ebe ba97 5fbe
00000010: a4d8 a2be f896 0fbc a00c 45be 32a2 9dbd
00000020: a210 51be 21f3 07be af0f 20be b7a7 a7bb
00000030: a679 7bbe 2082 0dbe dd73 6cbe 6f95 6bbe
00000040: a982 98be 3d87 85be ee55 cfbe 9f92 acbd
00000050: a67a 90be 7c1d 55be fd71 aebe ab4e a73d
00000060: 618e a6be 26c5 b2be 2257 54be 4f35 0cbe
00000070: 4a53 8ebe 65ef 73be 4cfb a5be 4839 e0bd
00000080: 1d3b c8bd 9099 22bd 45dc 0cbe 61d0 73be
00000090: b813 3fbe 3af9 7ebe 2b16 80be a34d adbd
000000a0: 067b 83be 677a 99bd db04 d1bd cbdc 98bd
000000b0: 90c9 55be 5ef0 81be c692 cabd ac0e 0ebe
000000c0: 8b14 9cbe 1fad f6bd 0579 243d 7925 87be
000000d0: 707e 39be fa8b 3cbe 90ff 88bd 955f e8bd
000000e0: c8ce 84be 7df5 8ebe a330 91bc 6de2 4abe
000000f0: 14d1 ebbe ec85 ae38 b426 63be 7dd5 b2be
-0.15442273 -0.16459818 -0.23271193 -0.21835223 -0.3180591 -0.008764021 -0.19243097 -0.07696952
-0.20416501 -0.1327634 -0.15630983 -0.0051164287 -0.24558124 -0.1381917 -0.23091073 -0.23006223
-0.29787186 -0.2607974 -0.40495247 -0.08426403 -0.28218573 -0.20812029 -0.3407134 0.081693016
-0.325305 -0.34916037 -0.20736364 -0.1369221 -0.2779792 -0.2382179 -0.32418287 -0.109484255
-0.097769 -0.03969723 -0.13755901 -0.23809959 -0.18659866 -0.2489976 -0.25016913 -0.08462074
-0.25679797 -0.074940495 -0.10206004 -0.07463988 -0.20877671 -0.25378698 -0.09891276 -0.13872784
-0.30484423 -0.12044739 0.040154476 -0.26395777 -0.18114638 -0.18412772 -0.0668937 -0.11346356
-0.25939012 -0.27921668 -0.017723387 -0.19812937 -0.4605795 8.3219114e-05 -0.22182733 -0.34928504

bn3.running_mean f4 [64]
00000000: f1a4 ebbf 51e5 5ebf 592e a9bf 71c9 28c0
00000010: b74b b2bf 1e77 9bbf 687d debf 61a2 ecbf
00000020: 4659 9f3e a297 71c0 e20d 193f a5ea 8d3f
00000030: e443 16c0 9395 ccbf 0467 93bf 2f9b cbbf
00000040: 3e74 05be 48aa c2bf a8e3 023f fdf2 04c0
00000050: a7df 19c0 9157 ae3f 2ac0 b63f 1471 0f3b
00000060: 5a8e 32c0 e94f 6cc0 487e eabe 00b3 14c0
00000070: 247d 58c0 5992 e6bf e2f5 63bf f07f 39bd
00000080: cf3f 94bf abae 8ac0 cecd 57bf 1355 663e
00000090: 74e6 64bf d49c aabe e1a5 1abf 1212 6ac0
000000a0: 65a9 f7bf 5a6a 00c0 df1d 76bf 4a68 d0bf
000000b0: 2526 0cc0 35ae c53f b137 a43f d2d7 35bf
000000c0: 19e8 e1be f7c1 e0c0 6f74 7cc0 18bb 2a40
000000d0: fa10 15c0 fd96 74bf 4bc0 3ec0 3e9e f43f
000000e0: a219 72c0 e5a5 c5c0 85b7 acc0 1cb9 1b3f
000000f0: d638 01c0 ea1f 2bc0 1ef9 b8bf 7ca1 18bd
-1.8409711 -0.8706866 -1.3217269 -2.637295 -1.3929356 -1.2145727 -1.7382021 -1.8487054
0.31122798 -3.77488 0.5978681 1.1087233 -2.3478937 -1.5983146 -1.1515813 -1.5906733
-0.13032624 -1.5208216 0.51128626 -2.0773308 -2.4042757 1.3620473 1.4277394 0.0021887468
-2.7899384 -3.6923773 -0.4579947 -2.3234253 -3.382638 -1.8013412 -0.8904706 -0.045288026
-1.1581973 -4.333822 -0.8429841 0.2249339 -0.89414144 -0.33322775 -0.6040936 -3.657353
-1.934857 -2.0064912 -0.9613933 -1.6281826 -2.1898282 1.5443789 1.2829496 -0.7103244
-0.4412239 -7.0236773 -3.9446065 2.6676693 -2.3291612 -0.9554289 -2.9804866 1.9110792
-3.7828145 -6.176501 -5.3974023 0.6082933 -2.019094 -2.6738229 -1.4451025 -0.03726338

bn3.running_var f4 [64]
00000000: a559 1141 5c57 9541 b688 3e41 c11d 8641
00000010: f6b1 1e41 cd3a dc40 9bd7 2841 4d69 4d41
00000020: 4633 fc40 d907 8f41 7aea ec40 be1f 1d41
00000030: ffab 1141 a60e 2e41 b64a 4041 61c5 6a41
00000040: 8f68 0441 2c08 2d41 4009 4a41 7028 3241
00000050: 1683 1b41 0ad1 0041 1d5f 3841 9e65 1f41
00000060: 1727 7041 82cb 0741 4e81 2e41 24ae 4e41
00000070: 1e1d 0541 da4e 6541 78cc 0541 1bdb 4c41
00000080: f0be 2b41 0679 8641 0a41 2d41 1621 8f41
00000090: 2b2a 0241 7511 df40 b5ce 2141 aac0 5841
000000a0: 7d15 2e41 b5b0 5641 c39b 6341 5a2c 4641
000000b0: f9f0 6241 c680 2741 5079 dd40 3549 9141
000000c0: 862d 3741 e8df c141 31e5 9041 1861 1d41
000000d0: 1d1a 1941 d656 3641 7f2b 2d41 9830 2341
000000e0: b22f 8c41 bfaa 4941 cc08 2241 ac5d 3641
000000f0: 7964 2241 bb2e a141 46a5 6e41 49ed d340
9.084386 18.667656 11.908377 16.764528 9.9184475 6.882178 10.552638 12.838208
7.881259 17.878832 7.4036226 9.82025 9.104491 10.878576 12.01824 14.673188
8.275527 10.814495 12.627258 11.134872 9.719503 8.051035 11.523221 9.962309
15.009543 8.487185 10.906569 12.917515 8.319609 14.331751 8.362419 12.803493
10.734116 16.809093 10.828379 17.891155 8.135295 6.970881 10.112966 13.547037
10.880246 13.418141 14.225528 12.385828 14.183831 10.468939 6.9210587 18.160746
11.448614 24.23433 18.11191 9.836205 9.568875 11.3962 10.823119 10.199364
17.523289 12.604186 10.127148 11.397869 10.149529 20.147818 14.91535 6.6227155

fc1.weight f4 [128, 576]
00000000: 7f3f bfbd 7d19 1dbc 24ca 32bc e2bb 073e
00000010: a1e6 0e3e bbbe 08bd 3c4a a5bd 416f 80bd
00000020: 3fc5 c63d 4f83 623d 0fb9 be3c c7e0 6e3d
00000030: b072 023c 1382 4a3d e6f5 e9bc e511 a33d
00000040: 53d8 6dbe 6317 36be 0d7f 503d 4ed9 c4bc
00000050: ad8c cdbc db1d 0abe 76e8 81bd cceb 0b3e
00000060: 9ed4 133c 3f06 073e 9c04 a73d 21f5 2e3e
00000070: b571 8ebd 0258 d43d facb 2abd 4a69 733c
00000080: dccd 743b 3d07 ddbd 256d 97bd 5a34 e23d
00000090: a950 a1ba ea88 44bd 60e9 c8bd e5ff 0fbe
000000a0: ab05 0a3e 2e2d aebd 88d2 61bd 95c9 78bd
000000b0: d081 e1bd 0141 173d 6e18 073d dd6d cb3b
000000c0: 69e3 29be 8c82 88bd 4234 a73d 2775 353e
000000d0: 2ce1 383d 5822 d2bc 0ff2 043d d734 e1bd
000000e0: 50b7 8d3b dcb9 83bd ea7e 0bbe 75ad d43d
000000f0: b19c b6bd d1d6 a73e 88ee afbd 289c 953d
00000100: 9002 823e 021c d43d bdd7 d7bd 901a c63c
00000110: 5bfc 823d 09c1 99bd 01b1 ba3d 197e 47bc
00000120: 987f 083e aed1 b63d c3d0 fe3d 593d d33d
00000130: 63cc 9f3d 21a3 1c3d 8d11 89bc 4041 08be
00000140: 5065 cfbb bf2a 543d b5d7 9d3d b9f3 ec3c
00000150: 7d8c 463d dbe6 dfbc a01b b03d 5465 52be
00000160: 9b70 cebc 0218 d0bd 55b2 e13d ae51 b33d
00000170: 4e76 89bb 7a08 7dbc 1171 8e3d a30b aebc
00000180: 9105 e6bd 674d 963b 1a3e 60be c9d3 f63d
00000190: 6223 9d3d b940 f7ba ca6f 86bd 8b99 33bd
000001a0: fa8d 3bbd bcd9 b3bd 7bbf 413c f9c2 b3bd
000001b0: b8bc 03bd e7a5 cebd c711 26bd 9dda 08bd
000001c0: 3c5d 88ba e54b 5abc d95f 22bd 4d36 843d
000001d0: 09a9 3cbd 876d 8dbd 573d 1fbc 88d3 8bbd
000001e0: 78a2 fdbd 645f c13d b87e ce3c b7ed 223c
000001f0: a7a6 b5bd 9f98 963d 2247 2b3c 4dfb 67bd
00000200: 112b ce3c 1c09 48bd f831 24bd 98af 4dbd
00000210: fa6c 123b e084 d33d abf2 1ebd f6d9 efbd
00000220: b798 27be 8c82 27be ce7b a0bd 5bcd bcbd
00000230: e9b8 303d 9fd9 cd3d 46d6 26bd ea44 0b3e
00000240: ed49 d4bd eedc b4bd e8f3 87bb 5483 8dbd
00000250: 94f2 d63d 2686 90bd ea5d 633d 57f3 7cbc
00000260: 0dc2 d43b 6014 093e ec0b 973c cb0a 80bd
00000270: 4f73 f7bc b69d ce3c 2d29 c5bd aa61 2fbd
00000280: 9348 d0bd 2e90 84bd 0725 0e3e 9aec 063e
00000290: e878 cd3d 0c87 333e 2b9d 0b3d d6f8 71bd
000002a0: 9ff3 f83d ec66 243e 3515 5b3c 75d0 653d
000002b0: 65aa c03d 7fd8 81bd 9c5c 9ebd db30 453d
000002c0: 54b8 be3c 9e99 5fbd 586f c73d 4b14 bb3d
000002d0: 32a5 64bb e7be bcbd 16a8 843c 9343 fb3c
000002e0: a0d8 013e 638f 4f3c dd8f 26bd de80 0b3d
000002f0: 5517 42bd 201a 4dbc 9b6f ae3d 4a8c 0bbc
00000300: d13c 0e3e 468e e33c 7971 54bd 1709 acbd
00000310: 792b 293e 5e52 8fbd e428 48bd 660f 623c
00000320: e38b 00bd 9801 863d 269d 73bd b25f 583d
00000330: 21f5 1a3c 8bc3 843d a4ee adbd 012d 673d
00000340: f6dd 813d 7d46 f83d 9b35 fdbd 5a54 7dbd
00000350: 04be c13c b0d2 3a3e 693c 84ba 8299 c7bd
00000360: 81bd 5abc c7a4 2fbe 0898 2bbc fef8 26bd
00000370: ccc1 3b3d c668 2a3d 58f1 87bd 40ed e03b
00000380: cc14 6fbd 18c6 bd3b 60a6 40be edf9 cfbd
00000390: c803 94bd 2b8c b93d 9045 563e 5411 36bd
000003a0: dfe3 253e 01b1 ffbc 6510 62bd 8e94 21be
000003b0: c83b 14bd 2afa 04be 1a94 acbd ba76 8abd
000003c0: 86c8 bfbc 9c39 293e ef13 3d3d bb52 6a3e
000003d0: 2095 77bc 8804 09bc faf1 463e e0f2 13be
000003e0: a425 373c c531 573d f5dc 003e b0e5 253e
000003f0: 835d 8d3d aeb6 c2bd af96 423d d0eb 093e
-0.09338283 -0.009588596 -0.010912452 0.13255265 0.13955165 -0.03338502 -0.080708 -0.0627122
0.097055905 0.055301007 0.023281602 0.058319833 0.007961914 0.049440455 -0.028559636 0.079623975
-0.23227052 -0.17782359 0.050902415 -0.0240294 -0.025091494 -0.13487951 -0.063431665 0.13664168
0.00902286 0.13185976 0.08155176 0.17085697 -0.06955282 0.10368349 -0.041698433 0.014856646
0.0037354147 -0.10792396 -0.073938645 0.110451415 -0.0012307364 -0.047982134 -0.09810138 -0.1406246
0.13478725 -0.08504711 -0.05513242 -0.06073912 -0.11011088 0.036927227 0.032982282 0.006208165
-0.16590656 -0.06665525 0.08164264 0.17720471 0.045136616 -0.025651142 0.032457408 -0.109964065
0.004324831 -0.06431934 -0.13622633 0.10384647 -0.08916605 0.3278108 -0.08590418 0.07305175
0.2539258 0.103569046 -0.10539196 0.024182588 0.06395789 -0.07507522 0.09115792 -0.01217606
0.13329923 0.08926712 0.12442162 0.103144355 0.078026555 0.03824151 -0.016732002 -0.13306141
-0.006329216 0.05179858 0.077071585 0.02892481 0.048473824 -0.02733176 0.08599019 -0.20546466
-0.025200179 -0.10160829 0.11020342 0.087558135 -0.004195011 -0.0154439155 0.069551595 -0.021245783
-0.112315305 0.004586864 -0.2189869 0.120521136 0.07672764 -0.0018863893 -0.06564291 -0.0438476
-0.045789696 -0.08781764 0.011825438 -0.087774225 -0.032162398 -0.10090237 -0.040544298 -0.03341161
-0.0010403763 -0.013323759 -0.03964219 0.064556696 -0.046059642 -0.06905656 -0.009719214 -0.06827456
-0.12384504 0.094420224 0.025206909 0.009944371 -0.08869677 0.07353329 0.010453971 -0.056636143
0.02516702 -0.048836812 -0.040086716 -0.050216287 0.0022342787 0.10328078 -0.038805645 -0.117114946
-0.1636685 -0.16358393 -0.07836114 -0.09218856 0.043145094 0.100512736 -0.04073169 0.13600507
-0.10365663 -0.088312015 -0.004148949 -0.069098145 0.10495487 -0.07056837 0.055509485 -0.015438876
0.006492859 0.13386679 0.018438302 -0.062520586 -0.03020635 0.025221687 -0.09626994 -0.04281775
-0.101700924 -0.064728126 0.13881312 0.13176194 0.10032827 0.17531985 0.034085434 -0.0590752
0.12155842 0.16054887 0.013371755 0.056107003 0.094075 -0.063401215 -0.077325076 0.048142295
0.023281254 -0.05458986 0.09738034 0.0913473 -0.0034888503 -0.09216099 0.01619343 0.03067187
0.12680292 0.012668463 -0.040664542 0.034058444 -0.047385532 -0.012518436 0.08517381 -0.008517334
0.13890387 0.027777802 -0.05186603 -0.08400171 0.1652049 -0.06998132 -0.04886712 0.013797617
-0.031383406 0.06543273 -0.05947604 0.052825637 0.009457857 0.06482609 -0.08492783 0.056439403
0.06341164 0.121228196 -0.1236374 -0.061848022 0.023650177 0.18244433 -0.0010088804 -0.09746076
-0.013350845 -0.17152701 -0.010473259 -0.0407648 0.045839116 0.041603826 -0.066378295 0.00686422
-0.058369443 0.005791437 -0.18813467 -0.101550914 -0.07227284 0.09059938 0.20924973 -0.04445012
0.16200207 -0.031212332 -0.055191416 -0.15779325 -0.036189824 -0.12986055 -0.08426686 -0.067609265
-0.023411047 0.16525882 0.04616159 0.22883122 -0.015111238 -0.008362897 0.19428244 -0.14448118
0.011178408 0.0525377 0.12584288 0.162009 0.069026016 -0.095075 0.047506984 0.13468862

fc1.bias f4 [128]
00000000: 0384 5cbc 390c 1dbd ceb5 1b3d c71d 113d
00000010: 7a70 ed3c 51b2 ccbb 1732 05bd 38c1 1f3b
00000020: 6e68 49bc 85a0 3ebc 4243 d43c 7d5c 0b3d
00000030: 3639 1c3d 07c5 febc 5788 053d 1180 03bd
00000040: d780 9e3c f1fd fe3b 58aa 903c 865b 263d
00000050: d362 6e3c 63bb c1bb 4a86 25bc 743b 983b
00000060: 78bb 043d 0938 c6bb 85c3 e53c e131 0a3d
00000070: 1ba6 a0bc fbd5 cfbc 58b9 033d 88fd ffbb
00000080: eef2 a2bb 816d c1bc c191 a8bc a998 bfbc
00000090: 2036 52bc f6c8 30bd 17c1 05bd e883 eabc
000000a0: 6c3d f63a 2690 23bc 5a89 ef3c 8903 8c38
000000b0: affc e13c d82b 25bd 3333 593b f968 5c3c
000000c0: 1e2b eb3c b7dc 84bc 33c0 843c ed76 463c
000000d0: 03a4 24bd 8e2b bfbc d920 0cbd 6bd7 98bb
000000e0: 2527 0abd 48c5 deb9 fd47 2abd 15a6 6ebb
000000f0: a94a 5b3c b457 c2bc b53b 56bc 0a10 28bb
00000100: 13ed 2fbc 0967 a3bc c53a b43c c9b9 6f3c
00000110: d428 2abc ed86 96bc 22b0 77bc a328 f93b
00000120: e123 143d 50c8 7b3c 8276 e7bc eeaf f9b8
00000130: 5760 0bbd 4183 88bc 7c85 1dbd b7f6 733c
00000140: d55a 99bc 4654 e3bc 1fc2 213c 42b5 483c
00000150: 498e ab3c 22a6 09bd 9b58 073d 5e2b 993c
00000160: 0ad6 693b cea5 0cbd 0ef7 7ebc b75f 9dbc
00000170: 7443 673c 7990 2e3d b328 81bc 25c1 243c
00000180: de17 a63c 9a29 50bb 6379 17bd 401e 1fbd
00000190: d3d9 24bd be02 9dbc 5a8c 313d 6129 dc3c
000001a0: 31fa 593b fbfa efbc 105e 2abc 0ce6 f8bc
000001b0: 4e48 b4ba 8703 85bc 83bd c53c 8a59 233d
000001c0: fa42 07bd 6f62 4d3c 8687 25bc 7c82 8ebb
000001d0: 50e4 dabc 11c2 9b3b 451c 9e3c 8305 013d
000001e0: 97db 353d 92e6 75bc 66fd 60bc 06ee c5bc
000001f0: e720 ecbc 27fb e83b 9e5c da3b 787c f6bb
-0.013459208 -0.038341735 0.03801518 0.03542879 0.028984297 -0.006246843 -0.032518473 0.0024376642
-0.012292964 -0.0116349505 0.025910977 0.03402375 0.038140498 -0.03109981 0.032600727 -0.032104556
0.019348545 0.007781737 0.017659351 0.040614627 0.014549929 -0.005912231 -0.010102818 0.0046457592
0.032405347 -0.0060491604 0.028047333 0.033738974 -0.019610455 -0.025370589 0.03215918 -0.0078122057
-0.004972807 -0.023611786 -0.020577313 -0.023388224 -0.012830287 -0.0431604 -0.032654848 -0.02862735
0.0018786616 -0.009983098 0.029240299 6.676379e-05 0.02758631 -0.040325016 0.003314209 0.013452762
0.028707083 -0.016218526 0.016204929 0.012113315 -0.040195476 -0.023336198 -0.034211013 -0.0046643517
-0.033728737 -0.00042490126 -0.04157256 -0.003641491 0.0133845 -0.02372346 -0.013075759 -0.0025644326
-0.010737675 -0.019946592 0.02200068 0.014631697 -0.010385711 -0.018374885 -0.015117677 0.007603721
0.03616703 0.015367582 -0.028254751 -0.00011906015 -0.034027424 -0.01666415 -0.03845738 0.014890364
-0.01872007 -0.027750146 0.009872942 0.0122502465 0.02094187 -0.033605702 0.033043485 0.018697437
0.0035680556 -0.03433781 -0.015561832 -0.01921068 0.014115203 0.04261825 -0.015766477 0.010055815
0.020275053 -0.0031763078 -0.036980998 -0.038847208 -0.040246796 -0.019166347 0.04334674 0.0268752
0.0033260698 -0.029294482 -0.010398403 -0.030383132 -0.0013754459 -0.016237034 0.024138218 0.039880313
-0.03302286 0.012535675 -0.010103112 -0.004349051 -0.026720196 0.004753359 0.01930059 0.031499397
0.04439887 -0.0150085855 -0.01373229 -0.02416135 -0.028824283 0.007110018 0.006663873 -0.007522162

bn4.weight f4 [128]
00000000: 8aea b03f 2d46 ae3f 08aa 9b3f d4e3 ae3f
00000010: 954e a53f 788a ac3f 954c b13f 3a32 a23f
00000020: 751f b43f 0538 a43f 8c18 b23f 9fd1 b23f
00000030: 0bfb b53f 5421 a83f 6a2d b33f 4666 a73f
00000040: 9e70 a13f 3cbd b03f fa9c bb3f b526 b33f
00000050: 2c82 a73f b5ec aa3f beeb af3f d738 983f
00000060: 3493 ab3f 904b ae3f b8d0 b83f a49e b73f
00000070: 663c bc3f 92d2 a73f 6860 a53f 6666 9b3f
00000080: 94e8 9f3f 3f87 b23f b035 b63f 4482 b93f
00000090: 926d af3f 546f a53f b0a4 a73f 0a2b a73f
000000a0: bd99 ab3f 9ab6 a43f 7c10 ba3f 548b b03f
000000b0: 5be4 ac3f 96bb c43f 65df b23f 510d b03f
000000c0: 5095 ab3f bb5a a03f a2da ad3f 6462 ad3f
000000d0: 2204 a03f f297 a33f a94f a33f a688 ac3f
000000e0: 16bb ad3f 4be4 b23f b1d2 a13f 187a 9e3f
000000f0: 7b45 a23f c4d4 a23f 1f06 a53f 1430 ae3f
00000100: caa7 b13f 93d1 b63f 8e7f ad3f 852b ae3f
00000110: 8cb8 a73f 0a0f b03f 97b4 ab3f dc9d ac3f
00000120: 129f a43f 5019 ae3f 109b a63f c9c4 b03f
00000130: c297 c03f c312 973f 5fc3 b53f 6180 a03f
00000140: 6d49 a53f 035b b63f 6833 b93f a8ba 9f3f
00000150: d65c aa3f 1171 9d3f 4a4e ad3f 633e b23f
00000160: 57f8 a03f e349 b23f 46cc c33f f349 ad3f
00000170: 11e3 c03f 6b84 ae3f 49a1 a93f 7252 a13f
00000180: 5d7b 9b3f 1494 b63f edd4 b63f ae83 c33f
00000190: 1391 ae3f 8b11 a03f 0bb1 b23f 07e9 b23f
000001a0: bf45 a73f 52e8 a83f eaa0 9d3f 78ec 983f
000001b0: a987 a93f e95a ac3f 1432 ad3f 2310 a73f
000001c0: d2e9 b43f e13b b43f 2d9c c23f 11ef a83f
000001d0: 0851 b03f f492 ad3f 998a a73f 9248 a13f
000001e0: bcd4 9f3f a373 9b3f 8e07 a23f d3df a93f
000001f0: 879b ab3f ccb7 a73f 36e9 ad3f f727 aa3f
1.3821576 1.3615166 1.2161264 1.3663278 1.2914606 1.3479757 1.3851496 1.2671578
1.40721 1.2829596 1.3913741 1.3970221 1.4217237 1.3135171 1.3998234 1.3078086
1.2612493 1.380775 1.465728 1.3996187 1.30866 1.3353487 1.3743818 1.1892346
1.3404298 1.361681 1.4438696 1.4345288 1.4705932 1.3111136 1.2920046 1.2140625
1.2492852 1.3947524 1.4235134 1.4492879 1.3705313 1.29246 1.3097134 1.306001
1.3406292 1.2868226 1.4536281 1.379252 1.3507189 1.5369747 1.3974425 1.3754064
1.3404942 1.2527689 1.3582346 1.3545651 1.2501261 1.2780745 1.2758685 1.3479202
1.3572719 1.397592 1.2642423 1.238101 1.2677454 1.2721181 1.2892493 1.3608422
1.387933 1.4282707 1.3554552 1.3607031 1.3103194 1.375459 1.3414487 1.3485675
1.2861044 1.3601475 1.3016071 1.3810054 1.5046313 1.1802601 1.4200248 1.2539178
1.2913033 1.4246525 1.4468813 1.2478838 1.3309581 1.230013 1.3539517 1.3925289
1.2575787 1.3928798 1.5296714 1.3538193 1.5069295 1.3634161 1.3252345 1.2603285
1.2147022 1.426394 1.428373 1.527456 1.3638023 1.2505354 1.3960279 1.3977364
1.306816 1.3195899 1.2314732 1.1947165 1.3244525 1.3465244 1.3530908 1.30518
1.4133856 1.4080774 1.5203911 1.3197957 1.3774729 1.3560472 1.3089172 1.2600272
1.2486796 1.2144665 1.2658556 1.3271431 1.3406838 1.3102965 1.3586795 1.3293446
